陈兴/week06/models/weather_rnn.pth (torch, 54776 bytes, 10 tensors)

rnn.weight_ih_l0 f4 [64, 1]
0	0x3b1faf4c	0.002436596
1	0x3b98bec6	0.004661414
2	0x3bbae0a4	0.005703049
3	0xbe848897	-0.2588546
4	0x3a2b8186	0.0006542433
5	0x3b45e3db	0.0030195627
6	0x3bfee281	0.007778466
7	0xbaceb4d2	-0.0015770441
8	0xbc1aa793	-0.009439367
9	0xbbb81ea2	-0.005618886
10	0xbe373e63	-0.17894892
11	0x3af00bc1	0.001831405
12	0x3aa47095	0.0012545759
13	0x39efd6a8	0.00045745564
14	0x3a974064	0.0011539576
15	0xbc27f1bb	-0.010250504
16	0xbc127998	-0.008940123
17	0x3ba24d3b	0.0049530542
18	0x3c6fed35	0.014643957
19	0x3bd2f4be	0.006437867
20	0x3d2d269d	0.042273153
21	0x3ba58a46	0.005051884
22	0xbb8008df	-0.0039073075
23	0x3b2d9f57	0.002649268
24	0xbc0c3c6f	-0.00855933
25	0x3c659a41	0.014013828
26	0x3b80ba42	0.0039284537
27	0xba8c8643	-0.0010721165
28	0xbd4cec61	-0.050030116
29	0xbb9f4556	-0.0048605604
30	0xbc3bcb03	-0.011461976
31	0xbc1c7dee	-0.009551508
32	0x39a62ab8	0.00031693815
33	0x3ce48f12	0.027900252
34	0xbc29d949	-0.010366746
35	0x3ea7fb0c	0.3280872
36	0x3b0a37ce	0.002109039
37	0x3b5f9598	0.0034116264
38	0xbb939081	-0.00450331
39	0xba3c6534	-0.00071867113
40	0xbb718796	-0.0036854497
41	0xbebdc8e5	-0.37067333
42	0x3e1e2875	0.1544512
43	0xbeb3eb71	-0.35140565
44	0xbb22f930	-0.0024867766
45	0xbe271c1b	-0.16319315
46	0xbe478a82	-0.1948643
47	0xbe7e081e	-0.24807784
48	0xb9bb70e0	-0.00035751518
49	0xbc12ef21	-0.008968146
50	0x3ea3bcc9	0.3197997
51	0x3ead3763	0.3383132
52	0xbea66d54	-0.32505286
53	0x3b59d229	0.0033236837
54	0x3c61c32f	0.013779446
55	0x3b98ff68	0.0046691187
56	0xbae86314	-0.0017729723
57	0x3a9504ef	0.0011369268
58	0xbc89a673	-0.016803002
59	0xbd860235	-0.0654339
60	0x3abe8208	0.0014534602
61	0x3bb6acdc	0.0055748057
62	0x3e14ca47	0.14530288
63	0x3bae7cf7	0.0053249556

rnn.weight_hh_l0 f4 [64, 64]
0	0xbed3f864	-0.41400445
1	0xbd02e234	-0.031954005
2	0xbcaeaabb	-0.021321645
3	0x3d2e6e12	0.04258544
4	0xbd11af86	-0.035567783
5	0xbd323f85	-0.04351761
6	0xbe20ba05	-0.15695961
7	0x3cd7ca3b	0.026341548
8	0x3b7d17ac	0.0038618846
9	0xbd8a6fb4	-0.06759587
10	0xbd164793	-0.036689352
11	0xbbeed2f6	-0.007288332
12	0x3d90d5c7	0.07072025
13	0xbda4b5a8	-0.08042461
14	0xbcb49743	-0.022044783
15	0x3dff8888	0.12477213
16	0x3da2371d	0.07920668
17	0x392f1f1a	0.00016700887
18	0x3e18de20	0.14928484
19	0x3ccff78e	0.025386598
20	0xbd8cc904	-0.06874278
21	0xbd84476f	-0.064589374
22	0x3db1fd8f	0.086909406
23	0x3b2945ac	0.0025828881
24	0xbd97b461	-0.074074514
25	0x3cb8fa82	0.022580389
26	0xbd514ac7	-0.051096704
27	0x3d075f7f	0.033050057
28	0xbdb85472	-0.09000482
29	0x3dda871d	0.10670302
30	0xbd55b25d	-0.052172054
31	0xbc4334e0	-0.011914462
32	0xbe7e91e1	-0.24860336
33	0xbd51c700	-0.05121517
34	0x3ca682fb	0.020326128
35	0x3bf5ef4f	0.0075053344
36	0xba8cc184	-0.0010738824
37	0x3d5317fe	0.051536553
38	0x3e0c7967	0.13718186
39	0xbdc3f806	-0.09568791
40	0x3de61cf8	0.11235994
41	0x3d44812f	0.04797476
42	0x39ccf437	0.00039091866
43	0xbdd1681c	-0.102249354
44	0xbd2c35d8	-0.042043537
45	0xbd01cc31	-0.031688873
46	0x3cd93d8a	0.026518602
47	0x3de90280	0.1137743
48	0xbd9b9ad0	-0.075978875
49	0xbd99368f	-0.07481109
50	0x3d33aa16	0.04386338
51	0xbbf96f14	-0.0076121185
52	0x3daa610f	0.08319294
53	0xbd879ff9	-0.06622309
54	0xbcd0fe66	-0.025511932
55	0x3d5584c6	0.052128576
56	0xbd11a4ce	-0.03555756
57	0x3d610cac	0.054943725
58	0x3de7a086	0.11309914
59	0xbcd4f16e	-0.025994029
60	0xbd4bdd34	-0.049771503
61	0x3e35d6df	0.17757748
62	0x3da6fa6e	0.081532344
63	0x3c19dfd6	0.009391746
64	0x3a51f877	0.00080097414
65	0xbf0593f9	-0.52178913
66	0xbdceabf6	-0.10091393
67	0x3c7798fb	0.015112157
68	0xbc0854ee	-0.00832103
69	0x3db01f17	0.0859968
70	0xbd522fb6	-0.051315032
71	0x3d83ef93	0.064421795
72	0x3d8f1ef2	0.06988324
73	0xbb8b8395	-0.004257629
74	0xbd91f11b	-0.07126065
75	0x3c7a09cf	0.015261128
76	0xbd1a5e59	-0.037687633
77	0x3d8fe07c	0.07025239
78	0xbd69f6c0	-0.057120085
79	0xbe8752ee	-0.26430458
80	0x3d57470a	0.052557983
81	0x3b7732a3	0.003771939
82	0x3deb33a2	0.114844576
83	0x3c617e52	0.013763027
84	0xbdf3a12c	-0.118959755
85	0xbd3560e6	-0.044281863
86	0xbd4de0b7	-0.050263133
87	0xbc110503	-0.008851293
88	0xbc0e761b	-0.008695151
89	0x3d6334f5	0.055470426
90	0xbda50be8	-0.080589116
91	0xbd390332	-0.045169063
92	0xbdbb4029	-0.09143097
93	0x3c799309	0.01523281
94	0x3da259c6	0.07927279
95	0xbe245d8d	-0.16051312
96	0x3e48d43a	0.19612208
97	0x3dfd0459	0.12354345
98	0x3d7670d6	0.060166202
99	0x3ddbb283	0.10727408
100	0xbcd464cc	-0.02592697
101	0x3dad294a	0.08455141
102	0x3d30facd	0.043207932
103	0xbcefcc92	-0.029272351
104	0xbd001079	-0.03126571
105	0xbde9d252	-0.114170685
106	0x3d48d0b2	0.049027152
107	0x3dfc2611	0.12311948
108	0xbb86b775	-0.0041112253
109	0xbcb9ae89	-0.022666233
110	0xbdd5a0a6	-0.10431032
111	0x3e29944f	0.16560481
112	0xbc1d3efb	-0.009597535
113	0x3d1750fc	0.036942467
114	0xbd79c917	-0.06098279
115	0x3d2c552e	0.04207342
116	0x3d2f5730	0.042807758
117	0xbdbcdafd	-0.09221456
118	0x3d1fd52c	0.039021656
119	0xbd11dfd0	-0.035613835
120	0x3e045365	0.12922437
121	0x3d8354be	0.06412648
122	0x3e09d6d9	0.13460864
123	0xbccafab0	-0.02477774
124	0x3d20ac1f	0.039226647
125	0xbc8c343f	-0.017114757
126	0x3e2e39d6	0.1701425
127	0x3ca9613d	0.02067625
128	0x3d8c0cf7	0.0683841
129	0x3dc91e13	0.09820189
130	0xbf048a6d	-0.5177372
131	0xbdaed255	-0.085362114
132	0xbd0414b6	-0.032246314
133	0x3bfc1c05	0.00769377
134	0xbdedd481	-0.116127975
135	0x3c847f75	0.016174057
136	0xbc25c9a5	-0.010118877
137	0x3ccc447c	0.024935
138	0x3dc53ef8	0.09631151
139	0xbdbe3fb7	-0.092894964
140	0xbd150e24	-0.03639044
141	0x3dc422a8	0.09576923
142	0xbd1c299a	-0.03812561
143	0xbdc8c62a	-0.09803422
144	0xbd3f8bf0	-0.046764314
145	0x3d420a5f	0.047373172
146	0xbc0c310d	-0.0085566165
147	0xbcd705fd	-0.026247973
148	0x3ca0e262	0.019639198
149	0x3d188a66	0.037241362
150	0x3d0a6009	0.033782993
151	0xbe2e0c47	-0.16996871
152	0x3d8016fc	0.06254384
153	0xbdf2a256	-0.118473694
154	0xbdc08d66	-0.094019696
155	0x3d14eb7e	0.036357395
156	0xbd4a3e23	-0.049375664
157	0xba97e303	-0.001158804
158	0xbe01bb23	-0.12669043
159	0x3c9f7e88	0.019469514
160	0x3db373a5	0.08762292
161	0xbd8cc666	-0.06873779
162	0x3d512ff0	0.051071107
163	0xbdce757e	-0.100810036
164	0x3d485a32	0.048914142
165	0x3c8e226b	0.017350396
166	0xbd0325de	-0.032018535
167	0x3d4fb21f	0.05070698
168	0xbcfad3ac	-0.030618511
169	0x3d86cbfa	0.06581874
170	0xbe25ec20	-0.16203356
171	0xbde17ff1	-0.11010731
172	0xbe074c34	-0.13212663
173	0xbc2f4c8d	-0.0106994035
174	0x3d909cc0	0.07061148
175	0xbd49557f	-0.0491538
176	0xbd1b95e5	-0.037984747
177	0xbcf5fef2	-0.030028794
178	0x3d032f2f	0.03202742
179	0x3d862fe2	0.06552102
180	0xbd983b16	-0.07433145
181	0xbd3e5f69	-0.04647771
182	0xbd37d8d0	-0.044884503
183	0x3d8261fc	0.06366345
184	0x3de01ba7	0.10942774
185	0xbcdb7297	-0.02678804
186	0x3cfb68fe	0.030689713
187	0x3b93e6e9	0.0045136106
188	0xbd562b5b	-0.05228744
189	0x3d11be0a	0.035581626
190	0x3c7a78e7	0.015287614
191	0x3c0a3b4d	0.00843699
192	0x3cd1b1d3	0.025597489
193	0x3db60566	0.088877484
194	0x3b842ec6	0.004033896
195	0x3e8c9a19	0.27461317
196	0xbc4dfd5a	-0.012572611
197	0xbcea1a82	-0.028577093
198	0xbd6eedee	-0.058332376
199	0xbbf60438	-0.007507827
200	0xbda86ac9	-0.08223493
201	0x3c8b5bd8	0.017011568
202	0xbd1f3c59	-0.03887591
203	0x3cc70350	0.024293572
204	0xbdbb64d0	-0.09150088
205	0x3d5e8da1	0.054334287
206	0xbd7d639e	-0.06186258
207	0xbced641f	-0.028978406
208	0x3d6f788e	0.05846458
209	0x3c9e4912	0.019321952
210	0xbb6b3de5	-0.0035895046
211	0x39956cd0	0.00028500566
212	0xbca13b67	-0.019681646
213	0x3d1264b6	0.035740577
214	0x3d839ac0	0.064260006
215	0x3d371aec	0.04470341
216	0x3d7ff606	0.062490486
217	0x3cd43eef	0.025908915
218	0xbd532d18	-0.051556677
219	0xbdbf5421	-0.09342218
220	0x3c888c76	0.01666854
221	0xbcc69998	-0.024243161
222	0x3d87d129	0.06631691
223	0x3c9e0fb1	0.019294592
224	0x3e084686	0.13308153
225	0xbdd3f940	-0.10350275
226	0x3c9e52ca	0.019326586
227	0x3dba6996	0.0910217
228	0xbc86f1e5	-0.016472766
229	0x3bf6a0d9	0.0075264988
230	0x3c89b9d0	0.016812235
231	0xbc67672d	-0.01412372
232	0x3dc015f9	0.09379191
233	0x3d20b858	0.039238304
234	0xbe3eaedf	-0.18621396
235	0x3d5b251f	0.0535022
236	0x3c584b57	0.013201556
237	0x3e9b2ee1	0.30309203
238	0x3b65217a	0.003496258
239	0xba5a7b76	-0.0008334437
240	0xbaea46ae	-0.0017873847
241	0x3c855c23	0.016279286
242	0x3e4dbc40	0.20091343
243	0xbd8a14e4	-0.06742266
244	0x3dd4c695	0.10389439
245	0x3d9414be	0.07230519
246	0xbcda08d2	-0.026615534
247	0xbd225a74	-0.039637044
248	0x3c8da37b	0.017289868
249	0x3db4b920	0.08824372
250	0x3da6e5bb	0.08149286
251	0x3e18c07e	0.1491718
252	0xbcf63c94	-0.030058183
253	0xbdbf0e99	-0.09328956
254	0xbd97e5f7	-0.07416909
255	0x3d86041a	0.06543751

rnn.bias_ih_l0 f4 [64]
0	0x3c569702	0.0130975265
1	0x3d61ca00	0.055124283
2	0x3c351f50	0.011054829
3	0x3e02ba87	0.12766467
4	0xbcfbcfdc	-0.030738764
5	0x3c7695a9	0.01505033
6	0xbc54b452	-0.012982445
7	0x3d8057ee	0.06266771
8	0xbcccd65a	-0.025004555
9	0xbce1cab9	-0.027562486
10	0xbd7074f5	-0.05870529
11	0x3dc527b1	0.09626711
12	0x3dc08aac	0.094014496
13	0xbd6f6750	-0.058448136
14	0x3db962f2	0.090520754
15	0xbd95deef	-0.07317912
16	0x3c45139d	0.012028602
17	0xbd042aa7	-0.03226724
18	0xbc330570	-0.010926589
19	0xbce29d64	-0.02766294
20	0xbdb0049e	-0.08594631
21	0x3d9f126a	0.07767184
22	0xbca0377d	-0.019557709
23	0x3d1289c3	0.03577591
24	0x3cad89e2	0.021183912
25	0xbd9da800	-0.07698059
26	0xbd1882e1	-0.03723419
27	0xbd28a3f8	-0.041171998
28	0x3daf3271	0.08554543
29	0xbdc5c11b	-0.096559726
30	0x3cf99e6d	0.030471051
31	0x3d1570c2	0.036484487
32	0xbb1e1c56	-0.0024125776
33	0xbcc96a19	-0.024586724
34	0xbb50a994	-0.0031839358
35	0xbdd23f6b	-0.10266002
36	0x3d06dd17	0.03292569
37	0xbc7b65ee	-0.015344126
38	0xbd0dbec7	-0.034605768
39	0xbdd33902	-0.10313608
40	0xbd1c0b7e	-0.038096897
41	0x3e20a22b	0.15686862
42	0xbda08dc7	-0.07839542
43	0x3dda811e	0.106691584
44	0xbd7b4214	-0.061342314
45	0xbc860137	-0.016358001
46	0x3def4032	0.11682166
47	0x3e0584f1	0.13038994
48	0x3c20ba7a	0.0098100845
49	0xbc171d6a	-0.009223321
50	0xbdcf5386	-0.10123353
51	0xbd82b512	-0.06382193
52	0x3c3bf8d1	0.011472897
53	0x3d304fbf	0.0430448
54	0xbd197765	-0.03746738
55	0xbcb59644	-0.022166379
56	0x3d378468	0.044804007
57	0x3ab94e44	0.0014137705
58	0x3d067fbc	0.03283666
59	0x3c2efb37	0.0106800115
60	0xbcbf043d	-0.02331745
61	0xbdd8710c	-0.10568437
62	0xbe13a2eb	-0.14417617
63	0x3cbdf798	0.023189351

rnn.bias_hh_l0 f4 [64]
0	0xbc0749c4	-0.008257333
1	0xbd503241	-0.050829176
2	0xbced44ad	-0.028963411
3	0x3d841e39	0.06451077
4	0x3cd96304	0.026536472
5	0xbc6338ba	-0.013868505
6	0x3c603feb	0.013687114
7	0xbd738202	-0.059450157
8	0x3ce1ace5	0.027548263
9	0x3d13a9a0	0.03605044
10	0x3e24ee46	0.16106519
11	0xbde04db1	-0.109523185
12	0xbdb58804	-0.088638335
13	0x3d5fa086	0.054596446
14	0xbdc1cb53	-0.09462609
15	0x3d9ebb74	0.077505976
16	0x3bc1efd5	0.005918483
17	0x3cf05fd9	0.029342579
18	0xb96fd819	-0.00022873319
19	0x3cc2d5e7	0.023783637
20	0x3d5b9ba7	0.05361524
21	0xbd9a2fd7	-0.07528656
22	0x3cbbbc13	0.02291683
23	0xbd3bffe6	-0.04589834
24	0xbc8dc5d6	-0.01730625
25	0x3d8587bb	0.06520029
26	0x3cc156f9	0.023601042
27	0x3d473b47	0.048640516
28	0xbcfaa637	-0.030596836
29	0x3dd05dd7	0.101741485
30	0xbcad1ac6	-0.02113093
31	0xbc811324	-0.015756197
32	0xbbf9f684	-0.007628264
33	0x3c96c603	0.018404966
34	0x3c4147a7	0.011796868
35	0xbe33496a	-0.17508474
36	0xbd119b9a	-0.035548784
37	0x3b8443c8	0.0040364005
38	0x3d2b6714	0.04184635
39	0x3dce485d	0.10072396
40	0x3d33ad4e	0.043866448
41	0x3da09c5c	0.07842323
42	0xbd423063	-0.047409426
43	0x3e09ff26	0.13476238
44	0x3d816376	0.06317799
45	0x3e2408ea	0.16019025
46	0x3d2207d7	0.039558258
47	0x3d60255d	0.054723132
48	0xbb79b435	-0.0038101797
49	0x3c6a3601	0.014295102
50	0xbe0313e9	-0.12800564
51	0xbe2e186e	-0.17001507
52	0x3e55fa3d	0.2089624
53	0xbd371786	-0.044700168
54	0x3cffe167	0.03123541
55	0x3cb55160	0.02213353
56	0xbd20f682	-0.03929759
57	0x3b0040ab	0.0019569795
58	0xbcaf349e	-0.021387395
59	0x3d2d7740	0.042350054
60	0x3c9d8bc3	0.019231683
61	0x3dbaa6bc	0.09113833
62	0x3cc72020	0.02430731
63	0xbce8b47c	-0.028406374

rnn.weight_ih_l1 f4 [64, 64]
0	0xbc584af2	-0.013201462
1	0x3d8e62c4	0.06952432
2	0xbc9d80a4	-0.01922638
3	0x3cb39813	0.0219231
4	0xbc833139	-0.016014682
5	0x3be3371f	0.006934061
6	0xbd193319	-0.037402246
7	0xbc2402e9	-0.010010459
8	0xba9922e2	-0.001168337
9	0xbc731e45	-0.01483876
10	0xbd20bdd6	-0.03924354
11	0xbca8c5e3	-0.020602172
12	0x3d719ee0	0.058989406
13	0xbcddfda3	-0.027098482
14	0xbba03e80	-0.004890263
15	0x3cecd132	0.028908346
16	0xb99c06a0	-0.00029759575
17	0xb992594b	-0.00027913818
18	0xbb0afd66	-0.0021208166
19	0xbcba761a	-0.022761393
20	0xbdd9ad0d	-0.1062871
21	0xba8b56e1	-0.001063075
22	0xbc9ee10e	-0.019394424
23	0x3c27cca6	0.010241663
24	0x3cde6b72	0.027150843
25	0x3ce26887	0.027637733
26	0xbb8cb9e0	-0.004294619
27	0xbd151830	-0.03640002
28	0x3d6308e7	0.05542841
29	0x3c065aa2	0.0082003195
30	0x3cd1f338	0.025628671
31	0xbcbe0f31	-0.023200603
32	0xbdcec70d	-0.1009656
33	0x3c6ebcdd	0.014571396
34	0x3cb9b1e0	0.022667825
35	0x3da8c8e3	0.08241441
36	0xbc29ec25	-0.010371243
37	0xbc6b5356	-0.014363131
38	0x3d2e0fe3	0.04249562
39	0x3d636dd9	0.05552468
40	0xbc81b93a	-0.015835393
41	0xbc273f00	-0.010207891
42	0xbd22e49d	-0.039768804
43	0x3d9cf8f8	0.076646745
44	0xbd1ef368	-0.03880635
45	0xbd95e676	-0.073193476
46	0x3cedc28c	0.029023431
47	0x3d9d49cb	0.076800905
48	0xbcfb0244	-0.030640729
49	0xbd47c305	-0.04876997
50	0xbc8caaea	-0.017171342
51	0x3d47ec2b	0.04880921
52	0x3d960d8e	0.07326804
53	0xbd1f9740	-0.038962603
54	0xbc803c95	-0.015653888
55	0x3bedf629	0.0072620106
56	0x3d2180cc	0.03942947
57	0xbc0bb5b8	-0.008527212
58	0xbbff2e2d	-0.007787487
59	0xbcf99348	-0.030465737
60	0xbd03c294	-0.032167986
61	0xbc991afe	-0.018689629
62	0x3d9da458	0.07697362
63	0x3cb0a092	0.02156094
64	0xbd74b9d2	-0.059747525
65	0xbcca0487	-0.024660362
66	0x3dc0dd79	0.094172426
67	0x3d0b317b	0.033982735
68	0xbd10a14f	-0.035310086
69	0xbc228264	-0.009918783
70	0x3c8e024e	0.017335083
71	0x3c48f932	0.012266444
72	0x3bf7e4cc	0.0075651165
73	0x3d3f1306	0.046649
74	0xbd4952ee	-0.049151354
75	0xbad80af2	-0.0016482754
76	0xbd0d3756	-0.0344766
77	0xbc07c667	-0.008287049
78	0x3c832fce	0.016014006
79	0x3dea4095	0.11438099
80	0x3a966cbd	0.0011476498
81	0x3d08a734	0.033362582
82	0xbd23f98f	-0.04003292
83	0xbd10fd40	-0.035397768
84	0x3cd0c355	0.025483767
85	0xbd78fa8c	-0.060785815
86	0x3c7ff33a	0.015621955
87	0xbd1e9b3f	-0.038722273
88	0x3d641027	0.055679467
89	0x3d4ff032	0.050766177
90	0x3babb341	0.0052398746
91	0xbd0ce209	-0.03439525
92	0xbda2a409	-0.079414435
93	0xbd424484	-0.047428623
94	0xbca6f2d8	-0.020379469
95	0xbd4c6fdc	-0.049911365
96	0xbd661488	-0.056171924
97	0x3c24f6ed	0.010068637
98	0xbd908e1b	-0.070583545
99	0xbd17de73	-0.03707738
100	0x3ca87575	0.02056382
101	0xbcdff7ab	-0.027339777
102	0x3ce2b28d	0.02767303
103	0x3d3d1aff	0.046168324
104	0xbb784658	-0.0037883725
105	0x3cf076f2	0.029353593
106	0xbd32e661	-0.043676738
107	0xbe1538a1	-0.14572383
108	0x3ce6c9b8	0.028172359
109	0xbd84d74b	-0.064863764
110	0xbbe378b8	-0.006941881
111	0xbcb00792	-0.021487985
112	0x3d59c19f	0.053163167
113	0xb8a35018	-7.787364e-05
114	0xb9e806f5	-0.00044255672
115	0xbd9e6343	-0.077337764
116	0x3be76b78	0.007062372
117	0x3b1dcadc	0.0024077212
118	0xbd3578e4	-0.044304743
119	0xbc5aa244	-0.013344351
120	0x3c61a233	0.013771581
121	0xbce4da31	-0.027936073
122	0x3c9cab30	0.019124597
123	0xbc4aeb0b	-0.01238514
124	0xbc2b49e1	-0.010454626
125	0xbd906ad0	-0.07051623
126	0x3cd2689f	0.025684653
127	0x3ce60dfd	0.028082842
128	0x3d5a3ee8	0.05328265
129	0xbda6cf7b	-0.081450425
130	0xbbfefff1	-0.0077819754
131	0x3e11a576	0.14223275
132	0x3d99ac40	0.07503557
133	0xbd1ecdf3	-0.038770627
134	0x3d7ca613	0.06168182
135	0xbe213810	-0.15744042
136	0x3d884331	0.06653441
137	0xbcf7227e	-0.030167814
138	0xbd20d242	-0.039263017
139	0x3c569928	0.013098039
140	0xbb92f639	-0.0044849184
141	0xbdb0bfad	-0.08630309
142	0x3d2fd5be	0.04292845
143	0xbd66511d	-0.0562297
144	0xbdc5e204	-0.0966225
145	0xbe1c2ff3	-0.15252666
146	0x3d926f8a	0.07150181
147	0xbc38d490	-0.011281148
148	0xbc07a34d	-0.00827868
149	0x3de34dbe	0.110988125
150	0x3d776a3d	0.06040405
151	0x3cf2ec2a	0.029653627
152	0xbda72473	-0.08161249
153	0x3c6507b3	0.013978886
154	0xbd8031ab	-0.062594734
155	0x3cdebecd	0.02719059
156	0x3d8e2c39	0.069420286
157	0xbcb83095	-0.022484103
158	0x3da92f27	0.08260947
159	0xbd8ec8ce	-0.06971894
160	0x39b72c14	0.0003493732
161	0x3dedbdf9	0.116085
162	0x3d811d10	0.06304371
163	0x3ed4723e	0.4149341
164	0xbc59df54	-0.0132978745
165	0xbdbcf341	-0.092260845
166	0xbb70c1be	-0.0036736573
167	0x3c963b67	0.018338872
168	0x3d8d934b	0.069128595
169	0x3e4879ab	0.19577663
170	0xbdf4bfa0	-0.11950612
171	0xbe10ac9e	-0.14128348
172	0x3dfb0926	0.12257604
173	0x3ec0f283	0.37685022
174	0x3e1e559a	0.15462342
175	0xbdd80257	-0.10547321
176	0xbd684d11	-0.05671412
177	0xbd2de2a4	-0.04245247
178	0xbe8f4e41	-0.2798939
179	0xbe3a20f9	-0.1817664
180	0x3d005a14	0.031335905
181	0x3cd85cb0	0.026411384
182	0xbdcfe67a	-0.10151382
183	0xba80452f	-0.0009786243
184	0x3cc88848	0.024479046
185	0xbdded217	-0.10879915
186	0x3bb48729	0.0055092764
187	0x3d8e06eb	0.06934913
188	0xb9bdd2bc	-0.00036205899
189	0xbd387476	-0.04503294
190	0xbda4433a	-0.08020635
191	0x3d9349c6	0.071918055
192	0x3c4767b5	0.012170722
193	0x3cc61043	0.024177676
194	0xbb357c7f	-0.0027692614
195	0xbd654c27	-0.055980828
196	0xbc8ceb40	-0.01720202
197	0x3c3b3e2f	0.0114284
198	0x3c881d27	0.016615463
199	0xbd97d8f6	-0.07414429
200	0xbc9a59fb	-0.018841734
201	0xbc2f4aa1	-0.010698945
202	0x3d15e1c6	0.036592267
203	0xbd14e1af	-0.03634804
204	0x3c67ed8d	0.014155758
205	0xbc9239df	-0.01784986
206	0x3cb49aa6	0.022046398
207	0xbda33315	-0.079687275
208	0xbc501048	-0.012699194
209	0xbcb52c0d	-0.022115732
210	0x3c89d08e	0.01682308
211	0x3bc72170	0.006076984
212	0xbd31c3ca	-0.04339961
213	0x3cc2dd66	0.023787212
214	0xbd49d3fb	-0.049274426
215	0x3c91db73	0.017804837
216	0xbd24e122	-0.040253766
217	0x3bdfd2ad	0.0068305344
218	0xbd836a20	-0.06416726
219	0x3dd24267	0.102665715
220	0x3d18e77a	0.03733013
221	0x3d372725	0.044715066
222	0x3d1f9b7e	0.03896665
223	0xbcba1bf6	-0.022718411
224	0x3d822bf6	0.06356041
225	0xbc575272	-0.013142215
226	0x3c89723e	0.016778108
227	0x3c92cd50	0.017920166
228	0xbcd7265c	-0.026263408
229	0xbd36ef06	-0.044661544
230	0x3c45a16c	0.012062412
231	0xbcc4e56b	-0.024035176
232	0x3d351be4	0.04421605
233	0x3d40d30e	0.047076277
234	0x3d247991	0.040154997
235	0x3d533bfe	0.051570885
236	0xbafeeac0	-0.0019448623
237	0x3cadd667	0.021220399
238	0xbb74f66c	-0.0037378324
239	0xbd967ffd	-0.073486306
240	0x3c8c4ffe	0.017127987
241	0x3d4c451e	0.049870603
242	0x3d549dcf	0.05190831
243	0x3d365b53	0.044520687
244	0x3b926841	0.0044679944
245	0x3cd3eda8	0.02587016
246	0xbd43dbd2	-0.04781706
247	0x3cd62582	0.026140932
248	0x3d07e7db	0.0331801
249	0xbd6a20c8	-0.05716017
250	0xbad0da8d	-0.0015934274
251	0xbc78de9b	-0.015189792
252	0xbcfaa1e3	-0.030594772
253	0x3bbd6c75	0.0057807514
254	0x3dd73a06	0.10509114
255	0x3d1f188d	0.038841773

rnn.weight_hh_l1 f4 [64, 64]
0	0xbf276184	-0.6538317
1	0xbd3738dd	-0.044731963
2	0x3dd1cb03	0.102437995
3	0x3b8ac186	0.0042344956
4	0xbd6b9132	-0.057511516
5	0x3bb94800	0.005654335
6	0x3cca15fd	0.024668688
7	0xbe271c07	-0.16319285
8	0x3d41d575	0.04732271
9	0xbd8b8d49	-0.068140574
10	0xbddff86a	-0.10936053
11	0xbd5cccbb	-0.053906184
12	0x3ddc7b1b	0.10765668
13	0x3ca28d15	0.019842664
14	0x384249fc	4.6322108e-05
15	0x3d087113	0.03331096
16	0x3de08d0b	0.10964402
17	0xbbf873f0	-0.00758218
18	0xbd12a2a3	-0.035799634
19	0xbb5c2066	-0.0033588647
20	0xbd0d8fb5	-0.034560878
21	0x3c9548bb	0.018223157
22	0xbd4dc99e	-0.050241105
23	0x3b81628c	0.0039485153
24	0x3d908e7d	0.070584275
25	0x3c56051c	0.013062742
26	0x3c921fd0	0.017837435
27	0xbb185802	-0.0023245816
28	0x3da255ba	0.07926507
29	0x3d0ee4eb	0.034886282
30	0x39efbe18	0.00045727263
31	0xbd6e0ae3	-0.05811585
32	0xbb62a5e1	-0.0034583735
33	0x3d76ff24	0.060301915
34	0x3d869e8a	0.06573208
35	0x3e12f3e9	0.14350857
36	0xbccca8b1	-0.024982782
37	0x3d30385e	0.043022506
38	0x3d16435f	0.036685344
39	0x3cb98726	0.022647452
40	0xbd14fcb6	-0.036373816
41	0xbd3f053f	-0.046635862
42	0x3cbd89b1	0.023136945
43	0xba7f76d7	-0.00097451865
44	0xbdb4c24a	-0.0882612
45	0xbd9a5a5f	-0.07536768
46	0xbbcb796c	-0.006209543
47	0x3b8f2490	0.0043683723
48	0xbe00ed76	-0.12590584
49	0x3dcdcec4	0.10049203
50	0x3d8dd4b3	0.06925335
51	0x3d78be13	0.060728144
52	0x3c9bbcf6	0.019011002
53	0x3c63f9c3	0.013914528
54	0x3e310770	0.17287993
55	0x3d656f32	0.056014247
56	0x3cdccd5f	0.026953397
57	0xbdc396ab	-0.09550222
58	0xbd7a4e13	-0.061109614
59	0x3c9fca4d	0.019505644
60	0x3cbb40ce	0.02285805
61	0x3bbce2e6	0.005764353
62	0x3d8088fc	0.06276128
63	0x3c5f59cc	0.013632249
64	0x3c7a4734	0.015275765
65	0xbf362618	-0.71151876
66	0xbb9af961	-0.0047294353
67	0xb9cd9248	-0.00039209635
68	0xbcedfdb0	-0.029051632
69	0x3cadc55b	0.02121227
70	0x3c83cfc2	0.016090278
71	0xbd9810c3	-0.07425072
72	0xbccbbba6	-0.024869751
73	0x3da996e8	0.08280736
74	0xbd57e4a7	-0.052708294
75	0xbd3278b3	-0.04357214
76	0xbd1754c9	-0.03694609
77	0x3cc842b9	0.024445878
78	0xbbb81116	-0.005617271
79	0xbdd59f4e	-0.104307756
80	0xbc5d7b12	-0.013518112
81	0x3c47dd47	0.012198753
82	0xbdb862c5	-0.09003214
83	0x3b4e185a	0.003144762
84	0x3c58ab74	0.013224471
85	0x3dea06e2	0.11427094
86	0xbdfd042c	-0.12354311
87	0xbda1caf8	-0.07900041
88	0x3d65bc8a	0.056088008
89	0x3cfc83c8	0.030824557
90	0xbc5165b7	-0.012780598
91	0xbc718928	-0.014742173
92	0xbd7b51a0	-0.06135714
93	0x3d00b31a	0.031420805
94	0x3c4ff717	0.012693188
95	0x3ce1444e	0.02749839
96	0xbd42871f	-0.047492143
97	0x39aae880	0.00032598153
98	0x3d1383dd	0.036014426
99	0x3d739255	0.059465725
100	0x3cde2998	0.027119443
101	0x3cdf5938	0.027264223
102	0x3e0182cf	0.12647556
103	0x3cb7fa95	0.022458354
104	0x3d88c1e7	0.06677609
105	0x3cb5a963	0.022175496
106	0xbc849e0c	-0.016188644
107	0xbcebd227	-0.028786732
108	0x3c12ee9a	0.00896802
109	0xbb84332e	-0.0040344214
110	0x3d4dad27	0.05021396
111	0xbdba7565	-0.091044225
112	0xbd4bde22	-0.04977239
113	0xbd78619f	-0.060639974
114	0xbdb9599c	-0.09050295
115	0xbd9a9b21	-0.0754912
116	0xbd92231c	-0.07135603
117	0xbd5b118a	-0.053483523
118	0xbd274087	-0.040833022
119	0x3c478f62	0.012180181
120	0x3cabfac7	0.020993603
121	0x3d7840ed	0.060608793
122	0x3cbad45d	0.02280634
123	0xbae3f13c	-0.0017390619
124	0xbd3428ad	-0.043984104
125	0x3d42c7ca	0.047553815
126	0xbcebffae	-0.028808441
127	0xbcb9ca1e	-0.022679385
128	0xbe2f78bd	-0.17135902
129	0x3db7cbc1	0.0897441
130	0x3eb03ab0	0.34419775
131	0x3c1eaccb	0.009684752
132	0x3d9e2842	0.07722522
133	0xbd8635b7	-0.06553214
134	0xbd865526	-0.065592095
135	0x3d6c68cb	0.057717126
136	0x3ba1a2ae	0.004932723
137	0xbe378c56	-0.17924628
138	0xbe54b9d1	-0.20774008
139	0xbc02386e	-0.007948024
140	0x3d60970c	0.05483155
141	0xbd85629b	-0.06512948
142	0xbcb0b47a	-0.021570433
143	0xbce3114b	-0.027718207
144	0x3cdcd568	0.026957229
145	0x3da2291a	0.07917996
146	0x3d8ecbe7	0.06972485
147	0xbce2a7ef	-0.027667968
148	0x3d80be96	0.062863514
149	0x3e306ea5	0.17229708
150	0x3e94ed68	0.29087377
151	0xbc91246a	-0.017717559
152	0xbde54d7a	-0.11196418
153	0xbd2536b0	-0.040335357
154	0xbdf4986a	-0.11943133
155	0x3c10000b	0.008789073
156	0x3d5e8a98	0.054331392
157	0xbcbbb583	-0.0229137
158	0x3d958eea	0.07302649
159	0xbd5fad2c	-0.05460851
160	0x3dba1a1a	0.0908701
161	0x3de600fa	0.11230655
162	0xbd42c3cd	-0.04755001
163	0xbdd1e2db	-0.10248347
164	0x3d592235	0.053011138
165	0xbd4bf917	-0.049798097
166	0x3d7e1f3a	0.0620415
167	0x3d32e3b6	0.043674193
168	0x3ea4fb50	0.32222986
169	0xbd27a4c4	-0.040928617
170	0x3d3fae7e	0.046797268
171	0xbe06440f	-0.131119
172	0xbe23f669	-0.16011967
173	0x3d08acd6	0.033367954
174	0xbd70221c	-0.05862628
175	0xbbcc4df3	-0.006234878
176	0x3eb15865	0.34637752
177	0x3dd09e0a	0.101863936
178	0x3e66a8eb	0.22525375
179	0xbdc1bcea	-0.094598606
180	0xbd94e0d9	-0.07269449
181	0xbc8d6fa0	-0.017265141
182	0xbd8ce878	-0.068802774
183	0xbd4e3669	-0.05034486
184	0xbd6de3c9	-0.05807856
185	0xbdeb373a	-0.11485143
186	0x3d7f1e81	0.06228495
187	0x39d64d0e	0.0004087467
188	0xbdaf822b	-0.085697494
189	0x3dcfb30e	0.10141574
190	0x3ce63982	0.028103594
191	0xbd34d132	-0.044144817
192	0xbb0e147c	-0.002167969
193	0xbd146fba	-0.036239363
194	0xbe08eb04	-0.13370901
195	0xbf25dcdb	-0.64790124
196	0x3d91625b	0.07098838
197	0x3d67c520	0.056584477
198	0x3ce67f65	0.028136918
199	0x3db7d225	0.08975629
200	0x3da75c9e	0.08171962
201	0xbd55ceab	-0.052199047
202	0xbcc2ee04	-0.023795135
203	0x3d0d4f01	0.034499172
204	0x3dbd1bf9	0.09233851
205	0xbd852f07	-0.065031104
206	0x3d0f95e4	0.035055056
207	0x3d1f52f5	0.038897473
208	0x3cb91b9d	0.022596175
209	0x3b2dee9f	0.0026539934
210	0xbd15ffaf	-0.036620792
211	0xb9d9dd60	-0.00041554403
212	0xbc6bcdec	-0.014392357
213	0xbd9186e4	-0.071058065
214	0x3e01dc00	0.1268158
215	0xbb9cb565	-0.004782366
216	0x3bb06495	0.005383084
217	0x3d784177	0.060609307
218	0xbc1e6da3	-0.009669694
219	0xbc2f352b	-0.010693829
220	0xbded179e	-0.1157677
221	0x3d9d6c9a	0.0768673
222	0xbcc44634	-0.023959257
223	0x3de9084a	0.11378534
224	0x3c888425	0.016664574
225	0x3d703207	0.05864146
226	0x3c33d227	0.010975397
227	0x3b38176d	0.0028090135
228	0xbd8b3272	-0.06796731
229	0x3c0f7b83	0.008757475
230	0xbd9bf934	-0.07615891
231	0xbe181c9f	-0.14854668
232	0x3d17a223	0.03701986
233	0xbdd4d4ef	-0.10392176
234	0x3d27c46c	0.040958807
235	0xbcaf7e35	-0.021422485
236	0xbbb2e792	-0.0054597342
237	0x3d1bf6f1	0.0380773
238	0xbcf82008	-0.030288711
239	0xbd99d4a3	-0.0751126
240	0xbdadf84c	-0.084946245
241	0xbdc01a50	-0.09380019
242	0x3db7d80a	0.08976753
243	0x3d32f156	0.043687187
244	0x3d8c173a	0.068403676
245	0xbcd2ab8a	-0.025716562
246	0x3ba7016b	0.0050966046
247	0xbc1ddead	-0.00963561
248	0xbbf379fa	-0.007430312
249	0x3a59a1fa	0.00083020295
250	0x3c69def2	0.014274346
251	0x3d66d149	0.056351934
252	0x3d368c17	0.044567194
253	0x3dcdf5a7	0.1005662
254	0xbceb932d	-0.028756702
255	0xbd78a531	-0.060704414

rnn.bias_ih_l1 f4 [64]
0	0xbd091dc3	-0.03347565
1	0x3d61f905	0.055169124
2	0x3e26f180	0.16303062
3	0xbbe2d082	-0.0069218287
4	0xbd5e5b79	-0.054286454
5	0xbc93bb7f	-0.018033741
6	0xbc28d6e6	-0.010305142
7	0x3d819e09	0.06328971
8	0x3d0c34e2	0.03423012
9	0xbe4e67b9	-0.20156755
10	0xbe4a3095	-0.19745095
11	0xbd2e1864	-0.04250373
12	0x3d4de9ea	0.050271906
13	0xbdbe94f5	-0.09305755
14	0xbc07e75c	-0.0082949065
15	0xbd4a253c	-0.049351916
16	0x3d0477c9	0.0323408
17	0x3ca4c4e6	0.02011342
18	0xbc76f5c1	-0.015073241
19	0x3da36136	0.07977526
20	0x3cafd81f	0.02146536
21	0x3d1f7f71	0.038939897
22	0x3e799257	0.2437223
23	0x3da960d0	0.08270419
24	0x3d8017f9	0.062545724
25	0xbd739289	-0.05946592
26	0xbda761e0	-0.08172965
27	0xbe0c5e80	-0.13707924
28	0x3d016a36	0.03159543
29	0x3cf3180a	0.029674549
30	0xbd245c3d	-0.040127028
31	0x3ce6f83e	0.028194543
32	0x3ced9fac	0.029006802
33	0x3d224504	0.0396166
34	0x39778826	0.00023606475
35	0x3d9054e4	0.070474416
36	0x3d67c40c	0.05658345
37	0x3df19dd0	0.117976785
38	0x3d3229af	0.043496784
39	0x3dcef351	0.10105003
40	0x3e7d0dc5	0.24712284
41	0x3d6b15bb	0.05739377
42	0x3cb2310c	0.021751903
43	0x3c774629	0.015092411
44	0x3ccdd8fc	0.02512788
45	0x3d4ffbee	0.05077737
46	0x3cd01921	0.025402607
47	0xbd872c67	-0.06600266
48	0x3e943936	0.28949898
49	0x3c9f578a	0.019450922
50	0xbe25e7f8	-0.1620177
51	0x3c58a646	0.013223236
52	0xbdded71a	-0.10880871
53	0x3d9090a1	0.07058836
54	0x3e021d3e	0.12706468
55	0x3d2c0900	0.04200077
56	0x3d9ab478	0.07553953
57	0xbd87b045	-0.066254176
58	0xbd639710	-0.055563986
59	0xbd58a8d4	-0.052895382
60	0x3d859e6d	0.06524358
61	0x3d8f169d	0.06986735
62	0x3dbe1e4d	0.09283123
63	0x3dc75e49	0.0973478

rnn.bias_hh_l1 f4 [64]
0	0x3d827b11	0.06371129
1	0x3daaa16b	0.08331569
2	0x3e8599c8	0.26093888
3	0x3cb79f19	0.02241473
4	0x3cc32d2e	0.023825254
5	0x3c091ea8	0.008369125
6	0xbdac4d02	-0.084131256
7	0x3de27ac0	0.11058569
8	0xbd5b8488	-0.05359319
9	0xbe1ad0f2	-0.15118769
10	0x3bcb289c	0.0061999094
11	0x3bdf8138	0.006820824
12	0x3d154c52	0.036449738
13	0xbe0a73af	-0.13520692
14	0x3cc466ec	0.023974858
15	0x3d96cb76	0.07363026
16	0x3d055281	0.032549385
17	0xbd15500b	-0.036453288
18	0x3ca7e0ea	0.02049299
19	0xbd30810f	-0.04309183
20	0x3a482e00	0.0007636249
21	0x3d81ee0d	0.06344233
22	0x3e8a9c90	0.27072573
23	0xbe1012c7	-0.14069663
24	0xbc385ef0	-0.011253104
25	0x3b90b162	0.004415677
26	0x3cee6318	0.029099986
27	0x3d54fa87	0.051996734
28	0x3ca3fde8	0.020018533
29	0x3b481a59	0.0030533283
30	0x3d830dfc	0.06399152
31	0xbdf5bf49	-0.119993754
32	0x3cf0c8f6	0.0293927
33	0xbdd9c161	-0.10632587
34	0xbc6c4a97	-0.0144220805
35	0xbdde818d	-0.108645536
36	0x3d468791	0.04846913
37	0xbcb6ec80	-0.022329569
38	0x3ce8d629	0.028422432
39	0x3dbb8f16	0.09158151
40	0x3ec37f01	0.38182834
41	0xba2cd8be	-0.00065935764
42	0xbd6fada4	-0.058515206
43	0x3d1c387a	0.038139798
44	0x3d23ae21	0.039960984
45	0xbd937b38	-0.072012365
46	0x3c9ab0ff	0.018883226
47	0xbc2a9962	-0.010412546
48	0x3e99cee0	0.30040646
49	0x3c9e6e85	0.01933981
50	0xbd663bc0	-0.056209326
51	0x3d0f0453	0.034916233
52	0xba87f0b0	-0.0010371413
53	0xbbd9aef5	-0.006643171
54	0xbda6af7a	-0.08138938
55	0xbb815e2b	-0.0039479933
56	0xbcbe175b	-0.023204496
57	0xbd058213	-0.03259475
58	0xbd01200a	-0.031524695
59	0x3c88fb4d	0.016721392
60	0x3def30b2	0.1167921
61	0xbda37cde	-0.07982801
62	0x3d856c4e	0.06514798
63	0xb91bb350	-0.00014848751

fc.weight f4 [5, 64]
0	0xbb6ecc86	-0.0036437823
1	0x3a275af7	0.0006384099
2	0x3e1d3038	0.15350425
3	0xbba96669	-0.005169679
4	0x3b12be87	0.0022391395
5	0x3b830676	0.003998573
6	0x3bc4317a	0.0059873434
7	0xbb43128d	-0.0029765696
8	0x3877e6fc	5.910451e-05
9	0xbe03de58	-0.12877786
10	0xbd8e1266	-0.06937103
11	0x3b4173df	0.0029518527
12	0x3a4e0a1c	0.0007859783
13	0xbb658aaa	-0.0035025277
14	0x37854cb8	1.589056e-05
15	0x3c8cd49f	0.01719123
16	0x3c3dd73c	0.01158696
17	0x3be666fe	0.0070313206
18	0xbb70a756	-0.0036720834
19	0x3b9dd676	0.0048168255
20	0xbc36daad	-0.011160535
21	0x3c62d335	0.013844301
22	0x3df8e1f2	0.12152471
23	0x3abf775a	0.0014607713
24	0x3c090371	0.008362637
25	0xbb787bb2	-0.0037915525
26	0x3b82ae0a	0.003988032
27	0x3a6d3702	0.00090490293
28	0xbc46c984	-0.012133006
29	0xba806198	-0.000979471
30	0x3c7ff2f7	0.015621892
31	0x3b662475	0.0035116945
32	0xbc1ee95f	-0.009699195
33	0xbc3006f3	-0.010743844
34	0xbbdeb14c	-0.006796038
35	0x3bb13564	0.005407976
36	0xba5dae21	-0.0008456428
37	0xba403d12	-0.0007333319
38	0xbc23479e	-0.009965805
39	0x3c1d3c6f	0.009596928
40	0x3e1ab18a	0.15106788
41	0x3ba203eb	0.0049443147
42	0x39b24ab2	0.00034006458
43	0x3bdf2168	0.0068094023
44	0x3b69f76e	0.0035700458
45	0x3a80adfc	0.0009817476
46	0xbb309352	-0.0026943278
47	0xbb3942d6	-0.0028268597
48	0x3d85c95f	0.06532549
49	0xbc032e49	-0.008006641
50	0xbd41cb61	-0.047313098
51	0xba894684	-0.0010473286
52	0xbba4b0c8	-0.005025957
53	0xbabdf40c	-0.0014492287
54	0xbbdb6e98	-0.0066965334
55	0x3b91f16f	0.00445383
56	0x3c0a0d20	0.008425981
57	0xbbe54015	-0.0069961646
58	0x39af22a2	0.00033404405
59	0x3c02f6c6	0.007993406
60	0x3c08cc35	0.008349468
61	0xbb974b1d	-0.0046171085
62	0x3c5f2d81	0.013621689
63	0xbc4ac404	-0.012375835
64	0x3b2824a4	0.0025656605
65	0x3b6271d6	0.0034552715
66	0x3e1cb167	0.15302049
67	0xba7d26f2	-0.00096569874
68	0xbbc48695	-0.0059974887
69	0x3b8257a6	0.0039777337
70	0xbbaacbb9	-0.005212274
71	0x3d17b561	0.03703821
72	0x3c134c98	0.008990429
73	0xbe1b1792	-0.1514571
74	0xbd279f12	-0.040923186
75	0xbc145157	-0.009052596
76	0xbb4e4408	-0.0031473655
77	0xbadd6050	-0.0016889665
78	0xba891b79	-0.0010460458
79	0x3aa0685b	0.0012238132
80	0x3b25536a	0.002522672
81	0x3bd86e0c	0.0066049155
82	0x3b54af5a	0.003245315
83	0xbbdb9643	-0.006701262
84	0x3a7be19d	0.0009608509
85	0xba276c38	-0.000638667
86	0x3e14ac93	0.14518957
87	0x3af3e0e2	0.0018606449
88	0xbbfad91e	-0.007655277
89	0xbc0b8dde	-0.0085177105
90	0xbb7c22e0	-0.0038472936
91	0x3bca1a74	0.0061677042
92	0x3bdf8216	0.0068209274
93	0xbbd684d4	-0.006546596
94	0xbb84c08e	-0.0040512746
95	0xb8f93558	-0.00011883181
96	0x3c3408a0	0.0109883845
97	0xbbb977e8	-0.005660046
98	0xbb3a56c7	-0.002843307
99	0xbb6846b7	-0.003544254
100	0x3aabaccc	0.0013097762
101	0x3ad3aad9	0.0016148939
102	0xbb5e6312	-0.0033933562
103	0x3858ea40	5.1716575e-05
104	0x3d01c72c	0.031684086
105	0xbc0d4dd7	-0.0086245155
106	0x3be3a987	0.0069476995
107	0xbb8712bc	-0.0041221064
108	0xbb11438f	-0.0022165512
109	0x3b2ec8eb	0.002667005
110	0x3c07e9b5	0.008295466
111	0xbb2c96a3	-0.0026334904
112	0x3de72d04	0.11287883
113	0xbb1051ff	-0.002202153
114	0xbd28eda0	-0.04124224
115	0xbb36713b	-0.0027838487
116	0xbc2b6333	-0.010460663
117	0x3b1d22a6	0.002397695
118	0x3c1182b0	0.008881256
119	0xb9bf6608	-0.00036506378
120	0xbb4e64e4	-0.003149324
121	0xbacb69c8	-0.0015519196
122	0xbc79e0db	-0.015251364
123	0x3b7e8810	0.0038838424
124	0x3c68d7b6	0.014211586
125	0xbac79863	-0.001522791
126	0x3a3d4e49	0.0007221443
127	0xba5abf45	-0.00083445414
128	0x3a199424	0.00058585615
129	0x39e5c85f	0.00043827572
130	0x3dcdd36b	0.100500904
131	0xbb0155fd	-0.001973509
132	0x398b7b9a	0.00026604236
133	0xbaa90e8e	-0.0012898014
134	0x3abe0953	0.0014498628
135	0xbca851af	-0.020546762
136	0x3b294af2	0.0025832024
137	0xbdf5b2a8	-0.119969666
138	0xbdaf44a6	-0.085580155
139	0xbbb686a8	-0.0055702515
140	0xbad2c700	-0.0016081035
141	0xb86b2dfb	-5.607119e-05
142	0xb9dda584	-0.00042275724
143	0x3ba6011c	0.00506605
144	0x3bb03b6c	0.0053781774
145	0x3b1bb5f6	0.002375958
146	0xbb5ca1b1	-0.0033665712
147	0xbb8bcd75	-0.0042664357
148	0x3ba4e7be	0.0050325086
149	0x3bbeb48b	0.0058198622
150	0x3e3d3ffc	0.1848144
151	0xba214ca7	-0.00061530847
152	0xbb19deec	-0.002347882
153	0xbbf7e4a8	-0.0075650997
154	0xbac27777	-0.0014836629
155	0x3ba9eda8	0.0051858015
156	0x3984e482	0.00025347254
157	0xbb0f14bb	-0.0021832425
158	0x3b873328	0.0041259713
159	0xbba19c53	-0.0049319654
160	0x3a6f1017	0.0009119524
161	0xbc1aef96	-0.009456536
162	0xbb70c89c	-0.0036740666
163	0xb9998209	-0.00029279318
164	0x3bb535fd	0.0055301175
165	0x3a52dbe3	0.000804363
166	0xbae189ca	-0.0017207202
167	0x3bdc14fe	0.0067163697
168	0x3e2f546d	0.1712205
169	0xbb3352ce	-0.0027362588
170	0xbb1f9562	-0.0024350514
171	0xbb470167	-0.0030365826
172	0xbc21841a	-0.009858156
173	0x3b38d3e9	0.002820248
174	0x3c63ffa7	0.013915933
175	0xbb1834e6	-0.002322489
176	0x3d9f9007	0.07791143
177	0x3ac3aded	0.0014929153
178	0xbd564645	-0.052313108
179	0xb98d1828	-0.00026911614
180	0xbc377c3a	-0.0111990515
181	0xbad7d680	-0.0016467124
182	0x3bd251b7	0.0064184326
183	0x3b271c15	0.0025498916
184	0xbb99a7ba	-0.004689184
185	0xbaec29fd	-0.0018017885
186	0xbbdead14	-0.006795535
187	0x3beb3190	0.007177539
188	0x3c39e95e	0.011347143
189	0xbb82815b	-0.0039827055
190	0x3bd388b9	0.0064555076
191	0x3a90bf4d	0.001104334
192	0x3b561ec6	0.003267215
193	0x3b9f15bb	0.0048548854
194	0x3e316c53	0.17326479
195	0xbc487b4a	-0.012236426
196	0xbc1ac418	-0.009446166
197	0xbc6d8775	-0.0144976275
198	0xba85cea8	-0.0010208683
199	0x3ceb634f	0.028733877
200	0x3bc1cc8c	0.0059142765
201	0xbdff7bb0	-0.124747634
202	0xbd108f7c	-0.035293087
203	0xbc5dec31	-0.013545082
204	0x3a3042d3	0.0006723825
205	0x3ac95a65	0.0015362023
206	0xbc5a00c4	-0.013305847
207	0xbc897527	-0.016779495
208	0xbb8e342d	-0.004339716
209	0xbc5c4d30	-0.013446137
210	0x3bce3d77	0.0062939483
211	0xbc171ab2	-0.009222673
212	0x3c61467f	0.013749718
213	0xbb4d0c56	-0.003128787
214	0x3df57d3e	0.11986779
215	0x3b77b5b8	0.0037797522
216	0xbc157f8b	-0.009124647
217	0xbbed7a04	-0.0072472114
218	0x3b4fc5ec	0.0031703664
219	0xbb920542	-0.004456193
220	0x3c57ae1e	0.013164071
221	0x3bd21879	0.006411609
222	0xbc8bd548	-0.017069474
223	0xbb11646c	-0.00221851
224	0x3c3ed46e	0.011647327
225	0x3c4c0c5e	0.01245412
226	0x3bdbe554	0.0067106877
227	0xba29d65b	-0.000647878
228	0x3c635cee	0.013877137
229	0xbc2ab01b	-0.010417963
230	0x3c952ea0	0.01821071
231	0x3c1215d9	0.008916342
232	0x3e235f74	0.15954381
233	0xbbaa9d5b	-0.0052067465
234	0xbc050d39	-0.008120828
235	0xbb51df04	-0.0032023797
236	0xbc109bf7	-0.008826247
237	0xbb28083a	-0.002563967
238	0x3c84bedf	0.016204296
239	0xbc0d71bc	-0.008633073
240	0x3e407901	0.1879616
241	0x3c20887c	0.009798165
242	0xbd498082	-0.04919482
243	0x3a7de0db	0.000968469
244	0x3c0b7424	0.008511577
245	0x3bd43f7b	0.006477294
246	0x3c0f075f	0.008729785
247	0xbb521f1b	-0.0032061997
248	0xbbf3f94a	-0.007445489
249	0xbb75c364	-0.0037500495
250	0xbc00a7c8	-0.007852502
251	0x3bad9e80	0.0052984357
252	0x3bee4e7b	0.007272539
253	0x3ba99b5f	0.0051759924
254	0xbaaafac3	-0.0013044704
255	0x3c77e19f	0.015129476

fc.bias f4 [5]
0	0x3e1e3ba6	0.15452442
1	0x3e385b61	0.18003608
2	0x3ddbeb87	0.10738283
3	0x3cb60f1b	0.022224
4	0x3e6c7446	0.2309123
