陈兴/week06/models/weather_rnn.pth (torch, 54776 bytes, 10 tensors)

rnn.weight_ih_l0 f4 [64, 1]
00000000: c04b 1ebe dec4 d13b c2b6 1fba 5111 7dbb
00000010: 61d0 6cbb 3f2d e03c 5129 6ebe 70c4 67be
00000020: 6901 973b 78b8 9ebb 12b1 f1bb 6d55 b63e
00000030: 8ec7 65bb 8c52 f3b8 7816 93bb b8e7 9d3b
00000040: 10d0 34bb 0216 633a 3cb1 febb a515 0a39
00000050: 5bcf e03b a6ba b83b 7389 a4bb c513 a9be
00000060: c97f 72bb 9196 613e 399a 03bc d522 373c
00000070: 9437 0ebc 3b1c 0e3c 853d ea39 f9bd 23bb
00000080: 77c4 283c a3a8 0a3b 8dde 3cbc f075 793e
00000090: 4366 d4bb b161 1abc c1e5 e63c 99c9 abbb
000000a0: 0ae6 4b3b 111e 4a3c e4a3 3f3b e844 e1bc
000000b0: aa3a 6f3e 03bb a4bb ff46 b5be 7c70 423b
000000c0: a700 283c 2d33 7dbb 80d4 b53b a0d7 80ba
000000d0: 59d7 8cbb 7ee5 9c3e 2b7a 26be 1bef fdbb
000000e0: cf4e 203b 206a 863b 0f15 09bc b5af 9dbc
000000f0: 959c c33e d502 f2ba 28eb a13e d9f0 533c
-0.15458584 0.006401642 -0.00060926017 -0.0038615058 -0.0036134946 0.027365325 -0.23257948 -0.22633529
0.0046083224 -0.0048437677 -0.0073758448 0.3561205 -0.003506157 -0.000116025185 -0.0044887625 0.004818883
-0.0027589835 0.0008662642 -0.007772593 0.00013168769 0.006860656 0.0056374846 -0.005021268 -0.33022895
-0.0037002435 0.22030093 -0.008032375 0.011177738 -0.008680243 0.008673723 0.00044677794 -0.0024985059
0.010300747 0.0021157644 -0.01152767 0.24361396 -0.006481917 -0.0094227055 0.028185727 -0.005242538
0.0031112456 0.01233627 0.0029241974 -0.027498677 0.23362222 -0.0050271763 -0.35405728 0.0029669097
0.010254062 -0.003863524 0.0055490136 -0.0009829886 -0.0042981324 0.3064384 -0.16257541 -0.007749451
0.0024461036 0.0041020066 -0.008366837 -0.019248823 0.382054 -0.0018463979 0.31624722 0.0129358405

rnn.weight_hh_l0 f4 [64, 64]
00000000: c7cf de3c ccb4 2e3e 6a3c 7fbd 4c00 ebbd
00000010: 4406 b43d d10a 55bc 445a 45bd 634d 323e
00000020: 2931 813d ccab 26bd f7ad 373d e543 663e
00000030: a71a d9bd 871a 32bd 935f 3b3c 3043 23be
00000040: 23ab 63bd decc bd3c d9da c4bd 6357 d93d
00000050: 5f73 693c 8c68 d2bd 54a8 05be 06a6 053e
00000060: 8172 b8bc b658 4abe 7267 e5bd 9b4e 5ebd
00000070: d5e3 1fbd 019a 80bd db69 eebc 38ed 64bd
00000080: 9330 82bd 1786 94bc 6307 4fbd 9be0 8c3c
00000090: c050 01bd 30a5 cdbd ddd7 2b3e 52b1 01be
000000a0: 9a22 163d f2bf 393e b4c7 1f3e 32ef f4bd
000000b0: 2e36 13be 21ec b9bb aa70 c3bd 59c6 d7bc
000000c0: c001 15bd e92a dbbc a36e 1e3d 3990 f7bd
000000d0: 3009 a03d d6ee 08bd 5480 09be 466c 5dbe
000000e0: f680 c2ba ea85 69bd 6949 d8bd ed69 c8bd
000000f0: 8fe3 97be 0672 963d 7c14 01be 9ed9 44bd
00000100: 6d91 49bc f615 17bf 0cdd 653b 3fb4 81bd
00000110: ef2e a83d 180e babd 3c12 65bd c3ee e5bb
00000120: 3e40 603d 88bc d53c 1afe c33b 91f0 c5bc
00000130: 03d8 45bd 88b7 28bd f04b bbbc c8c1 eebb
00000140: fbdc 0b3c 0895 d7bc e631 13be 0178 2abd
00000150: ae65 82bd 610a 3fbd 14ff 7f3d 0138 b8bd
00000160: 335e 31bb f5f0 023d 95ff 89bd 1fee 18be
00000170: 5245 013e 6bbd acbd 1ea0 73bd 9ba6 a63c
00000180: 5e10 b13c 2c00 5ebd c074 10bd c698 c5bc
00000190: 29ea ce3c c955 0a3d 6291 0ebd 11df 61bd
000001a0: 8a19 c53c 23ea 953d 58f0 aabc 9d0a 1dbd
000001b0: 5d4a 1f3d 8c61 83bd b520 9eb9 5496 44bd
000001c0: 30f7 c83b d60e 9d3d 5f8c 883c 93bd 4a3d
000001d0: db8c 81bc 4929 7a3c 9cd4 783d fff9 a23b
000001e0: 3ad3 2eba d025 0bbd 95b8 953d 41eb 893d
000001f0: ac7e e2bd c350 93bd 136b aebd cdc2 03bd
00000200: d092 cb3d 73c6 6f3a fdff 28bf b9d6 13bd
00000210: 4c04 88bd c971 4bbd 6fd5 343d e875 00bd
00000220: fdcf a43c 09fb 93bd c22f fe3c dec6 3d3b
00000230: 8d4b be3d 1c2a 943c af73 b43d bbee a53d
00000240: 17c2 93bd 94af 863c 4455 10bd 57f8 3ebc
00000250: 381a ff3c a7ea 19bc 48c6 67bd acbb 6bbd
00000260: 931b e23d 8068 c0bc 3906 8fbd 159a 673d
00000270: a4bf f1bc 7a13 8f3d 4226 ecbc 3a2d 483d
00000280: 3d48 4a3a a1d2 49bc 40e7 bb3d 4d22 4e3c
00000290: 46e7 0fba f41e 2c39 6dbe 073c 2405 a1bd
000002a0: 593d 393b 7250 583d 2309 07bc d2fc 683d
000002b0: 8d0c 54bd 2917 9fbc 6f3f 8d3d 7a8a 83bd
000002c0: c1d2 22bd 1689 563d d2b4 8bbd ae3b 8eba
000002d0: bbbc 05be 156e a8bd 63bb 223d 403e 4a3d
000002e0: 27da 1c3d 45b0 c83c 46cd 233c a0dc 3f3d
000002f0: cef5 113e 72c0 83bd 68ee a53c fb92 c6bd
00000300: 1160 2f3e 5e1c 043d 1612 f83c 4f1b bfbe
00000310: f85b a1bd fac1 1b3e 22e4 143b 83e1 1e3d
00000320: ed96 62bd a732 dbbd 37d8 ba3d d64e 1a3e
00000330: 315b 363d 11f5 2f3c 050a 87bb 6bce 393d
00000340: a069 debd 129d 303d e1d6 78bd 8fe4 e5bc
00000350: 733c 81bd f9b5 a0bd 1844 713d 7e48 8f3e
00000360: ad81 b1bb 9cae ff3c 2d22 d13d b52c 9d3c
00000370: c7df 843b a6da b93d 28cc feb9 b73e f1bc
00000380: b425 3dbd 0039 8fbd 3817 a1bd 4d76 183c
00000390: 8170 05bd cc81 bebc 60f4 003e 9260 d8b9
000003a0: 4250 f6bb 490a 2ebd cd05 2ebc 5cb3 1fbd
000003b0: 5285 ccbd aa43 253e 5778 fd3c 8aef 41bb
000003c0: f131 193c 1e26 1ebc 369e fd3b 69cd 0fbd
000003d0: e67b 91bd e9ad 813d 94ea 443d 6fef 05bd
000003e0: e417 2d3d 1e62 c1bd f9f0 e2bc 7a14 6cbd
000003f0: ab8c 2f3e 3f84 f13d 6ce9 1e3d 9b25 523d
0.027198685 0.17061156 -0.062313475 -0.11474666 0.087902576 -0.013003067 -0.048181787 0.17412333
0.06308205 -0.040691182 0.04484364 0.22486837 -0.10600787 -0.04348233 0.011436361 -0.15943599
-0.05558313 0.023168977 -0.096120544 0.10612371 0.014248698 -0.10273847 -0.13052493 0.13051614
-0.022515537 -0.19760403 -0.11201371 -0.054274183 -0.039035637 -0.06279374 -0.02910321 -0.055890292
-0.06356921 -0.018130345 -0.050544154 0.017196944 -0.03157115 -0.10041273 0.16781564 -0.12665299
0.036654092 0.18139628 0.15603524 -0.119596854 -0.14376137 -0.0056739007 -0.09542973 -0.026339697
-0.036378622 -0.02675386 0.03867973 -0.12088055 0.078142524 -0.033430897 -0.1342786 -0.21623334
-0.0014839459 -0.057012476 -0.10560877 -0.09785829 -0.296658 0.07345967 -0.1260547 -0.0480591
-0.012302739 -0.59017885 0.003507438 -0.06333207 0.08212077 -0.090847194 -0.055925593 -0.007016988
0.054748766 0.026090875 0.005981219 -0.024162563 -0.048301708 -0.041190654 -0.022863358 -0.007286284
0.008536573 -0.02631618 -0.14374503 -0.04161835 -0.0636705 -0.046640757 0.06249912 -0.08995057
-0.0027064204 0.031968076 -0.067382015 -0.14934586 0.126241 -0.08434566 -0.05947887 0.020343116
0.02161425 -0.054199383 -0.03526759 -0.0241207 0.02525814 0.033773217 -0.034806617 -0.055144373
0.02406003 0.07320049 -0.020866558 -0.0383402 0.038889278 -0.0641509 -0.00030160477 -0.047994927
0.0061329827 0.07668845 0.016668497 0.0494972 -0.015814235 0.015268632 0.060749635 0.0049736495
-0.00066690485 -0.033971608 0.07310597 0.06734324 -0.11059317 -0.071931385 -0.085165165 -0.0321682
0.09940112 0.00091466977 -0.6601561 -0.036093447 -0.066414446 -0.04966906 0.04414886 -0.031362444
0.020118708 -0.072256155 0.031028632 0.0028957645 0.09291754 0.018086486 0.088111274 0.08102175
-0.07214754 0.016441144 -0.035237566 -0.0116558885 0.031140432 -0.009394324 -0.05658558 -0.057552025
0.110404156 -0.02348733 -0.06983609 0.05654343 -0.029510327 0.06986137 -0.028826836 0.048871256
0.0007716453 -0.012318284 0.09174967 0.01258142 -0.00054894795 0.00016414729 0.008285147 -0.078623086
0.0028265326 0.052811094 -0.008241924 0.056881733 -0.05176978 -0.019420223 0.068968646 -0.06422897
-0.03975177 0.05237683 -0.06821598 -0.0010851526 -0.13060276 -0.082241215 0.039729487 0.049375772
0.038293984 0.024498114 0.0099976715 0.046841264 0.14253923 -0.064331904 0.020255283 -0.09696003
0.1712649 0.032253616 0.030282062 -0.37325522 -0.0787887 0.15210715 0.0022718986 0.038789283
-0.055319715 -0.107030205 0.09123271 0.15069136 0.04452056 0.010739581 -0.0041210675 0.04536287
-0.1085999 0.043118544 -0.0607518 -0.028063087 -0.06310358 -0.078472085 0.05890283 0.27984995
-0.00541707 0.03121119 0.10211597 0.019186357 0.0040549967 0.09074907 -0.00048598764 -0.02944885
-0.046178535 -0.06993294 -0.07865757 0.009305549 -0.032577995 -0.023255251 0.12593222 -0.0004127068
-0.0075168917 -0.042490277 -0.0106215 -0.03898941 -0.09986366 0.16139093 0.030941172 -0.002959224
0.009350286 -0.0096526425 0.0077398075 -0.035108004 -0.0710371 0.06331999 0.048075274 -0.032699045
0.042259112 -0.094425425 -0.027702795 -0.057636715 0.17143504 0.11792802 0.038796827 0.051305395

rnn.bias_ih_l0 f4 [64]
00000000: 99fb 133e 0388 563d b06c 103d 1f8a 673c
00000010: d03f bf3c eb63 04bc 9806 353d e44c 223d
00000020: 9e41 63bd f631 6c3d 7dee 903d 3f08 15be
00000030: 51cd b8bd 8971 b3bc c35c b3bc 7a15 93bb
00000040: c6c2 e4bc 1b36 a43d b52e 1abd 38a2 82bd
00000050: fa38 65bd 1bb6 19bd bfeb d63c 5c58 ff3d
00000060: a53e 5dbd a579 cbbc 6ff9 b43c d9a7 acbb
00000070: 3d65 283d 1eb8 fd3c 6080 553d 2344 2abc
00000080: 1746 87bd 30b0 06bd f75b 0dbd 97a0 8dbd
00000090: 43f2 27bd f63a 3c3b bdda 893d f245 7f3d
000000a0: f869 82bd 62b2 a0bc 2eae 8e3d 8333 d43d
000000b0: 6af4 9cbd 8ac1 803d 4a92 dd3d 7e96 84bd
000000c0: 4196 923c 386c 963c 54c9 a73d 80df 783d
000000d0: 03ef 52bd ed36 40be cd0a 8bbd 1bea 32bd
000000e0: 56ee 1bbd fb9d 9a3d d28b 443b 9ff5 083c
000000f0: adfb f8bd d141 073d a3ca f6bd ac95 fdbd
0.14451446 0.052375805 0.035259902 0.014132052 0.023345858 -0.008080463 0.04419574 0.03962411
-0.0554825 0.057664834 0.07076738 -0.14553927 -0.09023536 -0.021904724 -0.021894818 -0.004488644
-0.027924906 0.08018132 -0.0376422 -0.06378597 -0.05596254 -0.037527185 0.02623546 0.12468025
-0.05401482 -0.024838278 0.022091595 -0.0052690324 0.041112173 0.030971583 0.05212438 -0.010392222
-0.066051655 -0.03288287 -0.034511533 -0.06915396 -0.041002523 0.0028721667 0.06731174 0.062322564
-0.06367868 -0.01961631 0.06966816 0.103613876 -0.07663806 0.06286915 0.10818918 -0.064740166
0.017893912 0.01836215 0.08192697 0.06076002 -0.05149747 -0.18770953 -0.067891695 -0.04368029
-0.03806909 0.07549664 0.0029990566 0.008359342 -0.12157378 0.03302175 -0.12050369 -0.12382063

rnn.bias_hh_l0 f4 [64]
00000000: aa5b 16bc e5d8 7bbd 4b13 16bd 7b62 4d3c
00000010: a63c 00bd 1b8e 03bd ff74 d33d 51b1 f93d
00000020: 096b 553d 6857 53bd 05a1 8cbd cb03 23be
00000030: f0c5 c03d 9a06 0c3d b6ed 3d3c cf85 8e3c
00000040: ac7e ad3c 345c 97bd bfcc 143d 850c 983d
00000050: 3f64 513d 4009 08ba 2253 b4bc 6c86 b83d
00000060: 89b7 543d c50d 03be a5f6 ce3a 0cbb babb
00000070: b4ab 16bd f079 b8bc 512a 2fbd 53d8 853c
00000080: 03cb 753d 2d68 f23c 306b 3c3d c019 c2bd
00000090: 1c72 133d 7b4d abba 4fdc d2bd 587a 58bd
000000a0: c97a 413d e88e ce3b e96d 94bd 8786 98bd
000000b0: 450f a0bd 114f 67bd 554b 103e c1d9 663d
000000c0: b73a dfbc 4b24 e1bb 60aa afbd a9f1 89bd
000000d0: 42f2 7b3d d1ee 8dbb 3846 283e a88c 373d
000000e0: aeab 2f3d 148a 8fbd e1b6 95bb 3d4f a13c
000000f0: bfad 2cbe 0656 c2bc 925f a9bd 5fee f33d
-0.009177128 -0.061486144 -0.036639493 0.012535687 -0.03130784 -0.032117944 0.103250496 0.121920235
0.05210403 -0.05159703 -0.068666495 -0.15919416 0.094127536 0.034185983 0.011592319 0.01739779
0.021178566 -0.07390633 0.036328074 0.07424263 0.051120993 -0.00051893666 -0.022012297 0.09010014
0.051932845 -0.12798221 0.0015790059 -0.0056985673 -0.036784843 -0.022519082 -0.042764965 0.016338503
0.06000806 0.02959069 0.04600066 -0.09477568 0.035997495 -0.0013069356 -0.10295927 -0.05285105
0.047236238 0.006303657 -0.07247526 -0.07447534 -0.078154124 -0.056471888 0.14091237 0.05636001
-0.027249677 -0.0068707815 -0.08577418 -0.06735546 0.061510332 -0.0043314476 0.16433036 0.044811875
0.042888336 -0.07008758 -0.00456892 0.019691104 -0.16863154 -0.02372266 -0.08270182 0.119107

rnn.weight_ih_l1 f4 [64, 64]
00000000: f679 efbb d097 eb3c aa49 a23b 45eb 2dbd
00000010: d951 c9bc f9d6 ebbc 361d 9f3c b8af fd3c
00000020: 2b3a 10bd e7e6 ca3c e481 2d3c 7e93 d93d
00000030: d8e7 98bd f286 f53c b70e 41bd f100 233d
00000040: d5b8 fabc 3580 4e39 e06b a5bc ff1a 87bd
00000050: 1104 3bbd a56a 913c d734 f43c fc3a 273d
00000060: 40a8 1abd 6ec2 4ebc 00a5 023d 04ad 95bc
00000070: 6e36 203d b6f7 b03c a367 48bd 2377 47bd
00000080: 593c af3c 8bd2 e1bc ea3f 6cbb 6832 eabc
00000090: a591 abbc 3dd5 1d3d 42ce 223d 9691 b73c
000000a0: b032 7b3c 54d3 6a3d 0d30 073d 0eeb 5d3c
000000b0: afa4 94bd 3a05 933c 7aca e03c 0e25 ff3c
000000c0: b028 613b 5398 3f3c a6b1 e7bc a396 c23c
000000d0: d64e 7b3a 6f56 05bd 4469 523d da30 46bd
000000e0: 2301 d93c 82e3 23bd f786 afbd c92a d8bc
000000f0: e87c b63d 83c1 22bd b0fc ab3c 72b1 4a3b
00000100: 8bdc 8bbc 4dc3 d7bc 6aaf 403d dc7b 94bd
00000110: 8240 bbbc 4124 2e3e 97cf 3abc a14a 573c
00000120: 5bd9 973d 6193 2abd 61d0 4c3c b749 a53d
00000130: 4eb5 f4bb 1719 823c a423 6e3a b20b cb3c
00000140: 8622 67bb 0c12 de3c f69e 80bd f437 29bd
00000150: 8329 fcbc dc44 28bd 3116 763d a22a 293e
00000160: 8622 2d3d b821 c63c c474 513d e14c ad3c
00000170: e7a3 00bd e90b 233d 3388 1a3d 79da a73b
00000180: 315d 53bd 3fa9 89bc 5e9c 9bbc 20a1 aa3c
00000190: 7459 1fbd 9ca4 57bc 177e aa3d 2372 393d
000001a0: 3136 80bd 8c8f 7a3c dcad 09bc 75bc 5cbd
000001b0: 2897 c7bd 6fee 2a3b a689 263d 2920 dd3b
000001c0: 417a 39bc 3978 27bd 5d06 af3d 8a6c b8bc
000001d0: 670b 303c c940 a0bd f444 fdbc 9ac7 cfbc
000001e0: 77b1 093b 1da3 03bd 853f cd3b 5068 833c
000001f0: 1c3b 003e e383 8c3d f63b ac3d c9e4 16bb
00000200: 6ace 7bbd d41e 48bd d3aa 2abd 9cb8 8f3c
00000210: 92c0 923c 35b9 dabd 1a94 cdbd 1f08 e23c
00000220: e0f1 3dbd 3ac6 f63c cba4 233d 31a3 c0bd
00000230: c5d4 7a3b ab6a 563d d9af 583d 58fb 3bbc
00000240: 71ac 31bd 7bff bdbd 89c0 67bb 3487 873c
00000250: 3592 4ebd 7491 2fbd e5fb 623d 6768 27bd
00000260: 4157 923c 5c24 09bc 2d32 29bd 972f 27bd
00000270: cea3 503c 170d 85bb 0bcb 8cbc 8a20 563d
00000280: 6f32 cbbc 4704 803a 0eca 2d3d 97a0 9a3d
00000290: 4837 603d f5bc c9bb 7ed4 04bd 1c70 3fbd
000002a0: db63 a93b edde 213c fd10 63bd 0b30 6b3d
000002b0: 1a8d d03c a91c f73c 1dcf f83b bfe4 75ba
000002c0: ee1d d23b df94 ccbc fac8 733d a885 a33c
000002d0: b60a 0b3a f52a d13d 2a2a dd3c d502 3a3d
000002e0: 5a6a 623c cd74 f4bc fa1d 453d 9e48 a23d
000002f0: c69c bbbd 6bbd 04bd ea9a e7bd ffa5 9abd
00000300: 7c15 f4bc b3a8 893c 20a7 b73d 15ee 5c3c
00000310: 56b7 a9bc bb1e 93bc 3ecf 253d f42f 55bd
00000320: acda 56bd 48d1 853c 6e3f 03bc 1948 573d
00000330: d653 61bc d56b 6d3d 1199 463c 36de 923c
00000340: b9ef 91bc 9999 9cbb 0c7c 573c 6bc2 f8bc
00000350: 319e 043d 2613 d2bd 2276 de3b 151f 6b3d
00000360: 5154 273d 049d 95bc ab0f 1a3c 22b6 01bc
00000370: f84e b0bc 99bb a03c 1842 f03c b114 bb39
00000380: d01b 5fbd 121e b2bc 4cd3 6c3c 2344 ac3d
00000390: b242 653d 0f16 b1bc 9f0d c0bc a6f5 3d3d
000003a0: c49e 70bc b893 dd3c cbed 48bd 68c3 913d
000003b0: ac8c 0fbc 5c4f d4bc 48bd 48bd 8343 26bc
000003c0: 8324 e8bc 79d9 0b3d 4979 47bc 5c46 503d
000003d0: 1097 0abd 9d2f 3fbc 689e da3c 35c4 2a3b
000003e0: 8cac 94bd 3c16 e43c a871 6ebc c01c 143d
000003f0: fac8 1abc 6664 0d3d e382 f73c 0231 2fbd
-0.00730824 0.028758913 0.004952629 -0.0424607 -0.02457516 -0.02878903 0.019423109 0.030967578
-0.035211723 0.024768306 0.01059005 0.10623835 -0.07466096 0.029971574 -0.047133174 0.03979582
-0.030605713 0.00019693452 -0.02019304 -0.06596946 -0.045658175 0.017751047 0.029810352 0.040827736
-0.037758112 -0.012619598 0.031895638 -0.018270977 0.03911441 0.021602493 -0.04892696 -0.048697602
0.02139108 -0.027566215 -0.0036048838 -0.028588489 -0.020943472 0.038533438 0.039747484 0.022408288
0.015331909 0.057330444 0.03300481 0.013544811 -0.072579734 0.017946828 0.027440298 0.031145599
0.0034356527 0.011694032 -0.028282952 0.02375347 0.00095866376 -0.032553133 0.05136992 -0.048386432
0.0264898 -0.04001189 -0.085706644 -0.026387589 0.08910543 -0.03973533 0.020994514 0.003092852
-0.017072937 -0.026338244 0.047042288 -0.07250187 -0.022857908 0.17006017 -0.011402032 0.0131403515
0.07414504 -0.041644458 0.012500853 0.080707006 -0.0074679023 0.015881104 0.00090842904 0.02478585
-0.003526838 0.027108215 -0.062803194 -0.041313127 -0.030781513 -0.041081294 0.060079757 0.1652017
0.042269252 0.024186 0.051136747 0.021154823 -0.03140631 0.03980628 0.037727546 0.0051224795
-0.051602546 -0.016804336 -0.01899546 0.020828784 -0.03890367 -0.0131618045 0.08324831 0.045274865
-0.06260336 0.015293013 -0.008403268 -0.053890664 -0.09745628 0.002608206 0.040658616 0.0067482186
-0.0113206515 -0.040886138 0.085461356 -0.022512693 0.010744906 -0.07824857 -0.030916668 -0.025363732
0.0021010318 -0.03213798 0.0062636756 0.016040951 0.12522548 0.06861093 0.08409874 -0.002302455
-0.06147615 -0.048857525 -0.041666817 0.017544083 0.01791409 -0.10679857 -0.10038014 0.027591763
-0.046373248 0.030123819 0.03995208 -0.09406126 0.0038273793 0.05234782 0.052902076 -0.011473499
-0.043377344 -0.09277245 -0.0035362563 0.016543962 -0.050432403 -0.042863324 0.055416007 -0.04087105
0.017863872 -0.008370485 -0.041307617 -0.04081687 0.012734367 -0.0040603983 -0.017186662 0.052277125
-0.024804322 0.00097669 0.042429022 0.07550161 0.05474022 -0.0061565586 -0.03242921 -0.046737775
0.0051693744 0.00987981 -0.055436123 0.057418864 0.025457907 0.030165033 0.007593049 -0.0009380094
0.0064122593 -0.024973331 0.059517838 0.019961193 0.0005304025 0.102132715 0.026997644 0.045412857
0.0138193015 -0.029840851 0.04812429 0.07924007 -0.091607615 -0.032407206 -0.113088444 -0.075511925
-0.0297954 0.016804075 0.089674234 0.013484498 -0.020717304 -0.01795899 0.040480845 -0.052047685
-0.052454636 0.016335145 -0.008010728 0.052558992 -0.013752898 0.057964165 0.012121455 0.017928224
-0.017814504 -0.0047790525 0.013152134 -0.030366143 0.032377426 -0.102575585 0.006788985 0.05740269
0.040851895 -0.018263347 0.00940315 -0.007916959 -0.02152203 0.019620704 0.029328391 0.00035682836
-0.054469883 -0.021742854 0.014454674 0.084114335 0.05597181 -0.021616964 -0.023443995 0.046376847
-0.01468629 0.027047977 -0.049054902 0.07117349 -0.008761566 -0.025916748 -0.049008638 -0.010147932
-0.028337723 0.034142945 -0.012174913 0.05084835 -0.03383547 -0.011669067 0.026686862 0.002605689
-0.07259473 0.027842633 -0.014553465 0.03616023 -0.009447331 0.034519576 0.030213779 -0.042771347

rnn.weight_hh_l1 f4 [64, 64]
00000000: 5736 1bbf 887f d7bc 55f6 f8bd 9368 83bd
00000010: 149b ab3c 7743 0e3d 98f8 403d bb84 0f3d
00000020: d8d0 873d e5b3 853a c480 aebd 741a 053c
00000030: 3afe 1ebd 40c0 a83c 36fa d3bb 0507 c4bc
00000040: d833 e93c 77e5 d0bb 655d 923d 221f 863d
00000050: df45 dabd e411 4d3d 828a 0a3d 26d2 87bd
00000060: bc4e 0e3d 9e17 c2bd c762 a43c 1802 983d
00000070: 9b9e 163d e9d6 3bbc 907d 48bb 6f72 5cbd
00000080: 3cdd b43d 236b acbd 2957 dabd b5f0 003c
00000090: 3d41 a13d ff8b 03be a77e 05bd 2221 933d
000000a0: c21f 97bc 7ed4 48bc 5ecf 2f3c cad2 60bc
000000b0: abf8 8ebc 12c9 1abd b403 c7bb ee53 25bc
000000c0: 6a64 d9bd d0cd 15bd 0bd1 e73c b4ae cdbc
000000d0: 3418 353d 5cbf 453d ddd1 08bd e417 06bd
000000e0: 5a9b 4d3d 09d6 903d cb43 82bc 4ec1 62bd
000000f0: 9103 e4bb bd60 2d3e 3188 00bd dd77 f6bd
00000100: b667 bc3d 0e4c 27bf fb53 b0bd 62e0 cfbd
00000110: 1777 423d 7cb0 ddbc fb50 313d df9b 92bd
00000120: ac6f 7abc f583 d73b 5657 7e3e 5445 85bd
00000130: e76a d0bb 32bc adbd 7047 47bc 036b 0e3c
00000140: 1aea 1b3e 44d8 623c 4a48 24bd 0d72 503d
00000150: 7f28 3cbd 0418 e3bc b486 04bd 8c6d 93bd
00000160: fa22 e23d facb 26bd 1fd5 203d 027f 5a3c
00000170: e805 85bd 1bc2 4f3c 7a97 a9bd 533f c6bd
00000180: be60 083d 7577 c73c b280 d6bd 9f0b dbbc
00000190: 77f9 b73d 7700 653d 99db 5fbd 5c32 233d
000001a0: 1dfc 64bd 3ce8 c2bd 9142 41bc 4fa1 6bbd
000001b0: bb9d 6ebd 1e7c a73c bbc0 b83c 2c6d ad3c
000001c0: 4940 74bd eddf 813a e182 7ebd d43f d2bc
000001d0: 4bf5 f7bd a391 6bbb 37c4 abbd 0eda 83bb
000001e0: c833 9b3c b3d4 e83b 3ab7 babd 5355 76bd
000001f0: 425c 06bd 51a7 97bd f670 373c 479c 4fbb
00000200: 5f3a d43d dc4c f73c ee10 07bf 1ec6 ce3c
00000210: 7a0c 2ebd b39a 40be d36f 10bd 445b eabc
00000220: c360 7abb 53f5 093c a1cb 0e3c 22dd 98bb
00000230: ae28 f93c c281 f83c df66 3bbc 2532 9f3d
00000240: bfbd e2bd 127d a2bc 2221 9bbd e3a0 8c3d
00000250: e187 213e 9988 11be 1d59 3f3d e5ab 313c
00000260: 30aa feba e0a6 033e b215 91bc 99bc f33b
00000270: 3614 c73c 6c93 0cbd 6f9f 073d 4fc1 443d
00000280: daa8 9cbd c53c 953c 5cdb f8bc 22e7 183d
00000290: f79a 11bc d34c 5d3d 48bf 3dbd b47c 003d
000002a0: 5997 96bc cc6a 103e de3f 883d 2cdc b1bc
000002b0: 4a95 9cbd 8a87 913c dbfc 1cbd cfa8 ed3d
000002c0: f67e c2bd 0aad 073e 27ab 04be af99 95bd
000002d0: 0da3 ad3d f5c7 073c 0032 d83c 99cb 1f3d
000002e0: aae7 5cbd b9da adbd 46fc 3a3d 7c55 53bd
000002f0: 9976 333d 1510 bc3d f49c ef3c 57c0 bbbd
00000300: aac0 8d3d d8b0 113d 57c5 40bd 209a 2cbf
00000310: 8ddc 293d e50e 51bc 81ba 83bc 09ea 98bd
00000320: 5c16 7d3a 9e71 153d 1680 c83d fc72 bf3c
00000330: 4687 c2bc cb95 e23c 75c7 37bd 74e8 a2bc
00000340: 2df4 413d 0f22 9bbd 7ea7 603d 0ba1 abbb
00000350: 4616 34bd f9b8 24be e8ee 8c3d ae7e ef3c
00000360: 6e62 4f3d bc07 c03d f682 dfbd b556 533b
00000370: c3e5 e0bc 9191 34bd a112 11bd 1050 903b
00000380: 652f dfbd 468a 95bd 4f46 3ebd 701a 903d
00000390: 5147 023d 8172 06bd 60ae 1f3d 0b25 d5bc
000003a0: 763b 98bd c5c9 39bd a97e 2b3d a4b0 823d
000003b0: 48f3 a63d a7a9 033d de00 c43d 3f5c 9a3d
000003c0: 154b cb3c 69ec debc d2b6 303d 1bfd 73ba
000003d0: 3de5 17bd 924e 8ebc d66c 70bd 743f 49bc
000003e0: 8183 bd3c 6308 0e3c 1c1a 6f3d e89d c7bb
000003f0: fa9f e7bd 0efd bc3b 597b 6abb 094c 2d3d
-0.6062979 -0.026305929 -0.12156359 -0.0641643 0.02094797 0.03473231 0.047112077 0.03503869
0.06631631 0.0010200707 -0.08520654 0.008123983 -0.038816668 0.020599484 -0.0064690365 -0.023929128
0.028467104 -0.0063750106 0.0714672 0.06548907 -0.10657858 0.05006589 0.033823498 -0.066318795
0.034743056 -0.09477161 0.020066632 0.07422274 0.03677235 -0.011464813 -0.003059242 -0.05382007
0.088312596 -0.08418872 -0.10661156 0.007869889 0.07873771 -0.12846373 -0.03259149 0.07184054
-0.01844776 -0.012257693 0.0107305925 -0.013722131 -0.017452559 -0.03778941 -0.0060734395 -0.010090811
-0.106148556 -0.03657323 0.028297922 -0.025107719 0.044212535 0.048278198 -0.033403266 -0.032737628
0.050196983 0.07072074 -0.015901467 -0.05536013 -0.006958433 0.16931434 -0.031379882 -0.12034581
0.09199469 -0.65350425 -0.08609768 -0.101502195 0.047476854 -0.027061693 0.04329012 -0.07158636
-0.015285414 0.00657701 0.24838004 -0.06507364 -0.0063604 -0.08483161 -0.012163028 0.008692506
0.15226021 0.013845507 -0.040108003 0.050890017 -0.045937058 -0.027721412 -0.032355025 -0.07198629
0.110418275 -0.04072187 0.039265748 0.013335945 -0.06495267 0.012680556 -0.08280845 -0.09680047
0.033295386 0.024348954 -0.104737654 -0.02673894 0.089831285 0.055908646 -0.054652784 0.03984295
-0.055904496 -0.095169514 -0.011795656 -0.057526883 -0.058255892 0.020444926 0.022552839 0.021170221
-0.05963162 0.0009908654 -0.062136535 -0.025665201 -0.12107333 -0.003594496 -0.083870344 -0.004023797
0.01894559 0.007105434 -0.09116979 -0.060139965 -0.032802828 -0.0740496 0.011196366 -0.0031678842
0.10362696 0.030188017 -0.5276021 0.025240954 -0.042492367 -0.18809013 -0.035262894 -0.028607972
-0.0038204647 0.008420306 0.008715541 -0.004665033 0.030414905 0.03033531 -0.011438101 0.07773236
-0.110713474 -0.019835029 -0.07574679 0.06866624 0.1577449 -0.14212264 0.046715844 0.0108442055
-0.0019429382 0.12856627 -0.01771054 0.007438254 0.02430163 -0.03432028 0.033111032 0.048035916
-0.076493934 0.018217454 -0.030378036 0.0373298 -0.008887044 0.054028343 -0.046325 0.031368926
-0.018382715 0.1410324 0.06652807 -0.021711431 -0.07645662 0.017764825 -0.03832708 0.11604463
-0.09496872 0.13249603 -0.12955914 -0.073047034 0.08478365 0.00828742 0.02639103 0.039012525
-0.05393187 -0.08488984 0.045650743 -0.051595196 0.043814275 0.09182755 0.029249646 -0.09167545
0.069215134 0.035569042 -0.047063198 -0.67422676 0.0414701 -0.012759899 -0.016080143 -0.07466514
0.0009654516 0.036485307 0.097900555 0.023370259 -0.023746144 0.027659317 -0.04486795 -0.019886233
0.047352005 -0.075748555 0.054847233 -0.0052377037 -0.043966554 -0.16086186 0.06881505 0.02923521
0.05063098 0.09376475 -0.10913651 0.0032247726 -0.027453309 -0.044084135 -0.035418157 0.0044040754
-0.10897712 -0.07301764 -0.04645377 0.070362926 0.031806294 -0.032824043 0.038984656 -0.02601864
-0.07433216 -0.045358438 0.04186884 0.06381348 0.08151871 0.032144215 0.09570478 0.07537126
0.024816075 -0.027212339 0.0431431 -0.000930743 -0.037083853 -0.01737145 -0.058697544 -0.012283195
0.023133995 0.008668992 0.05837451 -0.006091822 -0.1130981 0.005767471 -0.0035779087 0.04230884

rnn.bias_ih_l1 f4 [64]
00000000: c0ee 3a3d c74f c13c c01a b1bd 9bd4 95bd
00000010: bb63 443d 28b4 9fbd e87a 92bd 2931 81bc
00000020: 75ba c8bd 4482 40bd fad4 d1bc e38b c2bd
00000030: 5ac8 06be b101 843e 0384 83bd f84e 5a3c
00000040: 3437 3fbd ceb5 a9be 097b c4bd a757 0f3d
00000050: 19bb 8fbd d419 6c3d 57d7 e73c 2973 fd3c
00000060: 6b13 adbd c0fc 703e df58 c03d 252d 1e3e
00000070: 63a2 af3d 800f 4c3d 1bd8 09bd 0c55 643d
00000080: 5dfb 183d a3f5 1ebd 1ca7 23bd 5d83 a2bd
00000090: 0721 943e d239 3c3d 5a29 5aba 326a c83c
000000a0: d5a9 6e3c 3763 543d 0984 3b3d ba8d 35bd
000000b0: 80ca 94be 96e4 42bc 63fc 823d a4a2 ad3d
000000c0: 1d4f ac3d 20ef 0f3d e40c d4bd 43c8 02bd
000000d0: d4db 003d 4ef0 03be b75f 183d e2bd 263d
000000e0: 9fb8 243d d6d5 d63c c5bc 1cbd 1d0c 96bd
000000f0: 08ef 893c f83c 21bc 8fc6 f4bc 13cc c93d
0.045637846 0.023597611 -0.0864768 -0.07315942 0.047946673 -0.07798034 -0.07152349 -0.015770512
-0.09801189 -0.04699923 -0.02561425 -0.094993375 -0.13162366 0.2578254 -0.064216636 0.013324492
-0.046683505 -0.33146518 -0.095937796 0.0349957 -0.07018108 0.05764182 0.028300924 0.030938702
-0.08450969 0.23533916 0.09391951 0.15446909 0.08575895 0.04981947 -0.03365336 0.05574517
0.037349094 -0.038808476 -0.03995429 -0.07935212 0.28931448 0.04595358 -0.0008322202 0.0244647
0.014566858 0.05185243 0.045780215 -0.044324614 -0.29060745 -0.011895319 0.06395795 0.08478287
0.08413527 0.035140157 -0.10354021 -0.031929266 0.031459644 -0.12884638 0.037200656 0.04070843
0.04021513 0.026225012 -0.038265962 -0.07326529 0.016837612 -0.009841196 -0.029879836 0.09853377

rnn.bias_hh_l1 f4 [64]
00000000: 8116 29be 5b22 38bd 88b9 0dbe 4514 89bd
00000010: 5d42 eebb dafa e5bc 7be2 4fbd 3bf4 8bba
00000020: dc4f 833c 9763 603d 0998 07be 3544 4cbd
00000030: d184 7a3d d43d 573e ba1f 8abd e417 203d
00000040: ba06 743d 66fb cfbe 1aac 48bd f0f8 b4ba
00000050: d048 ab3d 5a12 2b3d 987f 70bd bd99 4abd
00000060: 821b ea3d d23a eb3d 3144 dabd 693c 903e
00000070: 7514 8bbd 067c 8dbd 8913 ac3d 9773 ddbd
00000080: 787d 833d 6348 8dbd 2e25 8a3c 2daf 133e
00000090: c431 953e 7f94 0dbe 9f42 303d d432 69bd
000000a0: 11b0 61bc e2ef 003c 52ad cebd 0891 dfbc
000000b0: d296 a1be b364 273e 11ee 41bd 6d01 96bd
000000c0: e3d4 42bd 87cc 54bd 8a94 833d 3401 a63d
000000d0: 7b49 1d3d 8e43 5e3d 3d42 223c 2018 b33d
000000e0: 20bd b0bc 0370 cdbc 3a73 e83c 7876 b13d
000000f0: 734c 4bbd c9c0 7bbd 9f1e a6bd ef53 7a3c
-0.16512491 -0.04495464 -0.13840306 -0.06693319 -0.0072710947 -0.028073717 -0.050753098 -0.0010677645
0.01602929 0.054782476 -0.1324159 -0.049869735 0.06116182 0.2101968 -0.067443326 0.039085284
0.059576727 -0.4062149 -0.048992254 -0.0013807099 0.08363497 0.04176555 -0.058715433 -0.049463023
0.11431028 0.114858285 -0.10657538 0.2817109 -0.06791011 -0.06908421 0.084021635 -0.10813063
0.06420416 -0.06898572 0.016863432 0.14422293 0.2913953 -0.13826178 0.043032285 -0.05693324
-0.013774888 0.0078696925 -0.10091652 -0.027290836 -0.3156038 0.16347007 -0.04734618 -0.07324491
-0.047566306 -0.051952865 0.06424816 0.08105698 0.038400155 0.054263644 0.009903488 0.08744836
-0.021574557 -0.025077825 0.028375257 0.08665174 -0.049633455 -0.06146315 -0.08111309 0.0152788

fc.weight f4 [5, 64]
00000000: ec1c a53a 8b97 353b 9311 81bb fdef 02bc
00000010: fa62 f139 f378 463b cc54 3fbc c286 be3a
00000020: acd2 953b 7dd2 1dbc 4aa8 e8bb 3e70 8c3a
00000030: 3e82 3cbc 7ef6 253e 02d0 363b b51a ca3b
00000040: 04c0 123c d6a0 27be ef8b 83bd 646e 8c3b
00000050: 4a59 15bc 54f0 bab9 e6d2 debb 24ba 41bc
00000060: 60c5 30bb 83ac eb3d cbab 82bb fccb 5abc
00000070: 8b09 083a ed30 353b cdcf a23b 4939 e0bb
00000080: aa89 063c 16f7 bebb 4118 b8bb 9a88 09bb
00000090: a390 1a3e 6e6f b2ba 9393 0cbb b295 4b3a
000000a0: 0f14 0abb eb34 37bc a08b 01ba d547 a0bb
000000b0: f0e7 42be 6c14 913a e2b0 e0ba b75b 4dbc
000000c0: 3196 61bb b947 c139 75a9 213c 8da3 22bc
000000d0: c9e4 133a 3cef d13a 55df 30bb a2c3 cc3a
000000e0: ef24 91bb 0649 b13b 1e33 033c 3c38 e53b
000000f0: ee41 00bc f9ac 3439 4d50 9a3b 0abc 6f3c
00000100: 68af 3ebb 8b01 d3b9 e4d3 23bb accb 99bb
00000110: c3d6 6abb 17f5 09bb 3e9e 4abb 849f 113b
00000120: dbc1 52bb 9a02 0bbb 1a09 75bb 0ab8 f6bb
00000130: 09e7 97bb 0ce9 483d 6f55 68bb fe94 e3b8
00000140: 5ec1 25bc 49e5 2bbe 6d77 babd ef6d b1bb
00000150: 6d69 9d3b 31a5 a03b 396e 173a fbc1 8d3b
00000160: 075a 5a3b 66fe fa3d 3882 e339 769c e4b9
00000170: b2f9 89bb b963 563b 831e e13a 3775 05bc
00000180: d5b4 1b39 0c0c adba a248 f33a 0681 3bbb
00000190: b495 7f3d 1005 143a b418 ba3b b0ce 8c3b
000001a0: fc8a cab9 20d1 e039 1d08 003b 87bc 98bb
000001b0: 2492 5ebe 305b d73b 6a0c 3f3b b67b 9dbb
000001c0: bbe6 c1b8 88a5 c5bb 71c4 8d3b fa04 123c
000001d0: 9ce1 b7bb c100 bfba bf51 7eb8 2699 fe3b
000001e0: 77ce 813b 8dec bf3b 0a34 ecbb 369b 4fbb
000001f0: f096 8fbb 2731 bbbb 9ade 233a 4a5f 2e38
00000200: 9ed5 8d3b 8baa 05bc 2c09 423b 3580 fd3a
00000210: ff41 f13b bfd1 0abc 0107 923b 8fcd 403b
00000220: 0bc3 7bba 27ec 35bb a8d6 d7bb 4489 9d3b
00000230: c3e1 193c aa3b ac3d f921 91ba bee4 d23a
00000240: 0475 95bb 8815 32be fc3c 96bd 1e50 273c
00000250: 7d8f 353b 70a9 7ebc 500b 7cbb b60b e93a
00000260: 1c32 f73a ab96 e73d a7c8 f4b9 6e73 1e3e
00000270: aeec 10bb a6b1 983b ac01 95bb c23b 423b
00000280: 1c08 96bb 8a54 db3b f083 de3b 7bb0 a13b
00000290: 55c8 253e 2882 b83b a6a0 a9bb 81d4 cb3a
000002a0: c4fb 5fb9 085a 2e3c 6699 303b bc65 8ebb
000002b0: 4148 0dbc 5cfe eabb 1b6e 0cbc 9f21 a73b
000002c0: 6702 c63b 10a5 893b ea5e 08bc fdd8 39bb
000002d0: 6068 a73b e135 623b b93c e93b 0b11 be39
000002e0: 0a88 62bb c6ff 70bc 841f b439 93b9 abba
000002f0: 2ac1 e13b ace7 d2ba 8475 fe38 6db1 90bb
00000300: aea3 c93a 9fb6 cebb 0ed9 f239 c011 df3a
00000310: 8b50 a7bb e2b0 16ba 0763 103b 1917 ceba
00000320: a520 11bb 06bf 62ba e0af cdbb 0979 14bb
00000330: 94cc 283b 6c66 fd3c 3dad 33ba c4f4 32bb
00000340: dec0 cf3b 84d2 40be 426b 86bd ee6a 873b
00000350: 07eb 503b 9203 2c3b de87 a33a 6712 e9ba
00000360: 0fab 093b 70c1 213e 7c77 1a39 aafa 233e
00000370: fb82 2abb 9540 d5bb da6f 1e3b 4590 b93a
00000380: 1d76 1f3b 1b26 1a3b 5543 ca3a 8c46 233b
00000390: ae35 053e 6b3a 60bb 64bf 483b 6427 a23b
000003a0: d478 c53b b0b6 d2b8 fc6d 14bb 2be0 52bb
000003b0: b984 cebd 2c97 eb3b 9817 2abb 3022 813b
000003c0: 5813 efba 4e28 19ba b296 7cbb bddf 663b
000003d0: 1941 65b9 2562 8537 10f2 ae38 3982 3f3a
000003e0: a5af 04bb 92de 7d3a c648 bdba de1f 50bb
000003f0: 8d78 af3a 3bf5 5aba 4a2b f63a 4d1b 41bb
0.001259712 0.0027708735 -0.0039388626 -0.007991788 0.00046040845 0.0030284494 -0.011677932 0.001453601
0.004572233 -0.009632704 -0.0071001397 0.0010714603 -0.0115056615 0.1620731 0.0027894978 0.0061677345
0.008956913 -0.16369948 -0.064231746 0.0042856205 -0.009115526 -0.00035655743 -0.0068000434 -0.011824165
-0.0026973113 0.115075134 -0.0039877645 -0.013354298 0.00051894103 0.002764757 0.0049686194 -0.0068427664
0.008211533 -0.005827795 -0.0056181257 -0.0020985962 0.15094237 -0.0013613531 -0.0021450266 0.0007766142
-0.0021069085 -0.01118205 -0.0004941765 -0.0048913755 -0.1903379 0.0011068708 -0.0017142559 -0.012534074
-0.0034421796 0.00036865266 0.009867062 -0.009926689 0.00056416966 0.0016016732 -0.0026988585 0.0015622268
-0.0044294517 0.0054103164 0.008007793 0.006995229 -0.007828219 0.00017230575 0.0047092796 0.014632234
-0.002909625 -0.00040246206 -0.0024998123 -0.004693469 -0.0035833574 -0.0021050626 -0.0030917074 0.0022220323
-0.0032159004 -0.0021211267 -0.0037389458 -0.0075292634 -0.004635696 0.049050376 -0.0035451313 -0.000108519554
-0.010116903 -0.16786684 -0.0910481 -0.0054147164 0.0048038275 0.004902505 0.00057766173 0.004326103
0.003331782 0.12255554 0.00043393834 -0.0004360412 -0.004210674 0.0032713248 0.0017175231 -0.008145622
0.00014849317 -0.0013202443 0.0018561075 -0.002861084 0.062398627 0.00056465063 0.0056792144 0.0042971
-0.00038631994 0.0004288042 0.0019536086 -0.004661146 -0.21735436 0.0065721497 0.0029151686 -0.0048060073
-9.245934e-05 -0.0060316958 0.004326396 0.008912319 -0.0056116115 -0.0014572368 -6.063445e-05 0.0077697216
0.00396138 0.0058570565 -0.007208352 -0.0031678206 -0.004382007 -0.0057126465 0.0006251127 4.1573578e-05
0.0043284437 -0.008158336 0.0029607518 0.0019340577 0.0073626037 -0.008472859 0.0044564013 0.0029419397
-0.0009603954 -0.0027759166 -0.0065868683 0.004807623 0.009392205 0.084098175 -0.0011072747 0.0016089899
-0.0045610685 -0.17391026 -0.073358506 0.0102119725 0.0027703934 -0.015543327 -0.0038458891 0.0017779979
0.0018859538 0.113080345 -0.00046688804 0.1547372 -0.0022113728 0.004659849 -0.0045473184 0.002963767
-0.0045786034 0.0066934275 0.0067906305 0.004934368 0.16189702 0.00563075 -0.0051766215 0.0015551002
-0.00021360727 0.010641582 0.0026946901 -0.004345624 -0.008623184 -0.0071714353 -0.008571173 0.0051004435
0.006042767 0.004200585 -0.0083234105 -0.0028358095 0.005108878 0.0034516978 0.0071178344 0.00036252322
-0.003456595 -0.014709419 0.00034355756 -0.001310157 0.006889482 -0.0016090772 0.00012133553 -0.004415682
0.0015383863 -0.006308391 0.00046319555 0.001701884 -0.005106037 -0.00057484035 0.002203168 -0.0015723436
-0.0022144702 -0.00086496805 -0.0062770694 -0.002265515 0.0025756704 0.030932628 -0.00068541226 -0.0027306536
0.00634013 -0.18830305 -0.065634266 0.00413262 0.0031878368 0.0026247245 0.0012476405 -0.0017781974
0.00210065 0.15796447 0.00014731096 0.1601359 -0.0026018012 -0.006507943 0.0024175555 0.0014157376
0.0024331876 0.0023521248 0.0015431443 0.0024913875 0.13008758 -0.0034214507 0.0030631656 0.0049485434
0.0060263667 -0.000100476085 -0.0022648564 -0.0032177072 -0.100839086 0.007189652 -0.0025954004 0.003940843
-0.0018240018 -0.00058424927 -0.003854197 0.0035228573 -0.00021863393 1.5900538e-05 8.342054e-05 0.00073054765
-0.0020246294 0.00096843496 -0.0014441244 -0.0031757276 0.0013387367 -0.0008352582 0.0018781212 -0.0029465735

fc.bias f4 [5]
00000000: 3bd2 f7bb 5d1d 0f3e e934 823d b7f7 8b3c
00000010: 6a15 6b3e
-0.007562903 0.13976045 0.06357748 0.017085893 0.22957388
