邪王真眼/week02/LogisticRegression_breast_cancer.pth (torch, 3863 bytes, 5 tensors)

bn.weight f4 [30]
000000 19 1a 92 3f 76 d3 8c 3f bd 50 8a 3f c3 29 6f 3f
       1.1414214 1.1002033 1.0805889 0.934231
000010 0e f0 84 3f 27 d5 80 3f a6 b6 81 3f c8 2d 8a 3f
       1.0385759 1.0065049 1.0133865 1.0795221
000020 4e da 7b 3f 85 70 81 3f 8e 41 87 3f 21 fe 7e 3f
       0.9837998 1.0112463 1.0566881 0.9960652
000030 93 34 7d 3f d0 e3 86 3f 94 4f 80 3f 68 3c 80 3f
       0.98908347 1.0538273 1.0024285 1.0018435
000040 52 ee 7f 3f 9b 7f 80 3f 91 70 84 3f 3b b8 79 3f
       0.9997302 1.0038942 1.0346853 0.9754674
000050 38 02 74 3f 4a 79 71 3f d8 50 80 3f 8d 7f 79 3f
       0.95315886 0.943257 1.0024672 0.9746025
000060 66 39 6c 3f a2 82 8e 3f a8 5c 77 3f 1d ae 79 3f
       0.92275083 1.1133616 0.9662576 0.975313
000070 7e 7a 88 3f 62 16 70 3f
       1.0662382 0.93784153

bn.bias f4 [30]
000000 92 b4 8c bc 0f 32 1d bc f4 a3 14 bc cf f4 30 3c
       -0.017175946 -0.009594454 -0.009072293 0.010800554
000010 f5 55 51 bc b0 d8 8d ba 62 98 87 ba b3 61 1b bc
       -0.012776841 -0.0010822024 -0.0010345096 -0.0094837425
000020 0f 87 4a bc a3 3a 2e 3c bf e5 77 bc de 4b 41 bb
       -0.012361302 0.010634097 -0.015130459 -0.0029494683
000030 28 b8 68 3b 1b 9b 42 bc 99 92 34 3b d5 05 92 3b
       0.0035510156 -0.0118778 0.00275532 0.0044562616
000040 95 9b bc 3b e5 6f 8a bb 13 82 a8 3b 25 c1 60 bc
       0.0057558515 -0.0042247646 0.005142459 -0.013717924
000050 46 f6 ee 3b e0 c5 0b 3c 6c ef e9 3a 97 65 a2 3b
       0.0072925417 0.008531064 0.0017847843 0.004955958
000060 e3 cb 35 3c 57 4c 5c bc 92 ed ba 3b 60 b7 9c 3b
       0.011095974 -0.013445935 0.00570459 0.004782602
000070 7f 00 67 bc db 97 3d 3c
       -0.014099239 0.01157185

bn.running_mean f4 [30]
000000 d7 87 5f 41 e0 40 9c 41 33 c0 b5 42 c5 06 20 44
       13.970664 19.531677 90.87539 640.1058
000010 76 5d c4 3d 48 74 d1 3d 27 1f ad 3d 92 b6 3e 3d
       0.09588139 0.10227257 0.084532075 0.04656083
000020 27 e3 37 3e a5 9e 80 3d 6e 0b c9 3e a0 9d 9d 3f
       0.17957745 0.06280259 0.39266533 1.2313728
000030 e5 33 32 40 b7 28 1b 42 62 35 e7 3b 7c c5 cb 3c
       2.7844174 38.78976 0.0070559243 0.024874441
000040 14 be fd 3c e9 56 3d 3c 9d 34 a4 3c e4 be 74 3b
       0.030974425 0.0115563655 0.02004462 0.0037345225
000050 46 12 80 41 19 72 cf 41 38 0f d3 42 06 e8 54 44
       16.008923 25.930712 105.529724 851.62537
000060 c3 d9 06 3e 04 be 7d 3e 57 d4 86 3e 64 00 e3 3d
       0.13169007 0.24779516 0.26333877 0.11084059
000070 65 0a 92 3e 38 1a ab 3d
       0.28523555 0.0835461

bn.running_var f4 [30]
000000 a1 8d 3f 41 02 f3 99 41 3b 7a 0e 44 a7 83 e9 47
       11.972077 19.243656 569.90985 119559.305
000010 68 75 51 39 04 0d 2a 3b 95 80 c2 3b 64 9f b7 3a
       0.0001997553 0.00259477 0.0059357383 0.0014009294
000020 e6 f7 34 3a bd 60 49 38 f6 04 9b 3d ac cd a0 3e
       0.0006903395 4.801223e-05 0.075693056 0.31406915
000030 bc 9a 7e 40 42 36 08 45 b2 49 12 37 f0 e9 93 39
       3.9781942 2179.391 8.719437e-06 0.00028212322
000040 c2 b3 44 3a 12 5d 13 38 45 01 6c 38 e0 b6 c7 36
       0.00075035926 3.513421e-05 5.6267967e-05 5.9519516e-06
000050 51 6d af 41 77 4f 16 42 d6 81 85 44 4a 91 95 48
       21.928377 37.577602 1068.0574 306314.3
000060 48 7a 02 3a 3a 7f b6 3c f3 7d 29 3d f1 ad 83 3b
       0.0004977328 0.022277463 0.04137988 0.004018538
000070 d9 b2 4e 3b 51 53 9c 39
       0.0031539707 0.00029816714

fc.weight f4 [1, 30]
000000 3a 57 32 bf f5 b6 01 bf d5 be e6 be 94 bd 24 3e
       -0.6966435 -0.50669795 -0.45067468 0.16087943
000010 4d f4 df be 27 5e f7 bd bb b8 2f be 41 3b e7 be
       -0.43741074 -0.12078505 -0.17160313 -0.45162395
000020 bc ad 9a be d3 f2 b4 3e 30 9c 06 bf 5e 0e 2c bd
       -0.30210674 0.3534151 -0.52582073 -0.04200589
000030 c4 12 ea 3c 12 65 e5 be 97 5a cf 3d 73 d5 2d 3e
       0.028573401 -0.44803673 0.101247005 0.16975956
000040 30 67 44 3e 61 ef 04 be 6d 0e 96 3e 04 63 ac be
       0.19179988 -0.12981941 0.2930788 -0.33669293
000050 e2 97 e3 3b 9c a0 35 bc 83 b9 22 be 18 79 2f bd
       0.006945596 -0.011085656 -0.1589108 -0.042840093
000060 1e d5 ea 3d 0b 5a 14 bf 8b 23 1f bd 4c d0 ce bd
       0.1146643 -0.57949895 -0.038852256 -0.10098323
000070 42 57 05 bf 7a 73 53 3e
       -0.5208627 0.2064952
