余贵飞/week3/model_complete.pt (torch, 410312 bytes, 4 tensors)

weight f4 [128, 784]
00000000: 65b9 4bbc 6c5a eebc df4c f93c 5939 48bd
00000010: a7a9 983c dbe1 9cbc a693 c7b9 9fcd d63b
00000020: 850f 0dbe 3953 12bd b4ee 8fbd 4111 efbd
00000030: f21a f6bd e9eb 68bc 437b 6cbd a32e f3bd
00000040: 10c5 f5bd fca0 c2bc bee0 1cbd 1da7 313d
00000050: abe3 4fbc 69b4 c7bc 3eda 0ebd 12e5 8cbc
00000060: 5f37 acbc de23 c43c a196 f6bb 1a52 acbc
00000070: e048 fc3c 1b83 0bbc 8732 5f3d 03e9 103c
00000080: a4b8 873d 175f 173d 427b b63d 8233 83bc
00000090: c416 33bd 4feb 853c 0172 bcbd ca3d a63d
000000a0: 6a3f c43d cb80 263e ebef bc3d 868b bbbc
000000b0: ba4a bebd a6b4 22be 2dff 80bd fec0 3a3a
000000c0: 0440 57bc 4b2f 7c3d 29b5 963c c6ec 313d
000000d0: 0e87 4a3d 1210 853c c7c1 82bb 4083 ee3c
000000e0: 8015 773c a1c8 80bc de68 2f3d 6f77 6a3c
000000f0: 8e2e d33b 760c 013d 6c2c be3d 6e9f 363c
00000100: 1e9e c43c 77b6 913b 985b 6bbc cfb5 44bd
00000110: f93a ad3d a68b 373e c80e 173e 22a5 763d
00000120: 972b f03b fe97 f1bd e641 afbd b536 033d
00000130: 9897 b53c c671 4c3d 31e8 693d 6053 ebbc
00000140: a9d4 0e3d 4c79 c13c 5b9f 813c ea13 8e3c
00000150: 4f1f 663c f739 143d 8e00 183d 0b6b efbc
00000160: cc15 23bd 7f30 cd3d 3f5b 713d e409 06bc
00000170: e8a0 153c fea5 9cbc df73 8b3c 49b8 3e3b
00000180: d073 633d 6b88 3d3e e3a3 003d e948 aabd
00000190: 277e a6bd 200a c6bd 94ba 9abd 9d36 563d
000001a0: 51a5 803d 55ed b33d 9275 b23d 9343 adbc
000001b0: ab7d 89bb f6bc cebc e1d0 19bc 3529 d03c
000001c0: a7a0 49bc e096 bd3c 3b4d 1d3d 8ac3 5abc
000001d0: eeee 363d 72e3 723d 8770 0c3d c561 debd
000001e0: b9c0 f5bd 48e6 a2bd f084 22bc 1eba cf3d
000001f0: 2e6d bf3d 9e67 483e 4126 a23d 3d29 28bd
00000200: 793e 1cbe d39d 1dbc fef3 6fbc e0b8 de3c
00000210: 6e92 3d3d 3f3e 633b fd7f 48bc aa16 94bc
00000220: 9eb8 28bd 5234 1bbd 98a1 67bd 2597 a2bc
00000230: a192 123b a54a 0bbd 1151 13bd bdb1 153d
00000240: 9b8d 8b3d 88d1 b9bc 8551 6cba 17ad 99bd
00000250: bcc1 b4bc a07f 043d 87e8 1e3e 098b ff3d
00000260: 1fe4 693d 2fdf 0d3e 3445 113e 1dfb a9bd
00000270: bb7f 64be fa7a bebd 6832 3abd c60f 03bb
00000280: 1e0a 103c c894 033e adfe 6a3d 133e 3abd
00000290: 5e6d 90bd fca7 e0bd c7ef 39bd 121b 4a3b
000002a0: 1800 fe3c 96e8 473d 1462 993c 6160 2cbc
000002b0: 0469 f53c 1ff8 abbb 7ed5 81bc b8b3 8cbd
000002c0: a1c5 413d ca5a 3d3d fb7e b13b 945a e73c
000002d0: 88d0 c03d 20e0 3c3e e853 0f3d 7af0 48bc
000002e0: 85ec 0ebe c89b 14bd 2e76 06bd 397a 68bd
000002f0: dcbe 82bc 92de a33d 5002 fdbc 837f 76bd
00000300: f03c 44bd 7b6c cabd d289 71bd 36bc f0bc
00000310: b81b 89bc 6037 d9ba 3d63 093c cb54 e9bb
00000320: 2b2f c53c f6b7 083d 5e4b d23c 0ea4 a5bd
00000330: 151f 543c 8cbe 10be 598d 2ebd 2653 f73d
00000340: d93e 263d 48ca 753e 21a8 643d d7c6 bebd
00000350: 6b84 32be 95bf d7bd ef28 b13d 4838 a63d
00000360: dc2a 42bd bc97 dbbd 1b47 77bd 69c4 b7bd
00000370: 3506 643c 23ef 1ebd c927 61bd bc7a bdbc
00000380: 8e81 943a 1026 583d 59e7 833d a25f c3bc
00000390: cc6d 3f3d ff60 1d3e 19a4 f53d ea62 09bd
000003a0: fa7f 7abc 28ae 1ebd d1c3 8a3d 0228 853d
000003b0: 0b89 393d b3de 433e a8a9 1abc fd65 c4bd
000003c0: 524b 2dbe 0a46 5cbd 294e e83d 3682 353d
000003d0: 3431 a9bd da01 a2bd 03aa c9bd 8f5e aebd
000003e0: df4f 58bd 8aa4 89bd e129 8cbd 31b6 63bd
000003f0: 4a9d 9abc 55fb 993c 1852 893d 2b6f c83c
-0.012434338 -0.02909585 0.030432163 -0.048882816 0.018635584 -0.019150665 -0.00038066244 0.0065552737
-0.13775451 -0.0357239 -0.07027951 -0.11673213 -0.12016858 -0.014216402 -0.05773474 -0.118741296
-0.12000477 -0.023758404 -0.03830027 0.043372262 -0.012688558 -0.024378018 -0.0348761 -0.017199073
-0.021022497 0.023942884 -0.0075252806 -0.021035243 0.030796468 -0.008515145 0.054491546 0.008844617
0.06627014 0.03695592 0.08910228 -0.016015772 -0.043722883 0.016347555 -0.09201432 0.08117254
0.09582408 0.16260068 0.09225448 -0.022893678 -0.09291597 -0.15889224 -0.06298671 0.0007124095
-0.013137821 0.06156854 0.01839693 0.043438695 0.049445204 0.016243014 -0.003990385 0.02911532
0.01508081 -0.015720667 0.04282462 0.014310702 0.0064447587 0.031506024 0.092858166 0.011146409
0.024001177 0.0044468003 -0.014365099 -0.04802495 0.08458514 0.17924365 0.14751732 0.060216077
0.007329415 -0.11796568 -0.08557491 0.032034595 0.022167012 0.04991319 0.0571062 -0.02872628
0.034870777 0.02361741 0.015823057 0.01734348 0.0140455505 0.036188092 0.037109904 -0.029225847
-0.03981571 0.100190155 0.05892491 -0.008181069 0.009132601 -0.01912212 0.017023025 0.0029101542
0.05553037 0.1850907 0.031406295 -0.08314688 -0.081295304 -0.096699 -0.07555118 0.052298177
0.062815316 0.08785502 0.08713831 -0.021150386 -0.004195889 -0.025236588 -0.0093881795 0.025410274
-0.012306369 0.023143232 0.03840373 -0.013352284 0.044661455 0.05929894 0.034287002 -0.10858492
-0.119996496 -0.07954079 -0.00991939 0.10142921 0.09346996 0.19570777 0.079174526 -0.041054953
-0.15258206 -0.009620148 -0.014645575 0.027187765 0.046282224 0.0034674553 -0.012237546 -0.018077213
-0.04119169 -0.037891693 -0.056550592 -0.019847462 0.002236523 -0.034006733 -0.035965983 0.036546458
0.068141185 -0.02268292 -0.0009014833 -0.075037174 -0.022065036 0.032348275 0.1551839 0.12477691
0.05710232 0.13854669 0.14186555 -0.08299849 -0.2231435 -0.093008 -0.045458227 -0.0019998415
0.008791475 0.12849724 0.057371784 -0.045469355 -0.0705211 -0.109695405 -0.045394685 0.003083889
0.031005904 0.048805796 0.018723525 -0.010521025 0.029957302 -0.005248084 -0.015848871 -0.06870216
0.047307614 0.04622916 0.0054167486 0.028241433 0.09414774 0.18444872 0.03499213 -0.012264365
-0.13957413 -0.036281377 -0.03282755 -0.056757186 -0.01596015 0.08001436 -0.030884892 -0.0601802
-0.047909677 -0.09883972 -0.058969326 -0.029386621 -0.01673685 -0.0016572289 0.008385477 -0.007120704
0.024070343 0.033378564 0.025670704 -0.080879316 0.012946864 -0.14135188 -0.04261527 0.12076406
0.04058728 0.24002945 0.055824403 -0.093152694 -0.17433326 -0.10534588 0.086503856 0.081162035
-0.047404155 -0.107223004 -0.060370546 -0.08973009 0.0139174955 -0.038802277 -0.054969583 -0.023129813
0.0011330114 0.052770674 0.064406104 -0.023849312 0.04673557 0.15369032 0.1199419 -0.033541597
-0.015289301 -0.038740307 0.0677563 0.065017715 0.04529671 0.19127922 -0.009439863 -0.09589765
-0.16923264 -0.053777732 0.11343033 0.044313632 -0.08261338 -0.079105094 -0.0984688 -0.08514129
-0.052810546 -0.067208365 -0.06843925 -0.055593673 -0.01887383 0.018796602 0.06705111 0.024467072

bias f4 [128]
00000000: 466a 0f3e f741 62bd 6736 593e adb3 a1bb
00000010: 2709 8c3d 3cc7 4fbe d64d 883e 0c8a a7bd
00000020: bb87 093e 8800 133e 5b3f fc3d f6be 6cbe
00000030: d697 293e f71f 0e3e 7fd2 0f3e c830 913d
00000040: 24cc 873e 611c 7f3d ee82 4abe d7d4 063e
00000050: c4bd afbb 51b2 bf3e dbe1 fe3e 9ffd 93bd
00000060: 383a 5dbb eb58 51bd bbb8 473e 28bd ae3e
00000070: 94ca 46bd fb72 35be 643d e73c 92f8 01be
00000080: b90f 92be c928 b43e 1a1d 4dbd 7580 373e
00000090: 070c de3e 929f b43d 170b 423e 0852 6c3d
000000a0: bd7f de3d 73f8 d2bc 8097 c73d 3285 793d
000000b0: b7a5 71bd bbbf 9d3d 17d2 9e3e ed81 2c3e
000000c0: 46e1 5a3e fca2 a03d d48d 38be e37f eebe
000000d0: e63b e03d 731d 88bc e4b2 8f3d c93e f93e
000000e0: b8ec 9abc a944 863e 8e63 e1bc 87aa 0b3b
000000f0: 2de7 93be 1aa5 933e a882 60be af4d 463e
00000100: 9e15 0a3d a731 e5b9 ec31 0c3e 8728 5e3d
00000110: 54e8 20be c07a 1cbd f9c1 db3d 38e7 503e
00000120: 1194 793d ecfb 07bd ffce 973c ad1c 4b3e
00000130: f0a5 17be f8d2 4c3e bfb2 623d de82 443e
00000140: 3a1f fabe c25a 6b3e 4fc4 003e f26f b3be
00000150: 7952 08be 4d14 063e b1da dc3d 50e7 853c
00000160: f9d2 b13d 50ea 74be 3e06 773e 4dd9 5b3e
00000170: 99f0 82bc 0aa7 7e3e 9781 743d e20e 9b3e
00000180: bc71 bb3e 06d2 0c3e aece 81be 1a03 18be
00000190: 2777 2cbb 5dbd de3e ce73 a13e 3653 0cbe
000001a0: 7868 453e c4d9 cb3d 57e2 7bbd 1031 303e
000001b0: 5b8b b43d 24af 26be 7892 b73d 1a08 0fbd
000001c0: cbb2 6a3d e2b1 87bd 97c0 543e d3f0 44be
000001d0: 6645 013f 03b3 3cbe f7b7 7abe 4e4f a03e
000001e0: 8d5e c9bd d799 493d e214 b33d 75e9 1dbd
000001f0: 8c52 b93d 6f54 1bbe dccd 613d 7555 1bbe
0.14005384 -0.05523869 0.21212159 -0.004934749 0.06837683 -0.20290846 0.26621884 -0.08180627
0.13430683 0.14355671 0.123167716 -0.23119721 0.16561827 0.13879381 0.14045142 0.070893824
0.26522934 0.062282924 -0.19776508 0.1316713 -0.005363198 0.37440732 0.4978169 -0.07226109
-0.0033756625 -0.05111019 0.19504063 0.3412869 -0.048533037 -0.17719643 0.028227516 -0.12692478
-0.2852762 0.35187367 -0.05007658 0.17920096 0.4336855 0.08819498 0.18949543 0.05769542
0.10864208 -0.025753235 0.09745693 0.06091804 -0.05899593 0.07702585 0.3101966 0.16846438
0.21374997 0.07843587 -0.18022853 -0.46581945 0.10948925 -0.016615605 0.070165426 0.48680714
-0.018911704 0.2622426 -0.027513292 0.002131136 -0.2888731 0.288369 -0.21924841 0.19365571
0.033712022 -0.00043715278 0.13690919 0.05423787 -0.15713626 -0.038203 0.10730357 0.20400703
0.060932223 -0.033199236 0.01853132 0.19835158 -0.14809394 0.20002353 0.055346247 0.19190547
-0.4885195 0.2298384 0.12574886 -0.35046345 -0.13312711 0.13093682 0.107838996 0.01634565
0.08682818 -0.23917508 0.24123475 0.21469612 -0.015983867 0.24868408 0.0596939 0.30284792
0.3661021 0.13751993 -0.25352997 -0.14844933 -0.0026316138 0.43503848 0.31533664 -0.13703617
0.19278133 0.09953645 -0.06149515 0.17206216 0.088156424 -0.16277748 0.089634836 -0.034919836
0.057299417 -0.06625725 0.20776592 -0.19232492 0.5049652 -0.18427663 -0.2448424 0.31310505
-0.09832487 0.04921898 0.087442175 -0.03855272 0.09048948 -0.15168928 0.055127963 -0.15169318

weight f4 [10, 128]
00000000: 82e9 833e 6659 1cbe 1a75 24bf 6321 95bd
00000010: d419 8e3e b902 983e 9068 abbe c488 6e3e
00000020: e2cb d9bd d3e4 42bf dd1c 063f 8fcf 763f
00000030: 5148 28bf 7b4e 8d3e a3d8 8f3e 291f 433f
00000040: 0fa9 6a3e 17ed 3e3f ebf1 d8be 4796 563e
00000050: d321 2ebe 1645 4fbe cbb1 aebd bd4b ed3e
00000060: 5dac 743d d7f8 233e da80 c4be 805f 07bf
00000070: 733c eb3d c129 44be 187b 09be a247 87be
00000080: f0f1 963e e6cf f6be 6ff5 04bf 22e5 adbd
00000090: 7d35 04bf cf96 aabe 6ea2 003e 0b9d 083e
000000a0: ddfb d2bd 3476 7cbd fd0c 1e3e 1e9f c7be
000000b0: e8b4 06bf cd76 86bf 4661 28bf 7cca b03e
000000c0: 8c15 1ebf 96d1 1f3e 932e 0dbe 133d 1dbf
000000d0: 1894 34bc 4082 4e3e 066b 1bbf 22fd c13d
000000e0: c96a f43c 3158 413a e4c7 c93d 5b7a 093f
000000f0: 94d9 67bf 99a8 7fbf 010e 00bf 5c29 6e3e
00000100: e704 853f 9335 aabe a078 92be 430b a83e
00000110: ca61 0fbe dabd 9f3e 7e2b 403f 4d6b 12bf
00000120: 3a2a c93d 3c7a b6bc 04df 63bd ccca e3be
00000130: 2f3b 7e3d bf15 403f 2e6a ab3c 9f17 47be
00000140: bce5 693f 7dc2 c63e ec28 a53e 9086 68be
00000150: f44d 49bd b8a9 9f3c 7d91 8e3d 5ced 823f
00000160: a1b0 92bf ab87 013c f339 b13d d783 98bd
00000170: 88d2 6e3f cec0 c5be 2092 9d3b 130f d43e
00000180: c759 23bd 7f2e d1be 4d4b 29bf 2405 6b3d
00000190: 1df5 e1be e122 1a3f 46f7 93be 9f67 8f3e
000001a0: a799 1ebe 7e5c 92be ae33 4e3e 4977 cfbe
000001b0: a02d 053e 527a d13e 3945 653e f50a 7d3e
000001c0: 1844 623d 64ea 26bf 5bd0 4cbc 7373 5abf
000001d0: cf87 b7be a22f cb3e 8a0f a83e d8f0 f23e
000001e0: 4069 7a3e 944c 30be 142e a03e c113 15bf
000001f0: 778c e63d 1bcb 86bd 47a4 05be 5833 bbbe
00000200: 9e14 70bf aeb2 8fbe c9ed ac3e d131 c03e
00000210: abbd 4a3d 3922 7dbe 9ee4 5b3f 19ee babd
00000220: d91b b73f b850 b9be a54a 643e 2a53 083d
00000230: 517f 703e 7132 92bf a502 d5be 4a99 0c3f
00000240: cba2 5dbe 23b3 b7bd f821 bbbd 514f ab3d
00000250: a20d d3be 22a4 573f 9d4d d63e 6b0b 9cbe
00000260: fcf4 96bd 11a3 53bf f8e8 113e a8a7 a93c
00000270: c9c1 53be 5f00 8a3f b240 a1be 3646 49bf
00000280: 64b7 543f d72b ab3e 740b a9be 34aa cc3e
00000290: 6e58 4b3f 8b2e 043f 0c51 bdbe 6869 98bf
000002a0: 17ef 393f 7fc2 27bf 7759 eb3e cfee 0bbe
000002b0: 312e e23b 4559 dcbe d275 013e d186 dc3e
000002c0: 2587 e5bd 8829 8dbe e91e 4fbe 96cc 9c3c
000002d0: c1d6 2bbf 7edf 8ebd c4e4 1e3e 9ba5 653e
000002e0: f102 febc 255a 43be 812c ae3c 19a3 25be
000002f0: c183 9c3e 8618 6a3e 035c c9bd 917c 983e
00000300: 1840 223f f5a3 4ebf b7c5 893f 0a68 47bf
00000310: 3003 2f3d 339d 0e3f d6f0 65be 488e f9be
00000320: a299 8bbf 50b4 bc3d 0843 853e 5925 03be
00000330: 0936 7bbe f1fb 48bf 5578 f13e 3e7a 02bf
00000340: 923a 97bc ee8b 7e3d 1d3f f8be 7ced b4bd
00000350: a436 913f a00f 62be 84ce e5be 5c69 ecbe
00000360: a2a8 4a3d 0cfc 763f 394a b3bc 8cba 593e
00000370: a0ae 41bf 5e47 873f 8f4a 88be 918f 35bd
00000380: 2580 42be 2569 f33d 905e ae3e 57e7 76bf
00000390: 0a70 4f3e 719d 4fbe b6b0 29be 4f37 a8be
000003a0: 1c84 2d3f 7b8f 05bf 8857 c5be bd91 13bf
000003b0: 14c3 8e3e 3dd6 d3be e82b e5bd fc65 96be
000003c0: 4060 0ebf 94c2 b1be 5a29 0cbe 29a1 14be
000003d0: bb59 c83e daac b0bd 2d2c 823f bda3 b33e
000003e0: 5ed0 70be ea64 b03f 99d7 33be 3f7c 2cbf
000003f0: a99a 9d3f d476 49bf b53a 653e 1c93 06bf
0.2576409 -0.15268478 -0.6424118 -0.07281759 0.2775408 0.29689577 -0.33478212 0.2329436
-0.10634591 -0.7613041 0.5238779 0.9641046 -0.65735346 0.27598938 0.28094968 0.7621942
0.22916053 0.7458052 -0.4237207 0.20955764 -0.1700509 -0.20241198 -0.08530005 0.46346846
0.05973469 0.16012894 -0.38379556 -0.52880096 0.11486139 -0.19156553 -0.13425863 -0.2642184
0.2948146 -0.4820549 -0.51937 -0.08490969 -0.51644117 -0.33318183 0.12561962 0.13341157
-0.10301945 -0.061636165 0.15434642 -0.38988584 -0.5261979 -1.0505005 -0.6577343 0.34529483
-0.6175163 0.15607294 -0.13787298 -0.61421317 -0.011021636 0.20166874 -0.6071018 0.094721094
0.029836075 0.0007375507 0.09852579 0.53702325 -0.9056637 -0.99866635 -0.5002137 0.23257965
1.0392121 -0.33244 -0.28607655 0.32821092 -0.14002147 0.31199533 0.75066364 -0.5719498
0.09822507 -0.022275083 -0.055632606 -0.4449066 0.06206816 0.7503318 0.020924654 -0.19442604
0.9136617 0.38820258 0.32257783 -0.22707582 -0.049146608 0.019490108 0.069613434 1.0228686
-1.1460153 0.007905881 0.08653631 -0.074470215 0.93289995 -0.3862366 0.004808679 0.4141775
-0.03988054 -0.40855786 -0.66130525 0.05737795 -0.4413232 0.6020947 -0.28899592 0.28008744
-0.15488301 -0.2858619 0.20136902 -0.40520695 0.13005686 0.40913635 0.22389688 0.24711211
0.05524072 -0.652014 -0.012500848 -0.8533241 -0.358458 0.39684778 0.32824355 0.47449374
0.24454212 -0.17216712 0.31285155 -0.5823327 0.1125726 -0.06581708 -0.13050948 -0.3656261
-0.9378146 -0.2806601 0.33775166 0.37538007 0.049497288 -0.24720086 0.8589572 -0.09127445
1.4305373 -0.36194396 0.222941 0.033282436 0.23486067 -1.1421643 -0.4160358 0.549214
-0.21644132 -0.089697145 -0.091373384 0.08364738 -0.4122134 0.8423482 0.4185609 -0.3047746
-0.07370946 -0.82670695 0.14249027 0.020709828 -0.20679392 1.0781363 -0.3149467 -0.7862276
0.8309233 0.33431885 -0.3301655 0.39973605 0.7943181 0.5163352 -0.36975896 -1.1907167
0.7263045 -0.6553115 0.45966694 -0.13665317 0.006902479 -0.43036857 0.12642601 0.43071607
-0.112074174 -0.27570748 -0.20226635 0.019140523 -0.67124563 -0.069762215 0.15516955 0.22426455
-0.031007262 -0.19077356 0.021261455 -0.16175498 0.3056927 0.22860917 -0.09832003 0.29782537
0.6337905 -0.8071893 1.0763463 -0.77893126 0.04272765 0.55708617 -0.22455153 -0.48741364
-1.090626 0.092140794 0.26027703 -0.12807216 -0.24532332 -0.7850943 0.4716212 -0.50967777
-0.018460546 0.062145166 -0.48485652 -0.08834359 1.13448 -0.22076273 -0.4488412 -0.46174133
0.049477227 0.96478343 -0.021885978 0.21262568 -0.7565708 1.0568655 -0.26619384 -0.04432637
-0.18994196 0.11885289 0.3405652 -0.96446747 0.20257583 -0.20274903 -0.16571316 -0.32854697
0.6777971 -0.5217206 -0.38543344 -0.57644254 0.27883208 -0.41374388 -0.11190015 -0.29374683
-0.55615616 -0.34718764 -0.1368765 -0.14514603 0.3913096 -0.08626719 1.0169731 0.3508586
-0.23516986 1.3780797 -0.17562713 -0.67377084 1.2312824 -0.7869694 0.22385676 -0.5256822

bias f4 [10]
00000000: de08 1bbe eb7d 9d3e f3e3 0b3e 69c1 8d3e
00000010: 4adf bfbe 0ec7 15bf 6eea 863e 6cf5 c1bd
00000020: 966b 4d3e 9f50 a93e
-0.15140101 0.3076013 0.13661174 0.27686623 -0.37475044 -0.5850686 0.2635073 -0.09470639
0.20060572 0.33069322
