林锐炜/week06/WeatherRNN/models/rnn_weather.pth (torch, 811120 bytes, 10 tensors)

lstm.weight_ih_l0 f4 [512, 5]
-1.1163031 -1.0591304 0.21450618 0.14980552 -0.026255451 -1.0532254 -0.8107549 0.20838065
0.43160486 0.098531775 0.01250302 -0.07808851 0.22166474 0.188379 -0.20646724 -0.9654315
-0.5756569 0.22567138 0.20075348 0.18362129 0.26650345 0.18827689 0.16101623 0.11190918
0.9632185 -0.49129432 -0.40230995 0.3908185 0.49441552 0.15604495 0.13739601 0.32037136
0.18383643 0.13638476 0.36939967 -0.75830626 -0.65408397 0.30349943 0.39280733 0.40664473
-0.65202093 -0.6473113 0.35685986 0.30587533 -0.21225923 0.06394606 0.2974476 0.26549515
0.27904233 0.25455135 0.20318665 0.03735119 0.19048774 0.2447268 0.3391606 -0.15504244
-0.17344496 0.20142224 0.23435475 0.37447077 -0.13148314 -0.3278651 -0.016112305 -0.06080919
-0.34308594 -0.22775763 0.0051723267 0.20033902 0.09306127 -0.14150798 -0.14949937 -0.16352256
0.3706306 0.23687549 0.06725286 -0.17566758 -0.09655729 0.22430633 0.29655948 -0.0024952902
-0.9695122 -0.6574425 0.25993416 0.052469503 -0.05543122 -0.07795173 -0.07243862 0.33683032
0.30900964 0.55912215 -0.20991771 -0.17988427 0.33302304 0.4192497 0.06940205 -0.25800687
-0.24727893 0.44969752 0.44231465 0.025188673 0.20073508 0.13164954 0.16660775 0.2399654
0.14314097 0.15794283 0.14574492 0.13292663 0.1916679 0.03549915 0.42340073 0.49481407
0.23323005 0.03204929 -0.048035186 -0.110985264 -0.23811798 0.1589822 -0.083279006 -0.29284555
-0.416938 -0.037655845 0.09888698 -0.012241875 -0.20165944 -0.6724358 -0.6524478 0.22499976
0.043015327 -0.17193814 -0.5843424 -0.521924 0.46430188 0.36936015 0.24039285 -0.32362705
-0.3796685 0.3932121 0.5355238 0.22259885 -0.43772382 -0.34201196 0.17880961 0.010446151
-0.028988337 -0.3097613 -0.24028577 0.035771675 -0.053480376 0.03407578 -0.31831676 -0.38591826
0.18931827 0.004746675 -0.12072505 -0.5714848 -0.41409907 0.1685703 0.101249136 -0.16317785
0.0007871548 0.05321435 0.22525887 0.26588228 0.2588364 -0.24578114 -0.3577515 0.07747589
0.19221032 -0.22239617 0.0030283658 0.1619427 -0.035385955 -0.004554035 0.17649338 -0.6875577
-0.7817692 0.22458746 0.5050596 0.1256545 -0.38231698 -0.5083515 0.1981877 0.3061353
0.011639771 0.052699756 0.06900294 0.28084242 0.29021972 0.096736506 0.1632282 0.14616051
0.2071966 0.19679329 0.35199934 -0.35706726 -0.38769332 0.26292345 0.23679718 0.18365617
-1.9319798 -1.5510448 -0.027471686 0.5515286 0.4237082 -0.62005305 -0.14401548 0.25781846
0.071684554 0.671802 0.19148038 0.33708507 0.14572535 -0.03538418 -0.2362275 -0.15646298
-0.31254926 0.16841292 -0.0047633727 -0.059217673 -0.3614358 -0.47681284 0.12816913 0.2865616
-0.4783498 -0.1762703 -0.25256094 0.25219184 0.23138069 0.22076716 0.175336 0.20601942
0.19656311 0.14004637 -0.09806187 0.08061662 0.057213914 0.2988763 0.27344579 0.88001394
-0.34752974 -0.4343685 0.27673367 0.45958716 0.20955881 -0.5085826 -0.66895956 0.28923142
0.16949716 0.08526902 -0.22237074 0.052267335 0.16566956 0.14940752 0.29680046 -0.57619786
00000000: 05e3 8ebf 9691 87bf 82a7 5b3e 9e66 193e
00000010: ac15 d7bc 17d0 86bf a28d 4fbf bd61 553e
00000020: 50fb dc3e 07cb c93d 78d9 4c3c deec 9fbd
00000030: 15fc 623e 6de6 403e 266c 53be 8526 77bf
00000040: 405e 13bf 6616 673e 5292 4d3e 3807 3c3e
00000050: 2473 883e a8cb 403e 70e1 243e a430 e53d
00000060: 7d95 763f ee8a fbbe 92fb cdbe 5d19 c83e
00000070: 0824 fd3e 3fca 1f3e 8ab1 0c3e b707 a43e
00000080: 9e3f 3c3e 72a8 0b3e f421 bd3e 5c20 42bf
00000090: 0c72 27bf 4764 9b3e 0b1e c93e bd33 d03e
000000a0: d8ea 26bf 31b6 25bf 56b6 b63e b19b 9c3e
000000b0: 7c5a 59be 27f6 823d 0d4b 983e fbee 873e
000000c0: a3de 8e3e 8e54 823e 2910 503e 90fd 183d
000000d0: 380f 433e aa99 7a3e 75a6 ad3e 72c3 1ebe
000000e0: 8e9b 31be a241 4e3e b1fa 6f3e a2ba bf3e
000000f0: 84a3 06be efdd a7be f4fd 83bc 0f13 79bd
00000100: f6a8 afbe 4c39 69be 9f7c a93b ac25 4d3e
00000110: e896 be3d 78e7 10be 5d16 19be 7572 27be
00000120: 4bc3 bd3e 7d8f 723e debb 893d 34e2 33be
00000130: d4bf c5bd 8fb0 653e a5d6 973e 0688 23bb
00000140: f431 78bf 274e 28bf 1716 853e 43ea 563d
00000150: d90b 63bd 28a5 9fbd b35a 94bd 0675 ac3e
00000160: 8336 9e3e a122 0f3f abf4 56be 9533 38be
00000170: ff81 aa3e e6a7 d63e a922 8e3d 7a19 84be
00000180: b036 7dbe c13e e63e 1177 e23e 7a58 ce3c
00000190: 7f8d 4d3e 23cf 063e 399b 2a3e 7db9 753e
000001a0: 8c93 123e c4bb 213e 283e 153e eb1d 083e
000001b0: 9744 443e 8f67 113d fbc7 d83e 4558 fd3e
000001c0: dcd3 6e3e 1e46 033d 8bc0 44bd 3e4c e3bd
000001d0: 33d5 73be 3bcc 223e 2f8e aabd daef 95be
000001e0: e678 d5be 043d 1abd 4285 ca3d 2592 48bc
000001f0: d07f 4ebe c124 2cbf d206 27bf 5666 663e
00000200: d730 303d 8d10 30be 7797 15bf d09c 05bf
00000210: fab8 ed3e c61c bd3e 8b29 763e 72b2 a5be
00000220: e963 c2be 1953 c93e 1618 093f f4f0 633e
00000230: 561d e0be 311c afbe de19 373e 5526 2b3c
00000240: f378 edbc 0899 9ebe 790d 76be 5285 123d
00000250: 3d0e 5bbd 0c93 0b3d 6afa a2be 1497 c5be
00000260: a6dc 413e ff89 9b3b b23e f7bd d44c 12bf
00000270: cb04 d4be b19d 2c3e b55b cf3d 1818 27be
00000280: 1059 4e3a 4af7 593d 43aa 663e b921 883e
00000290: 3486 843e 0dae 7bbe 342b b7be aeab 9e3d
000002a0: c8d2 443e d2bb 63be 8c77 463b 4fd4 253e
000002b0: ddf0 10bd 043a 95bb aeba 343e c803 30bf
000002c0: 0722 48bf 41fa 653e 964b 013f 93ab 003e
000002d0: 0dbf c3be 5323 02bf b7f1 4a3e c4bd 9c3e
000002e0: bdb4 3e3c b3db 573d 6a51 8d3d 94ca 8f3e
000002f0: ae97 943e ca1d c63d 4b25 273e 1aab 153e
00000300: 582b 543e 2e84 493e 4239 b43e 85d1 b6be
00000310: bd7f c6be e79d 863e f67a 723e 5d10 3c3e
00000320: 1d4b f7bf a388 c6bf 4d0c e1bc fa30 0d3f
00000330: 48f0 d83e ccbb 1ebf cb78 13be c800 843e
00000340: 5acf 923d 37fb 2b3f 6f13 443e 6a96 ac3e
00000350: 0739 153e 00ef 10bd 9fe5 71be d537 20be
00000360: 7506 a0be 7074 2c3e 1116 9cbb 3b8e 72bd
00000370: 1d0e b9be d020 f4be c53e 033e 34b8 923e
00000380: 44ea f4be 3480 34be ab4f 81be 4a1f 813e
00000390: 0fef 6c3e c910 623e 488b 333e c1f6 523e
000003a0: d747 493e 5168 0f3e a9d4 c8bd 541a a53d
000003b0: 2359 6a3d 5006 993e 1601 8c3e 9848 613f
000003c0: 6bef b1be 8c65 debe 09b0 8d3e 024f eb3e
000003d0: 9696 563e 7832 02bf ef40 2bbf 2416 943e
000003e0: aa90 2d3e 86a1 ae3d 28b5 63be 4616 563d
000003f0: 48a5 293e 49fe 183e 3bf6 973e b481 13bf

lstm.weight_hh_l0 f4 [512, 128]
-0.21112034 -0.13011271 0.021577116 -0.1029588 -0.029322539 0.022408798 -0.023587488 -0.026335428
0.04289028 0.13421237 -0.12554638 0.08545064 -0.09827558 0.0032778736 0.042434372 0.12466307
0.10437202 -0.12191764 0.0680438 0.1211938 0.049287464 -0.082721815 -0.04695712 0.0062358775
0.032343682 0.05500203 -0.057939384 -0.07324647 0.09537685 0.16012791 -0.11014757 -0.037102327
-0.054497074 0.15833238 0.0441534 0.17216837 -0.20970616 -0.16377324 -0.030185021 0.0028983639
-0.16040921 -0.1527441 -0.031078845 -0.15886147 -0.13452432 0.25362644 0.16651754 0.09813555
-0.13002937 0.13549536 -0.082021706 -0.0020413366 0.11688112 0.124498494 -0.0014755011 -0.102156125
0.05913719 -0.08576537 0.09061746 -0.102719955 -0.009394615 0.031964917 0.12910204 0.15473612
-0.0029280842 -0.0062936824 0.16511123 -0.09346834 0.09280641 -0.040241357 0.08133857 0.09014505
-0.021750797 0.06093257 0.09030468 -0.037426665 -0.26385924 -0.30620712 0.14310253 0.14157277
0.1480655 0.09584925 0.08880434 0.088471286 0.08099074 -0.1106289 0.00035352478 -0.030872328
-0.018125985 0.029414592 -0.027598824 0.10647519 0.046039555 0.07828867 0.05029963 0.00901488
0.15986168 0.11612664 0.18135571 0.05488144 0.09861553 -0.077037774 0.02763529 0.30040133
0.082506604 0.07825447 0.011031331 -0.1241712 0.06624501 0.079123706 0.115017585 -0.15472236
-0.14928234 -0.009441605 0.09364983 -0.100791246 0.16969848 0.26307312 0.059380703 -0.1966315
-0.015299959 0.118544914 0.13462974 0.10605423 0.14045686 0.04875285 0.03150929 -0.09465036
0.057543 -0.06689149 -0.07069759 -0.0587209 0.07827146 -0.040193196 -0.1903057 -0.11388447
-0.045405235 -0.24307878 -0.30498573 -0.20305274 -0.08799953 0.1503579 -0.086684726 -0.00087153044
-0.09851346 -0.2017673 0.1469641 0.04706943 -0.23452447 0.17132372 0.3680697 0.04697225
-0.17679195 -0.028225806 0.14728993 0.027989212 0.09073397 0.2462407 -0.06830835 0.13557716
0.06360452 -0.057058312 0.25984913 -0.016038202 0.057820395 -0.106425546 0.104203925 -0.10693535
-0.098547444 0.113702245 -0.053924687 0.11499385 0.065291144 -0.060559314 -0.101633534 -0.08561817
0.047679793 -0.05709924 -0.10394666 -0.029082743 0.004917544 -0.0040997276 -0.33891413 -0.1290727
0.052029625 -0.2001808 0.16723116 -0.08665811 0.36602375 -0.10882378 -0.057350628 -0.20496365
0.09015738 0.18183935 -0.09028881 0.12895484 0.103185594 -0.31398466 0.16937608 0.015405098
0.05560835 0.020784067 -0.078417554 -0.14922288 0.17878632 -0.03839475 -0.007549013 0.2232957
0.25217423 -0.07310408 0.113790974 0.08439926 -0.062114295 -0.00817613 0.1424764 0.15134661
0.05198798 0.0713603 0.10026865 -0.07200012 0.09506278 0.101487495 0.00051811786 0.033940364
0.039956808 -0.056931425 0.0833153 -0.15324256 -0.2994513 0.0032985678 -0.06036116 -0.1326826
0.053383697 0.09308568 -0.045318108 -0.10714977 0.16297655 0.05572671 0.0078502465 -0.08211751
0.05819559 0.028996319 0.044485826 -0.10902381 0.05660924 0.0098568 -0.030220127 0.18989368
0.26538077 0.19072649 0.25620958 0.07804915 0.02030312 0.21347898 -0.19004399 -0.054932665
00000000: ee2f 58be 443c 05be 7ec2 b03c 10dc d2bd
00000010: d235 f0bc a892 b73c 8c3a c1bc 65bd d7bc
00000020: b8ad 2f3d f86e 093e 3b8f 00be bf00 af3d
00000030: b544 c9bd 98d1 563b aacf 2d3d 5a4f ff3d
00000040: ffc0 d53d f5af f9bd 8c5a 8b3d 7434 f83d
00000050: a7e1 493d 0e6a a9bd 1c56 40bd 5556 cc3b
00000060: cf7a 043d cf49 613d d951 6dbd 3f02 96bd
00000070: f054 c33d 92f8 233e 0d95 e1bd 9cf8 17bd
00000080: 5338 5fbd e221 223e 32da 343d e84c 303e
00000090: 36bd 56be 2cb4 27be 9446 f7bc 7af2 3d3b
000000a0: 5042 24be f368 1cbe 1099 febc 95ac 22be
000000b0: bec0 09be 53db 813e 9383 2a3e 4bfb c83d
000000c0: 6b26 05be 4cbf 0a3e fffa a7bd f2c7 05bb
000000d0: 5e5f ef3d 11f9 fe3d 9a65 c1ba 3b37 d1bd
000000e0: d739 723d c1a5 afbd a695 b93d d75e d2bd
000000f0: dfeb 19bc a5ed 023d 5333 043e 2573 1e3e
00000100: 1ae5 3fbb 3c3b cebb eb12 293e 546c bfbd
00000110: 4911 be3d 1fd4 24bd d694 a63d f89d b83d
00000120: ba2e b2bc 6e94 793d a9f1 b83d b44c 19bd
00000130: 8f18 87be 2ec7 9cbe 7889 123e 74f8 103e
00000140: 7c9e 173e 9d4c c43d 0ddf b53d 6f30 b53d
00000150: 79de a53d 6891 e2bd 4b59 b939 f7e7 fcbc
00000160: f27c 94bc dff6 f03c ee16 e2bc aa0f da3d
00000170: f993 3c3d cf55 a03d fc06 4e3d 26b3 133c
00000180: c8b2 233e ced3 ed3d 50b5 393e 5ccb 603d
00000190: f0f6 c93d fbc5 9dbd 6763 e23c 34ce 993e
000001a0: 39f9 a83d e143 a03d c1bc 343c 784d febd
000001b0: 77ab 873d 9c0b a23d 578e eb3d 8a6f 1ebe
000001c0: 78dd 18be f6b0 1abc 7bcb bf3d a46b cebd
000001d0: 70c5 2d3e 85b1 863e 2e39 733d c559 49be
000001e0: aeac 7abc adc7 f23d 61dc 093e f632 d93d
000001f0: ecd3 0f3e 12b1 473d e30f 013d 0cd8 c1bd
00000200: 35b2 6b3d 68fe 88bd e6c9 90bd 5485 70bd
00000210: ca4c a03d 9fa1 24bd 7fdf 42be 433c e9bd
00000220: d7fa 39bd a5e9 78be 1727 9cbe 0fed 4fbe
00000230: 1939 b4bd 6cf7 193e c387 b1bd 6b77 64ba
00000240: 6dc1 c9bd 169c 4ebe c27d 163e e0cb 403d
00000250: 2f27 70be 7c6f 2f3e a273 bc3e f965 403d
00000260: f308 35be ce39 e7bc 2cd3 163e a249 e53c
00000270: bbd2 b93d 8626 7c3e 40e5 8bbd bdd4 0a3e
00000280: 1643 823d fab5 69bd f20a 853e 8c62 83bc
00000290: 14d5 6c3d a3f5 d9bd de68 d53d ec00 dbbd
000002a0: 3ed3 c9bd b9dc e83d 22e0 5cbd e581 eb3d
000002b0: 5db7 853d 0b0d 78bd 3e25 d0bd 9458 afbd
000002c0: e34b 433d e5e0 69bd fde1 d4bd ef3e eebc
000002d0: 5923 a13b 0257 86bb 2786 adbe a22b 04be
000002e0: 041d 553d 32fc 4cbe a53e 2b3e cf79 b1bd
000002f0: 7767 bb3e 01df debd 7ee8 6abd fee1 51be
00000300: 6fa4 b83d 1834 3a3e 57e9 b8bd bd0c 043e
00000310: f852 d33d 99c2 a0be ec70 2d3e aa65 7c3c
00000320: 95c5 633d 5943 aa3c 6299 a0bd e2cd 18be
00000330: c313 373e d043 1dbd b65d f7bb a1a7 643e
00000340: fb1c 813e 98b7 95bd 3e0b e93d 85d9 ac3d
00000350: 8f6b 7ebd 2df5 05bc 55e5 113e 9bfa 1a3e
00000360: 59f1 543d 5925 923d a659 cd3d cd74 93bd
00000370: 46b0 c23d add8 cf3d 4dd2 073a 0d05 0b3d
00000380: c0a9 233d ed30 69bd 36a1 aa3d 9eeb 1cbe
00000390: ae51 99be c92c 583b 443d 77bd f3dd 07be
000003a0: dda8 5a3d b4a3 be3d 7b9f 39bd 5771 dbbd
000003b0: 53e3 263e b141 643d 529e 003c 3a2d a8bd
000003c0: 805e 6e3d b089 ed3c c536 363d e047 dfbd
000003d0: 17df 673d 6a7e 213c 3390 f7bc 7d73 423e
000003e0: fddf 873e ce4d 433e e72d 833e 3cd8 9f3d
000003f0: bb52 a63c 3c9a 5a3e e49a 42be 1301 61bd

lstm.bias_ih_l0 f4 [512]
-0.12115876 -0.097748265 -0.13023771 -0.28220025 -0.14345855 -0.39470696 -0.1547118 -0.19535828
-0.33155704 -0.26610595 -0.27205294 -0.126836 -0.017542819 -0.16350777 -0.33365664 -0.24990354
-0.2823795 -0.4025885 -0.33991787 -0.46982795 -0.13684174 -0.2746225 -0.09704232 -0.21090502
0.044025257 -0.13132048 -0.39584532 -0.34884015 -0.2228873 -0.08753076 -0.10589677 -0.13710113
-0.09214535 -0.012568623 -0.10286916 -0.36586156 -0.17186074 -0.32837644 -0.1994181 -0.24269296
-0.11102214 -0.21432395 0.0060287905 -0.117756024 -0.17057638 -0.112207726 -0.15663053 -0.16770267
-0.31650707 -0.26968202 -0.2233148 -0.29345295 -0.28702983 -0.3338633 -0.079746 -0.21374704
-0.26552585 -0.24767335 -0.30291876 -0.19151744 -0.08610691 -0.08695301 -0.23122075 -0.096371815
-0.2189962 -0.38240016 -0.21385345 -0.25964805 -0.40166116 -0.0147056915 -0.11681566 -0.20753582
-0.13351998 -0.32605615 -0.39009026 -0.16734803 -0.26778135 -0.21343729 -0.10544657 -0.15641321
-0.25023097 -0.47819358 -0.15119053 0.017332321 -0.16162069 -0.2694532 -0.06617268 -0.21208218
-0.24073972 -0.39317727 -0.3057978 -0.33467674 -0.20422828 -0.28442562 -0.29936025 -0.24527691
-0.33702022 -0.44217065 -0.3848204 -0.30464527 -0.19972038 -0.10786492 -0.14516243 -0.23453423
-0.48136842 -0.27299556 -0.27799162 -0.21929748 -0.004581118 -0.21549016 -0.38356605 -0.11246363
-0.20642953 -0.11951341 -0.41846544 -0.33844656 -0.15967321 -0.24450082 -0.34153086 0.0048825797
-0.061411034 -0.20748082 -0.140586 -0.3193033 -0.116975784 -0.17825307 -0.15863724 -0.22041722
-0.042518876 -0.29934308 -0.097802155 -0.0065823123 0.28254867 -0.29592994 0.08670039 -0.31122026
-0.02211672 -0.070969075 -0.08482529 -0.39303493 0.068427965 -0.0654164 -0.09286661 -0.014521629
-0.1306436 -0.22862394 -0.22578624 -0.22894537 -0.003068553 -0.026395433 0.2797079 0.13211985
0.19352037 -0.05298109 -0.2118437 -0.23775093 0.040888164 0.016141579 -0.15985459 -0.15430523
-0.25245452 -0.039061725 0.2109065 -0.24983421 -0.1781576 -0.32128236 -0.38236773 0.009059474
-0.1337174 0.15648486 0.088534795 -0.001749089 -0.22653289 -0.33094952 -0.06499689 -0.1788372
-0.3084854 -0.17613816 -0.19560431 -0.026893383 -0.0882991 -0.09342849 0.095985055 0.22074999
-0.4042459 -0.1252735 -0.20608662 -0.1393617 0.05775989 0.055489033 -0.05510027 -0.25409395
-0.109178856 -0.16149883 -0.08714918 -0.11887287 -0.24171855 0.0012706737 -0.18379074 -0.14966436
-0.1416256 -0.17549849 -0.25859955 0.386747 0.078305915 -0.030250471 -0.061052147 -0.022642262
-0.14107205 -0.29546508 0.10149943 -0.008009735 -0.25863126 -0.09600666 0.027265625 -0.03799434
-0.14375494 -0.31571227 -0.23287947 -0.2440979 0.09881068 -0.2500107 -0.23215342 -0.24231097
-0.28105867 -0.35021687 -0.27925143 -0.33702245 -0.049148086 0.30483577 -0.11454603 -0.21389338
-0.30206406 -0.25529173 -0.09694563 0.3249702 0.1338056 -0.23491366 -0.15932292 -0.43906406
-0.13414139 -0.30553216 -0.17454067 -0.26646253 0.09584428 0.016488755 -0.22508769 0.15418047
-0.03482652 -0.14412528 0.0063570426 -0.23015238 -0.12897617 -0.14046092 -0.13979839 -0.10394515
00000000: 1522 f8bd 3e30 c8bd 095d 05be 8d7c 90be
00000010: cce6 12be 0817 cabe c56c 1ebe 000c 48be
00000020: d8c1 a9be 0a3f 88be 864a 8bbe 4ce1 01be
00000030: f5b5 8fbc 956e 27be 0bd5 aabe b7e6 7fbe
00000040: 0c94 90be 1420 cebe b709 aebe 4a8d f0be
00000050: 3e20 0cbe 529b 8cbe 20be c6bd 7cf7 57be
00000060: d453 343d e078 06be 3dac cabe 2d9b b2be
00000070: 923c 64be 5443 b3bd 68e0 d8bd 3d64 0cbe
00000080: b4b6 bcbd a0ec 4dbc 11ad d2bd 3552 bbbe
00000090: 43fc 2fbe f520 a8be 4234 4cbe 8184 78be
000000a0: 935f e3bd bd77 5bbe 298d c53b 122a f1bd
000000b0: 93ab 2ebe 2acd e5bd c163 20be 40ba 2bbe
000000c0: 370d a2be c313 8abe a3ac 64be 773f 96be
000000d0: 93f5 92be 21f0 aabe df51 a3bd 81e0 5abe
000000e0: 01f3 87be 159e 7dbe 2b18 9bbe 261d 44be
000000f0: d258 b0bd 6b14 b2bd 22c5 6cbe 965e c5bd
00000100: 8a40 60be f4c9 c3be 66fc 5abe 97f0 84be
00000110: 88a6 cdbe 24f0 70bc 0c3d efbd 4584 54be
00000120: 76b9 08be d5f0 a6be e9b9 c7be 485d 2bbe
00000130: a31a 89be 4e8f 5abe 5ff4 d7bd c92a 20be
00000140: 461e 80be cad5 f4be b1d1 1abe 83fc 8d3c
00000150: e57f 25be c5f5 89be 8b85 87bd 122c 59be
00000160: 7984 76be 884e c9be 8791 9cbe c05a abbe
00000170: 3821 51be 3ca0 91be bf45 99be df29 7bbe
00000180: ea8d acbe 3164 e2be 2e07 c5be 77fa 9bbe
00000190: 8083 4cbe 48e8 dcbd 76a5 14be be29 70be
000001a0: ec75 f6be 13c6 8bbe eb54 8ebe 858f 60be
000001b0: 341d 96bb 74a9 5cbe c562 c4be 5553 e6bd
000001c0: 4362 53be 72c3 f4bd 1a41 d6be de48 adbe
000001d0: 6081 23be 6c5e 7abe 22dd aebe 0cfe 9f3b
000001e0: 238a 7bbd da75 54be c7f5 0fbe b97b a3be
000001f0: 0091 efbd f987 36be cd71 22be 0db5 61be
00000200: 4628 2ebd 7f43 99be 7f4c c8bd 70b0 d7bb
00000210: 38aa 903e 2184 97be f98f b13d 4358 9fbe
00000220: 202e b5bc 3c58 91bd e2b8 adbd e03b c9be
00000230: f623 8c3d 09f9 85bd d930 bebd 20ec 6dbc
00000240: 70c7 05be 651c 6abe 8234 67be a870 6abe
00000250: c719 49bb 3c3b d8bc e035 8f3e 6d4a 073e
00000260: 342a 463e b302 59bd 8eed 58be fb74 73be
00000270: 597a 273d 583b 843c ecb0 23be 3102 1ebe
00000280: b841 81be 30ff 1fbd e0f7 573e 8ad4 7fbe
00000290: f26e 36be 1f7f a4be b4c5 c3be 306e 143c
000002a0: 37ed 08be 913d 203e bb51 b53d b041 e5ba
000002b0: 3df8 67be 3772 a9be 171d 85bd 1921 37be
000002c0: ccf1 9dbe 905d 34be 7f4c 48be 834f dcbc
000002d0: 29d6 b4bd 7057 bfbd d093 c43d 490c 623e
000002e0: 52f9 cebe b247 00be 5f08 53be d5b4 0ebe
000002f0: a295 6c3d 7848 633d d2b0 61bd 9a18 82be
00000300: 2a99 dfbd f35f 25be 457b b2bd 9f73 f3bd
00000310: 1185 77be bc8c a63a a433 3cbe 9d41 19be
00000320: 4d06 11be e0b5 33be 2967 84be b403 c63e
00000330: da5e a03d d6cf f7bc d111 7abd 447c b9bc
00000340: 3175 10be 3347 97be efde cf3d 433b 03bc
00000350: 516b 84be 249f c4bd 295c df3c f49f 1bbd
00000360: 7f34 13be 0aa5 a1be f577 6ebe cdf4 79be
00000370: 415d ca3d 6701 80be a0b9 6dbe 5e20 78be
00000380: ece6 8fbe a04f b3be 0bfa 8ebe 358e acbe
00000390: 814f 49bd 6f13 9c3e 1c97 eabd de06 5bbe
000003a0: 24a8 9abe 99b5 82be 6e8b c6bd 7e62 a63e
000003b0: 5604 093e 358d 70be 8c25 23be 01cd e0be
000003c0: 5c5c 09be b66e 9cbe caba 32be c76d 88be
000003d0: 024a c43d 6d13 873c 637d 66be 7ce1 1d3e
000003e0: 41a6 0ebd 9495 13be bd4e d03b 11ad 6bbe
000003f0: 5412 04be fdd4 0fbe 4f27 0fbe 32e1 d4bd

lstm.bias_hh_l0 f4 [512]
-0.12180562 -0.16799866 -0.16957562 -0.24271587 0.023133045 -0.38889706 -0.13458262 -0.2564347
-0.17880961 -0.16601261 -0.22096525 -0.16173485 -0.11629028 -0.19010417 -0.27951816 -0.32142198
-0.12570818 -0.29572743 -0.36406842 -0.5649454 -0.12967163 -0.14207454 -0.1881181 -0.124470346
-0.07535916 -0.15492004 -0.32293192 -0.47989216 -0.24133727 -0.11598089 -0.1943022 -0.26693365
-0.20662625 0.003457825 -0.015805967 -0.23019944 -0.13259324 -0.3470992 -0.2686843 -0.28487283
0.012119714 -0.31724268 -0.14931594 -0.16015665 -0.11014694 -0.23334384 -0.23734294 -0.088232405
-0.34364262 -0.16625957 -0.15121163 -0.24759156 -0.19458452 -0.19609493 -0.22327258 -0.1516967
-0.15987134 -0.36072966 -0.3155906 -0.2097109 -0.072409146 -0.2256119 -0.3500285 -0.1327227
-0.18150818 -0.41060263 -0.09627775 -0.26567602 -0.25860357 -0.08716882 -0.19437413 -0.33658436
-0.07156745 -0.42749378 -0.3762674 -0.073220365 -0.25998083 -0.28962284 -0.10825422 -0.08222393
-0.18344736 -0.458663 -0.10894746 -0.115814246 -0.090787865 -0.2273893 -0.1404281 -0.18785167
-0.35362285 -0.32065725 -0.32382506 -0.20790423 -0.1448693 -0.31148225 -0.28972664 -0.40957963
-0.39028555 -0.44873765 -0.36921662 -0.2592416 -0.252719 -0.21315257 -0.13985571 -0.25978416
-0.49731392 -0.33855382 -0.2875491 -0.28406164 -0.043564223 -0.27253976 -0.387399 -0.06718833
-0.3215334 -0.12882173 -0.36313158 -0.4099632 -0.13930213 -0.2249239 -0.3859371 -0.03964708
-0.18118253 -0.24631411 -0.16372491 -0.36044934 -0.27917463 -0.29350972 -0.16507967 -0.3331887
-0.08274111 -0.26299655 -0.097580604 -0.036030818 0.21508618 -0.24303244 0.07577194 -0.34604946
-0.071768135 0.029874401 -0.12900923 -0.3002952 -0.07747032 0.053373083 -0.14187126 -0.14065371
-0.101237595 -0.10043194 -0.16629119 -0.19066024 -0.10570238 -0.020102011 0.17379358 -0.029133417
0.25505424 -0.03731586 -0.271891 -0.33264342 0.0066744094 -0.013055374 -0.119355425 -0.09083186
-0.24608384 -0.13842599 0.07839184 -0.0859605 -0.18462914 -0.28651252 -0.3862695 -0.00788278
-0.1606841 0.21548347 0.026014058 -0.11771294 -0.2698846 -0.3840693 -0.11642339 -0.26665533
-0.23897153 -0.10588808 -0.12039636 -0.051616766 -0.14672041 -0.020079803 0.078009754 0.21344896
-0.40565157 -0.05734003 -0.18082725 -0.07679987 -0.09746321 -0.023926761 -0.09476152 -0.14313507
-0.029226912 -0.19652326 -0.0027189783 -0.120591566 -0.17129464 -0.06306062 -0.13051662 -0.09010942
-0.08884551 -0.31335697 -0.23431085 0.25736618 0.09928995 -0.013674482 -0.11524294 -0.01437336
-0.03425709 -0.3307222 0.05775666 -0.06326248 -0.17871693 0.022699803 -0.01902409 -0.11871224
-0.1434388 -0.29478806 -0.21473129 -0.11384578 0.097786225 -0.30863154 -0.25483757 -0.1783451
-0.23813905 -0.2686738 -0.3561456 -0.24558939 -0.14369906 0.25269195 0.04670297 -0.22811928
-0.26251948 -0.30168468 -0.2200083 0.35898763 0.050545394 -0.21013215 -0.18991953 -0.43287143
-0.14997253 -0.3792759 -0.32776493 -0.32761943 0.037335772 0.050098605 -0.18673198 0.078522734
-0.032351602 -0.04923439 -0.021505209 -0.25495368 -0.004675225 -0.1420222 -0.12759344 -0.090259716
00000000: 3a75 f9bd d707 2cbe 3ba5 2dbe 828a 78be
00000010: 8381 bd3c 841d c7be 07d0 09be 694b 83be
00000020: de19 37be 36ff 29be b744 62be d29d 25be
00000030: 9929 eebd abaa 42be 011d 8fbe 6c91 a4be
00000040: a5b9 00be 9669 97be 2d67 babe 43a0 10bf
00000050: a4c8 04be fd7b 11be 08a2 40be 4fea febd
00000060: e755 9abd 5ca3 1ebe 5557 a5be 6db4 f5be
00000070: 1e21 77be 6487 edbd 28f7 46be 87ab 88be
00000080: d595 53be ad9c 623b 847b 81bc 67b9 6bbe
00000090: 86c6 07be fdb6 b1be fd90 89be dada 91be
000000a0: c491 463c a26d a2be 47e6 18be 1b00 24be
000000b0: b894 e1bd b0f1 6ebe 070a 73be 31b3 b4bd
000000c0: edf1 afbe f33f 2abe 39d7 1abe a488 7dbe
000000d0: 2a41 47be 1ccd 48be 91a1 64be 6156 1bbe
000000e0: 50b5 23be 8fb1 b8be 1795 a1be 74be 56be
000000f0: 3f4b 94bd ce06 67be f036 b3be 76e8 07be
00000100: 48dd 39be 823a d2be 452d c5bd b006 88be
00000110: b067 84be 9185 b2bd 030a 47be c954 acbe
00000120: f591 92bd 77e0 dabe 1fa6 c0be 8ff4 95bd
00000130: 351c 85be 7249 94be 63b4 ddbd 0565 a8bd
00000140: a0d9 3bbe e0d5 eabe d91f dfbd 0530 edbd
00000150: fdee b9bd bed8 68be 62cc 0fbe 305c 40be
00000160: 0e0e b5be 302d a4be 66cc a5be d9e4 54be
00000170: 9e58 14be 9a7a 9fbe 0d57 94be 6cb4 d1be
00000180: 82d3 c7be f1c0 e5be f609 bdbe 51bb 84be
00000190: 6364 81be ab44 5abe 5636 0fbe 6e02 85be
000001a0: ee9f febe ed56 adbe a339 93be 8770 91be
000001b0: 6670 32bd 558a 8bbe 2959 c6be 099a 89bd
000001c0: 07a0 a4be d8e9 03be 62ec b9be b2e6 d1be
000001d0: 38a5 0ebe 7352 66be 8c99 c5be fa64 22bd
000001e0: ea87 39be c439 7cbe 81a7 27be d18c b8be
000001f0: faef 8ebe e846 96be a50a 29be b697 aabe
00000200: 2c74 a9bd 7ca7 86be 57d8 c7bd 0d95 13bd
00000210: 8d3f 5c3e 7fdd 78be 522e 9b3d 652d b1be
00000220: 2cfb 92bd 29bb f43c ff1a 04be 4bc0 99be
00000230: c2a8 9ebd bc9d 5a3d b346 11be 8707 10be
00000240: a855 cfbd 43af cdbd 3d48 2abe 703c 43be
00000250: 7d7a d8bd f9ac a4bc f2f6 313e 34a9 eebc
00000260: 7896 823e 84d8 18bd 4c35 8bbe 3d50 aabe
00000270: 01b5 da3b 35e6 55bc 9e70 f4bd 0e06 babd
00000280: 67fd 7bbe 8bbf 0dbe e78b a03d 0f0c b0bd
00000290: 6c0f 3dbe c5b1 92be 1ec5 c5be c726 01bc
000002a0: 5f8a 24be b3a7 5c3e 6f1b d53c 7b13 f1bd
000002b0: 502e 8abe bba4 c4be 636f eebd 0c87 88be
000002c0: f4b4 74be dadb d8bd 5e92 f6bd 1a6c 53bd
000002d0: e03d 16be 667e a4bc 94c3 9f3d 5d92 5a3e
000002e0: 90b1 cfbe 61dd 6abd c72a 39be 4049 9dbd
000002f0: cb9a c7bd 0e02 c4bc 5412 c2bd 0092 12be
00000300: 476d efbc 653d 49be e330 32bb b6f8 f6bd
00000310: dd67 2fbe ed25 81bd 26a6 05be 4a8b b8bd
00000320: a2f4 b5bd 5370 a0be 2fef 6fbe 80c5 833e
00000330: 8858 cb3d ef0a 60bc 7e04 ecbd 3e7e 6bbc
00000340: 2a51 0cbd 6c54 a9be 3f92 6c3d c28f 81bd
00000350: 9201 37be f0f4 b93c 69d8 9bbc 671f f3bd
00000360: 9fe1 12be 76ee 96be 85e2 5bbe fa27 e9bd
00000370: 2544 c83d f404 9ebe 127a 82be 19a0 36be
00000380: b9da 73be 9d8f 89be b758 b6be c97b 7bbe
00000390: d925 13be d760 813e 9d4b 3f3d 1a98 69be
000003a0: f468 86be 6a76 9abe db49 61be 3acd b73e
000003b0: b008 4f3d e22c 57be 447a 42be 53a1 ddbe
000003c0: 6692 19be 7330 c2be ced0 a7be bcbd a7be
000003d0: 65ed 183d 3234 4d3d ab36 3fbe 87d0 a03d
000003e0: 1d83 04bd 00aa 49bd b12b b0bc 4a89 82be
000003f0: a132 99bb 456e 11be dba7 02be 16da b8bd

lstm.weight_ih_l1 f4 [512, 128]
-0.12737171 -0.0073149106 -0.042655602 -0.08308144 0.22965401 -0.04425793 0.07444851 0.058638714
0.04871676 -0.07353125 -0.114823714 0.03334323 -0.13942157 0.00037290866 0.031954847 0.012579913
0.11684224 0.0038088246 0.022770185 0.089475855 -0.1187957 -0.10966156 -0.11088345 0.096351504
-0.14826426 -0.08249726 0.12547101 -0.105084926 -0.1978268 0.2147311 -0.040367577 -0.08098618
0.23147503 -0.048502255 0.27228007 -0.04330034 -0.10368027 -0.11493754 0.106030926 -0.117415
0.0833365 -0.08885272 0.17868784 -0.20278673 -0.06838041 0.08707716 -0.01347613 -0.06686424
0.020437088 -0.0041831816 -0.1757985 -0.14286461 0.1169933 0.074749835 -0.13931435 -0.19895251
-0.012663488 -0.19555601 0.06700369 -0.05188185 0.06432133 0.07288492 0.08230079 0.06534819
-0.2017311 0.12079952 -0.004528947 0.09503784 0.0887349 -0.071971625 0.14543632 0.15928714
-0.03231021 0.071869165 -0.13295482 0.024816925 -0.13850799 -0.092275694 0.08192907 -0.02203801
0.22575974 0.032905556 0.24344069 0.15090944 0.06356765 -0.054089554 0.14210974 -0.01471388
0.17693956 0.18701157 -0.011399785 0.0050515505 -0.049398802 -0.08137611 -0.096966244 -0.038737748
0.075560234 0.04892255 0.13897783 0.022165935 -0.086181276 -0.15338376 0.15282524 0.04792451
0.059169967 0.031496685 0.06917761 -0.23764619 0.07605783 0.17233063 0.07599384 -0.057143398
-0.1684366 0.12423626 0.16893378 -0.041693613 0.24236791 0.15576614 -0.047366988 -0.053866263
0.08434638 -0.0064106323 0.18705042 -0.019905413 0.10662596 0.14151861 -0.20710365 -0.043221023
-0.24902752 0.078556806 -0.12330035 -0.1898936 0.27900177 -0.10515778 -0.005373584 0.059418667
0.1653312 -0.1287734 -0.025412975 -0.071273044 -0.0035226345 -0.11000286 0.20120461 0.15920307
-0.00045763224 -0.0832859 -0.020777194 0.113031596 0.0074668615 -0.04963438 -0.05577207 -0.026836658
-0.13507193 -0.17899168 -0.045549355 -0.061646167 0.043607738 0.24941067 -0.09138241 -0.058623873
0.19491683 0.120313294 0.13328175 0.059722394 -0.2487696 -0.024794603 0.094812356 -0.12773158
0.07142476 -0.20889369 0.1903109 -0.19341967 0.052537665 0.08631949 0.085464716 0.007573065
-0.02423653 -0.002744153 -0.103917964 -0.20527567 0.2723894 0.012266963 -0.24828942 -0.38194472
0.016996697 -0.05479951 0.12622042 -0.180972 0.1752301 0.14868204 0.12482939 0.10093516
-0.2784317 0.1159089 0.17689094 0.06523032 0.055628218 0.042389434 0.25420943 0.2590225
0.06830207 0.049358096 -0.04479266 0.109666035 -0.14310317 -0.16218202 0.27963215 0.0551656
0.28888807 0.08915544 0.26081708 0.15520673 -0.09085939 -0.055012986 0.084342726 -0.2083469
0.17782018 0.12147519 0.027036883 -0.009311515 -0.07406405 -0.17078112 -0.023547625 0.09272423
0.08992185 -0.031188454 0.06355485 0.07269883 -0.039165914 -0.25781074 0.2152538 0.009032884
0.102187775 0.0532038 0.1666123 -0.26405334 0.31680948 0.150591 0.040745735 -0.042312715
-0.0073000416 0.11883003 0.016184878 0.016401265 0.34800288 0.14992538 -0.002835481 0.032735895
0.1164971 0.0523046 0.25229517 -0.07461146 0.21955252 0.14563552 -0.08128391 -0.058174513
00000000: bb6d 02be ebb1 efbb a4b7 2ebd 9a26 aabd
00000010: 6c2a 6b3e ce47 35bd 7678 983d 262f 703d
00000020: 3a8b 473d 8d97 96bd b228 ebbd e992 083d
00000030: 87c4 0ebe f482 c339 16e3 023d fb1b 4e3c
00000040: fc4a ef3d 799d 793b 8a88 ba3c 1e3f b73d
00000050: 294b f3bd 3d96 e0bd dd16 e3bd f053 c53d
00000060: 96d2 17be 53f4 a8bd 797b 003e c436 d7bd
00000070: 1c93 4abe 78e2 5b3e 7958 25bd 15dc a5bd
00000080: ca07 6d3e 4daa 46bd 4b68 8b3e b35b 31bd
00000090: 5256 d4bd 5f64 ebbd be26 d93d 4777 f0bd
000000a0: 54ac aa3d 6af8 b5bd f2f9 363e 53a7 4fbe
000000b0: 070b 8cbd 8355 b23d fcca 5cbc 1ef0 88bd
000000c0: ae6b a73c 1213 89bb 8604 34be 1a4b 12be
000000d0: 2f9a ef3d 7116 993d 6ca8 0ebe 35ba 4bbe
000000e0: 857a 4fbc d63f 48be 3b39 893d 1082 54bd
000000f0: e7ba 833d b044 953d 518d a83d 46d5 853d
00000100: 9992 4ebe bd65 f73d 9067 94bb 33a3 c23d
00000110: a5ba b53d dc65 93bd 42ed 143e 2b1c 233e
00000120: b657 04bd 2430 933d 4f25 08be dd4c cb3c
00000130: 0ad5 0dbe 0afb bcbd 6eca a73d 0f89 b4bc
00000140: 902d 673e fac7 063d 8448 793e 0188 1a3e
00000150: c22f 823d 028d 5dbd 3785 113e 7c12 71bc
00000160: a52f 353e f67f 3f3e 2ac6 3abc 7a87 a53b
00000170: 6656 4abd 85a8 a6bd 3d96 c6bd 79ab 1ebd
00000180: 53bf 9a3d 0363 483d 3450 0e3e 5695 b53c
00000190: cf7f b0bd a210 1dbe 387e 1c3e 7e4c 443d
000001a0: 355c 723d ab02 013d feac 8d3d 8659 73be
000001b0: 35c4 9b3d 7177 303e a9a2 9b3d 320f 6abd
000001c0: a57a 2cbe 956f fe3d fafc 2c3e ecc6 2abd
000001d0: 4b2f 783e 2981 1f3e e303 42bd dfa2 5cbd
000001e0: cbbd ac3d 4810 d2bb 258a 3f3e ad10 a3bc
000001f0: b65e da3d 41ea 103e fb12 54be 8708 31bd
00000200: 1201 7fbe 64e2 a03d e584 fcbd 7873 42be
00000210: 52d9 8e3e f65c d7bd e414 b0bb fd60 733d
00000220: 954c 293e 2ddd 03be df2e d0bc 9af7 91bd
00000230: 00dc 66bb 2e49 e1bd 9508 4e3e 2106 233e
00000240: 5cee efb9 cc91 aabd ef34 aabc 1c7d e73d
00000250: 93ac f43b 6b4d 4bbd 4171 64bd 8dd8 dbbc
00000260: 4c50 0abe 9849 37be f691 3abd b180 7cbd
00000270: 079e 323d 8365 7f3e b326 bbbd 961f 70bd
00000280: 4798 473e d166 f63d 037b 083e 789f 743d
00000290: 75bd 7ebe 0d1e cbbc fb2c c23d 11cc 02be
000002a0: 2547 923d 3ae8 55be dce0 423e ce0f 46be
000002b0: bc31 573d 46c8 b03d 2008 af3d 7927 f83b
000002c0: b08b c6bc 3fd7 33bb f1d2 d4bd c933 52be
000002d0: a076 8b3e 5ffb 483c 953f 7ebe 428e c3be
000002e0: a83c 8b3c 7375 60bd ed3f 013e b950 39be
000002f0: 856f 333e 1b40 183e 8da6 ff3d 18b7 ce3d
00000300: 9a8e 8ebe a561 ed3d e622 353e 7997 853d
00000310: 6ada 633d 8ba0 2d3d bd27 823e 999e 843e
00000320: f5e1 8b3d b72b 4a3d 8278 37bd 9698 e03d
00000330: a389 12be 0b13 26be f22b 8f3e 53f5 613d
00000340: 23e9 933e 2197 b63d d189 853e 83ee 1e3e
00000350: 7d14 babd 4c55 61bd e1bb ac3d e458 55be
00000360: 7e16 363e fcc7 f83d 747c dd3c 538f 18bc
00000370: e5ae 97bd 3fe1 2ebe f3e6 c0bc 33e6 bd3d
00000380: f228 b83d ee7e ffbc 0c29 823d 20e3 943d
00000390: 706c 20bd c5ff 83be 7e6b 5c3e a9fe 133c
000003a0: d347 d13d 3aec 593d 6a9c 2a3e 0032 87be
000003b0: da34 a23e 8734 1a3e 00e5 263d 1950 2dbd
000003c0: 3035 efbb 295d f33d 2696 843c f25b 863c
000003d0: 6f2d b23e 0a86 193e 7ad3 39bb 1316 063d
000003e0: 0896 ee3d 593d 563d d52c 813e e5cd 98bd
000003f0: 60d2 603e 7a21 153e 2e78 a6bd 6648 6ebd

lstm.weight_hh_l1 f4 [512, 128]
-0.17941412 0.0076819425 0.056627 -0.018581927 0.021970917 -0.012217476 0.04933054 -0.12843066
-0.06932917 -0.0014800238 -0.20908312 -0.06933952 0.26258382 0.20042463 -0.052648526 0.017352164
0.02465228 0.059151486 0.18430279 -0.1920508 0.29994124 -0.052889876 0.058276165 -0.05969049
-0.054021847 0.2337614 -0.44335702 -0.003833761 0.091299966 0.028827278 0.17071883 -0.26415458
0.03041464 -0.07745793 0.0073087127 0.0068420647 0.0039356756 0.14721194 -0.051474243 -0.18656133
0.023703502 0.06939643 -0.024094224 0.06438101 -0.066204086 0.064223185 -0.09906952 -0.027911354
-0.069202624 0.16818626 0.06563614 -0.018667413 -0.056109935 0.083081394 0.3909413 -0.4331625
0.13292104 0.39754692 0.016563596 -0.12746894 0.032174323 -0.037896667 0.09376656 0.041435663
-0.047949277 0.27507302 0.007902385 0.080532454 -0.04055489 0.09983726 -0.02119193 -0.08156307
0.0966209 0.11044147 0.09579769 0.077896185 0.040563967 -0.13036297 -0.3658353 0.0002485305
-0.120424025 -0.063163586 -0.03228132 0.012002683 -0.03698343 0.011255723 -0.043342642 0.089312874
0.20718332 0.09792363 -0.135491 0.16565546 -0.038911752 0.4633099 -0.043870047 0.038305968
-0.10606653 -0.25307977 -0.013515628 -0.14713208 -0.037668757 -0.078311615 -0.15498812 -0.015307322
0.027805157 -0.08372842 0.03185291 0.022993142 0.028189285 -0.06263466 -0.06630588 -0.0056607784
-0.020771192 -0.014903898 0.04541188 -0.045411162 0.2545017 0.22706787 -0.0502358 0.019379186
-0.15266109 -0.13964762 0.08600213 0.12638243 -0.13998808 0.012713743 0.01840267 0.10434274
0.023478765 0.067451075 -0.017078627 -0.091694236 -0.1257116 -0.06587132 -0.18814017 -0.028785065
0.012729214 -0.016354473 -0.1769633 -0.07862325 0.2861026 0.0629886 0.04178679 -0.06461868
-0.0032418193 0.00194794 0.124902435 -0.22999163 0.08989122 0.041968387 -0.023490492 -0.06358712
-0.044247255 0.25677702 -0.36626264 -0.0957885 0.07123158 -0.062243707 0.10668339 -0.15998955
0.06500957 0.04915406 -0.04242254 0.046363354 -0.009722367 0.07707962 -0.04225801 -0.12367646
-0.084647894 -0.091961004 -0.087861456 -0.0038577009 -0.1672884 -0.07482255 -0.19630423 0.054183967
0.0044131526 0.06297599 0.043459643 -0.010099816 -0.17873387 0.015667316 0.38446406 -0.32860142
-0.007415368 0.26630747 0.0029888088 -0.20387745 0.029847987 -0.08492048 0.0558876 0.080544956
0.01439146 0.28434217 0.049345925 -0.09934427 -0.048064046 0.10690946 -0.06281842 0.056147635
-0.05790702 0.090677254 0.04748317 0.10196905 -0.024004044 0.011939534 -0.314694 -0.057899002
-0.037522025 0.026903426 -0.003934894 -0.087162636 0.022089235 -0.05513164 -0.031446345 0.010910133
0.2348747 0.06447104 0.037817966 -0.07706973 0.06424666 0.40453467 -0.09142019 0.10379762
-0.25501922 -0.22526425 0.01094126 -0.16197526 0.12060698 0.026697408 -0.0824124 0.12000471
-0.013479679 -0.10282988 -0.07643122 -0.021684749 -0.113694206 -0.09903271 0.0030234007 0.12414014
-0.040842794 -0.011814362 0.06758355 -0.099787146 0.13720025 0.21642892 0.03111135 0.008932726
-0.0068814247 -0.1411024 -0.047103476 -0.044992555 -0.3609685 0.033430967 0.034417253 -0.09545229
00000000: 56b8 37be ceb8 fb3b b7f1 673d 2039 98bc
00000010: 5afc b33c cf2b 48bc d20e 4a3d 5483 03be
00000020: 74fc 8dbd 5cfd c1ba e319 56be e101 8ebd
00000030: 6371 863e 1d3c 4d3e fba5 57bd 2026 8e3c
00000040: 94f3 c93c d448 723d dfb9 3c3e f7a8 44be
00000050: e691 993e 0ea3 58bd fdb2 6e3d 047e 74bd
00000060: 0346 5dbd 265f 6f3e b1ff e2be d63f 7bbb
00000070: 7afb ba3d 2f27 ec3c ebd0 2e3e 453f 87be
00000080: 2028 f93c 43a2 9ebd ed7d ef3b 6633 e03b
00000090: d7f6 803b babe 163e a8d6 52bd ef09 3fbe
000000a0: d92d c23c b71f 8e3d 4061 c5bc 31da 833d
000000b0: 0296 87bd 7287 833d f6e4 cabd 5aa6 e4bc
000000c0: 1bba 8dbd 0539 2c3e 3e6c 863d 67ec 98bc
000000d0: 88d3 65bd 9426 aa3d 7529 c83e 7ac7 ddbe
000000e0: 741c 083e 458b cb3e 61b0 873c 3887 02be
000000f0: 39c9 033d 8939 1bbd af08 c03d 71b8 293d
00000100: 7666 44bd 5fd6 8c3e 0179 013c 33ee a43d
00000110: e21c 26bd 7a77 cc3d b39a adbc 8a0a a7bd
00000120: 2ee1 c53d 232f e23d 9431 c43d 0988 9f3d
00000130: 6726 263d df7d 05be c44e bbbe 334d 8239
00000140: dfa0 f6bd e95b 81bd 6b39 04bd e7a6 443c
00000150: f07b 17bd ed69 383c 0e88 31bd abe9 b63d
00000160: dd27 543e 2f8c c83d 27be 0abe 96a1 293e
00000170: ee61 1fbd f536 ed3e 14b1 33bd b8e6 1c3d
00000180: 6939 d9bd ac93 81be a770 5dbc cba9 16be
00000190: 8e4a 1abd d761 a0bd 35b5 1ebe 90cb 7abc
000001a0: a4c7 e33c ce79 abbd 3278 023d 1d5c bc3c
000001b0: 37ed e63c 9a46 80bd 61cb 87bd 0d7e b9bb
000001c0: 5928 aabc 7b2f 74bc cf01 3a3d 0e01 3abd
000001d0: 0c4e 823e 7b84 683e 0ec4 4dbd 19c1 9e3c
000001e0: 3053 1cbe c9ff 0ebe e221 b03d 656a 013e
000001f0: 0959 0fbe 4e4d 503c 32c1 963c a5b1 d53d
00000200: 8a56 c03c ca23 8a3d 7ae8 8bbc 30ca bbbd
00000210: 8bba 00be 8be7 86bd d1a7 40be a8ce ebbc
00000220: 318e 503c d1f9 85bc de35 35be 3a05 a1bd
00000230: 0a7c 923e 2b00 813d a028 2b3d cc56 84bd
00000240: b474 54bb 0552 ff3a d9cc ff3d ed82 6bbe
00000250: e318 b83d 0be7 2b3d 226f c0bc f739 82bd
00000260: 9c3c 35bd 4778 833e c786 bbbe c32c c4bd
00000270: dde1 913d 42f3 7ebd d27c da3d 4dd4 23be
00000280: bd23 853d c555 493d 42c3 2dbd 80e7 3d3d
00000290: 904a 1fbc ebdb 9d3d bc16 2dbd 154a fdbd
000002a0: e05b adbd 0d56 bcbd b5f0 b3bd 7bd1 7cbb
000002b0: a64d 2bbe 913c 99bd fa03 49be 02f0 5d3d
000002c0: 359c 903b 8ef9 803d bd02 323d b379 25bc
000002d0: 0306 37be be58 803c 79d8 c43e 723e a8be
000002e0: 9efc f2bb 7459 883e e4df 433b 40c5 50be
000002f0: c483 f43c caea adbd 65ea 643d c1f4 a43d
00000300: 29ca 6b3c 4c95 913e f41e 4a3d 0275 cbbd
00000310: cede 44bd 59f3 da3d f2a6 80bd 10fb 653d
00000320: e92f 6dbd ffb4 b93d b67d 423d 26d5 d03d
00000330: 21a4 c4bc 099e 433c 921f a1be 8127 6dbd
00000340: b2b0 19bd 9364 dc3c 49f0 80bb 5382 b2bd
00000350: 7cf4 b43c b7d1 61bd e2cd 00bd 6ac0 323c
00000360: fe82 703e 6509 843d 03e7 1a3d bcd6 9dbd
00000370: c193 833d 2b1f cf3e 823a bbbd d993 d43d
00000380: e191 82be acab 66be f842 333c d8dc 25be
00000390: cb00 f73d 86b4 da3c d5c7 a8bd 08c5 f53d
000003a0: dfd9 5cbc 7998 d2bd f987 9cbd 37a4 b1bc
000003b0: 82d8 e8bd a9d1 cabd 3f24 463b 303d fe3d
000003c0: c64a 27bd 0791 41bc 3f69 8a3d 345d ccbd
000003d0: 397e 0c3e 8b9f 5d3e 3bdd fe3c 925a 123c
000003e0: 937d e1bb 267d 10be 93ef 40bd 1d4a 38bd
000003f0: ddd0 b8be e9ee 083d 1bf9 0c3d 7d7c c3bd

lstm.bias_ih_l1 f4 [512]
-0.28174898 -0.3669965 -0.4783092 -0.47538534 -0.44061375 -0.37068072 -0.20344265 -0.33158708
-0.30735925 -0.31416965 -0.36381626 -0.1597179 -0.24272914 -0.0859646 -0.16894569 -0.37412608
-0.37664917 -0.47867465 -0.1824339 -0.07714089 -0.09648346 -0.50924313 -0.42448124 -0.3067415
-0.33683687 0.017478036 0.034919754 -0.30591267 -0.45580596 -0.3142101 -0.36055422 -0.17873171
-0.43853652 -0.18299629 -0.28170648 -0.3430897 -0.40516594 -0.19447152 -0.35733914 -0.17596436
-0.42153442 -0.38676578 -0.25211158 -0.3365598 -0.3792969 -0.35418057 -0.26380718 -0.367135
-0.35820737 -0.23423326 -0.31710863 -0.40098467 -0.11885808 -0.34441626 0.12402955 0.16206597
-0.40087482 0.010152118 -0.49370787 -0.22705825 -0.38156724 -0.3005015 -0.3204576 -0.38210928
-0.30606878 0.051929496 -0.43772924 -0.26508552 -0.27452934 -0.29989 -0.2655206 -0.15990026
-0.4197806 -0.5073484 -0.4429562 -0.3673318 -0.39550167 -0.1410946 0.11316786 -0.46071622
-0.23336191 -0.47448123 -0.41670915 -0.42920253 -0.3431162 -0.26733062 -0.33681 -0.44309458
-0.08057608 -0.32729977 -0.44003657 -0.30076972 -0.3476954 0.15244935 -0.33437225 -0.31061924
-0.3269751 -0.0021869252 -0.45476115 -0.34331524 -0.24825692 -0.293115 -0.4123524 -0.3748197
-0.4456372 -0.31505585 -0.3342279 -0.38049576 -0.33787942 -0.32436264 -0.2910074 -0.4803452
-0.36397943 -0.392304 -0.41128528 -0.29740894 -0.1066506 -0.2873046 -0.2688369 -0.39408165
-0.22040716 -0.42327732 -0.41345513 -0.4124628 -0.14317651 -0.3165043 -0.37941426 -0.2948283
-0.41283762 -0.24148035 -0.16692975 -0.20286886 -0.17415306 -0.45011756 -0.22704409 -0.2984049
-0.284803 -0.30255 -0.31227103 -0.30294755 -0.1739763 -0.089345485 -0.37807584 -0.40152138
-0.24872117 -0.23082294 -0.08046913 -0.07050836 -0.106017806 -0.46267477 -0.23190476 -0.18554795
-0.26238182 -0.040224403 0.22463061 -0.31760642 -0.27472025 -0.36825842 -0.25590464 -0.11540298
-0.44698888 -0.28017744 -0.24588165 -0.3511 -0.1298631 -0.16055292 -0.18889786 -0.21916942
-0.34512603 -0.32955253 -0.25386915 -0.28313747 -0.13152096 -0.36867547 -0.16547899 -0.17674866
-0.17157394 -0.25378662 -0.30179366 -0.29246533 -0.11936727 -0.33796847 0.11282897 0.242857
-0.13954608 -0.042015556 -0.22728072 -0.15975353 -0.33468062 -0.21450363 -0.34980804 -0.22783248
-0.20873688 0.06428255 -0.24197106 -0.3901345 -0.23355816 -0.17884697 -0.15559915 -0.37332335
-0.1743419 -0.1349193 -0.27144074 -0.23374605 -0.24507093 -0.26740214 0.012669143 -0.27072808
-0.111808956 -0.17837904 -0.2370473 -0.29625377 -0.29719478 -0.40756556 -0.31815597 -0.26525807
0.12295415 -0.16657351 -0.1069562 -0.28999892 -0.38879395 0.14968175 -0.18002433 -0.30224878
-0.14389662 -0.12268545 -0.28439182 -0.27269435 -0.36162853 -0.29509166 -0.27661994 -0.31001928
-0.14741261 -0.23369953 -0.2622489 -0.32574868 -0.3393315 -0.19977985 -0.16163942 -0.3476308
-0.3701028 -0.40539312 -0.3106549 -0.16539207 -0.02255446 -0.09701188 -0.18836077 -0.24487032
-0.16019042 -0.18446563 -0.22632185 -0.28816283 0.1464793 -0.13392001 -0.2469768 -0.24830659
00000000: 6741 90be f7e6 bbbe f2e4 f4be b565 f3be
00000010: 2098 e1be ddc9 bdbe 4553 50be c8c5 a9be
00000020: 315e 9dbe d8da a0be 2046 babe 178d 23be
00000030: fd8d 78be 350e b0bd 1900 2dbe 748d bfbe
00000040: 29d8 c0be d814 f5be f4cf 3abe 0bfc 9dbd
00000050: 1f99 c5bd c25d 02bf 9b55 d9be 390d 9dbe
00000060: e275 acbe 192e 8f3c 0408 0f3d 96a0 9cbe
00000070: 665f e9be 25e0 a0be 909a b8be 7205 37be
00000080: dc87 e0be 6163 3bbe d53b 90be 74a9 afbe
00000090: e971 cfbe 8b23 47be 28f5 b6be 0030 34be
000000a0: 5cd3 d7be 2a06 c6be c514 81be 9151 acbe
000000b0: 3433 c2be 2857 b5be bc11 87be 1ef9 bbbe
000000c0: f566 b7be d8da 6fbe 105c a2be dd4d cdbe
000000d0: dd6b f3bd 5457 b0be 3403 fe3d 9ff4 253e
000000e0: 773f cdbe 1255 263c 47c7 fcbe f581 68be
000000f0: c85c c3be 55db 99be 0513 a4be d4a3 c3be
00000100: 0cb5 9cbe 06b4 543d 0c1e e0be 4ab9 87be
00000110: 1c8f 8cbe 2f8b 99be 51f2 87be e5bc 23be
00000120: 7ced d6be 96e1 01bf 28cb e2be ea12 bcbe
00000130: 327f cabe 1a7b 10be 8dc4 e73d ffe2 ebbe
00000140: 6df6 6ebe 34ef f2be e75a d5be 6fc0 dbbe
00000150: edac afbe 8fdf 88be 5c72 acbe 4bdd e2be
00000160: 1205 a5bd d693 a7be 794c e1be 7dfe 99be
00000170: 2205 b2be af1b 1c3e d732 abbe 7c09 9fbe
00000180: 4869 a7be 8452 0fbb 74d6 e8be 04c7 afbe
00000190: 1037 7ebe 2b13 96be db1f d3be 5ee8 bfbe
000001a0: 8f2a e4be 004f a1be eb1f abbe 57d0 c2be
000001b0: 88fe acbe dc12 a6be ecfe 94be ceef f5be
000001c0: 835b babe 12dc c8be fc93 d2be fc45 98be
000001d0: a16b dabd 9719 93be fda4 89be 12c5 c9be
000001e0: 6ab2 61be ceb7 d8be 64b0 d3be 532e d3be
000001f0: dd9c 12be da0c a2be 9642 c2be bcf3 96be
00000200: 745f d3be a046 77be a2ef 2abe dbbc 4fbe
00000210: 2e55 32be cf75 e6be 3f7e 68be 87c8 98be
00000220: b3d1 91be d5e7 9abe fde1 9fbe f11b 9bbe
00000230: d826 32be c4fa b6bd 2893 c1be 3694 cdbe
00000240: c3b0 7ebe d95c 6cbe 00cd a4bd b066 90bd
00000250: dd1f d9bd b5e3 ecbe 7178 6dbe 4800 3ebe
00000260: e956 86be 58c2 24bd 9105 663e 4f9d a2be
00000270: 22a8 8cbe 5e8c bcbe ef05 83be 6658 ecbd
00000280: badb e4be 6b73 8fbe 66c8 7bbe 61c3 b3be
00000290: d5fa 04be fc67 24be 716e 41be f36d 60be
000002a0: 5cb4 b0be 1cbb a8be 23fb 81be 65f7 90be
000002b0: 6ead 06be 08c3 bcbe 5373 29be 9afd 34be
000002c0: 14b1 2fbe 52f0 81be b384 9abe 04be 95be
000002d0: d476 f4bd 340a adbe e012 e73d 81af 783e
000002e0: 2be5 0ebe 8118 2cbd 47bc 68be 6e96 23be
000002f0: 425b abbe d7a6 5bbe 0a1a b3be eb4c 69be
00000300: 1fbf 55be 92a6 833d 43c7 77be b6bf c7be
00000310: df29 6fbe a923 37be 6255 1fbe 3d24 bfbe
00000320: af86 32be 4928 0abe 48fa 8abe 205b 6fbe
00000330: e0f3 7abe efe8 88be 3d92 4f3c df9c 8abe
00000340: 18fc e4bd ffa8 36be 87bc 72be 93ae 97be
00000350: ea29 98be 6fac d0be 57e5 a2be e8cf 87be
00000360: 63cf fb3d 3f92 2abe da0b dbbd bd7a 94be
00000370: 0010 c7be 2c46 193e 4c58 38be 5ac0 9abe
00000380: a359 13be 8242 fbbd ce9b 91be 989e 8bbe
00000390: 6027 b9be 4116 97be 21a1 8dbe d9ba 9ebe
000003a0: 55f3 16be ee4e 6fbe 7d45 86be 88c8 a6be
000003b0: dcbc adbe 1793 4cbe ce84 25be aafc b1be
000003c0: 1d7e bdbe b08f cfbe 290e 9fbe 8a5c 29be
000003d0: 22c4 b8bc 2aae c6bd a5e1 40be 49bf 7abe
000003e0: f508 24be 8fe4 3cbe eac0 67be 148a 93be
000003f0: abfe 153e 5422 09be 7ce7 7cbe 1544 7ebe

lstm.bias_hh_l1 f4 [512]
-0.3016322 -0.2979585 -0.38348427 -0.37004665 -0.42115998 -0.28096545 -0.2631518 -0.38591182
-0.22438923 -0.3049397 -0.35239148 -0.17034687 -0.16923848 0.0062376363 -0.24757764 -0.34621733
-0.29981828 -0.51633084 -0.29210877 -0.013967855 -0.08117827 -0.44276875 -0.36246738 -0.355247
-0.41655532 0.020650057 0.1656209 -0.46089754 -0.3744631 -0.38691095 -0.3818071 -0.13658766
-0.30113792 -0.14056253 -0.30170342 -0.26938793 -0.33546755 -0.17868187 -0.4539463 -0.28440592
-0.4671653 -0.31481773 -0.31482747 -0.3749545 -0.3899672 -0.42451394 -0.37779444 -0.37717676
-0.25898626 -0.27073988 -0.37976044 -0.31844297 -0.1101368 -0.37910876 0.08604876 0.10580783
-0.3960971 0.12043909 -0.4827964 -0.261634 -0.52609205 -0.35357222 -0.27649137 -0.40517908
-0.25191706 0.046060074 -0.45230752 -0.3335055 -0.28170186 -0.22744946 -0.29812112 -0.26052195
-0.49203122 -0.368153 -0.3697446 -0.37965363 -0.30817175 -0.25982988 0.083083056 -0.44344214
-0.2085319 -0.4389251 -0.46560964 -0.35802978 -0.3640615 -0.29114076 -0.37586725 -0.42418405
-0.023140086 -0.3422922 -0.33852196 -0.36113992 -0.4374888 0.23056455 -0.3451954 -0.36410254
-0.23756106 -0.029976282 -0.36202902 -0.38277322 -0.34122548 -0.28202358 -0.46231702 -0.49027184
-0.4078444 -0.3355196 -0.37829795 -0.34307674 -0.4571262 -0.4248137 -0.16551153 -0.43570405
-0.41021547 -0.39872098 -0.29403612 -0.30301416 -0.13965069 -0.22064728 -0.31154504 -0.27811897
-0.39428645 -0.31547248 -0.25676125 -0.5519319 0.014029423 -0.26122332 -0.46549976 -0.4043525
-0.38977838 -0.22813739 -0.27939817 -0.31220052 -0.21149594 -0.29418817 -0.23607047 -0.28190765
-0.25143114 -0.17409755 -0.22560649 -0.36874282 -0.17408429 -0.007948602 -0.315166 -0.37405276
-0.22206788 -0.21452034 -0.13726975 -0.10925226 0.046413053 -0.44766286 -0.21196233 -0.2350598
-0.18422881 0.08948781 0.18876849 -0.36892608 -0.3483358 -0.39971668 -0.23197508 -0.14900745
-0.38733453 -0.17238502 -0.28223965 -0.36391518 -0.100460395 -0.21547326 -0.22283535 -0.14003778
-0.2483916 -0.32983074 -0.2753927 -0.32887608 -0.16943973 -0.21915486 -0.13021342 -0.27554104
-0.32682306 -0.23363346 -0.23094726 -0.18258251 -0.19779113 -0.21921945 0.0795299 0.16232443
-0.17539452 -0.01706042 -0.24078421 -0.066380836 -0.23275536 -0.21640347 -0.36823958 -0.3366858
-0.26866692 -0.024984948 -0.36542207 -0.33889493 -0.11783386 -0.15429665 -0.3001608 -0.51379454
-0.16677068 -0.24749006 -0.22181514 -0.14012536 -0.26352236 -0.20129535 0.10816281 -0.22114067
-0.08336955 -0.21459416 -0.26217505 -0.18277793 -0.26529476 -0.38966236 -0.19240466 -0.17070335
0.11468086 -0.26754174 -0.1989911 -0.33152255 -0.24938615 0.13033773 -0.26566398 -0.30052856
-0.22004125 -0.052423954 -0.2992878 -0.2875306 -0.22104526 -0.4301876 -0.30937257 -0.27670917
-0.24279217 -0.2248261 -0.24025598 -0.40584272 -0.34806895 -0.23043387 -0.08280102 -0.23336929
-0.3045917 -0.29584828 -0.23998755 -0.13477424 0.027261443 -0.11625533 -0.24063854 -0.23513623
-0.30182898 -0.24766892 -0.13935368 -0.21415602 0.13644405 -0.20551464 -0.17924413 -0.19467092
00000000: 896f 9abe 048e 98be 0d58 c4be c176 bdbe
00000010: 48a2 d7be b4da 8fbe d5bb 86be 3c96 c5be
00000020: 4ac6 65be 0e21 9cbe a86c b4be 696f 2ebe
00000030: da4c 2dbe 1665 cc3b fe84 7dbe 6643 b1be
00000040: c881 99be 422e 04bf 488f 95be 6ed9 64bc
00000050: cb40 a6bd 96b2 e2be 5395 b9be efe2 b5be
00000060: bd46 d5be 4f2a a93c 8698 293e c3fa ebbe
00000070: a1b9 bfbe 3119 c6be 387c c3be a3dd 0bbe
00000080: c02e 9abe a0ef 0fbe df78 9abe 37ed 89be
00000090: 67c2 abbe 61f8 36be a66b e8be a79d 91be
000000a0: 4a30 efbe ca2f a1be 1131 a1be 09fa bfbe
000000b0: c8a9 c7be e459 d9be 466e c1be 501d c1be
000000c0: d999 84be 6b9e 8abe f66f c2be f50a a3be
000000d0: 678f e1bd 8b1a c2be 553a b03d c7b1 d83d
000000e0: 3dcd cabe c5a8 f63d 1731 f7be e4f4 85be
000000f0: f8ad 06bf 6b07 b5be 4790 8dbe a273 cfbe
00000100: 46fb 80be 7da9 3c3d da94 e7be 3cc1 aabe
00000110: 3a3b 90be 83e8 68be 55a3 98be 2263 85be
00000120: 84eb fbbe 8d7e bcbe 2a4f bdbe f661 c2be
00000130: b0c8 9dbe 6c08 85be 7327 aa3d d90a e3be
00000140: 6389 55be caba e0be 6364 eebe ae4f b7be
00000150: 4566 babe 6710 95be ac71 c0be a72e d9be
00000160: 4790 bdbc ec40 afbe c052 adbe 55e7 b8be
00000170: 88fe dfbe 1d19 6c3e 74bd b0be a66b babe
00000180: 3543 73be d290 f5bc de5b b9be dafa c3be
00000190: 1bb5 aebe 6565 90be d1b4 ecbe e904 fbbe
000001a0: fbd0 d0be 3ac9 abbe 45b0 c1be c1a7 afbe
000001b0: 720c eabe 2e81 d9be db7b 29be 9a14 dfbe
000001c0: c307 d2be 2825 ccbe e78b 96be ac24 9bbe
000001d0: 9700 0fbe 5cf1 61be d582 9fbe 9c65 8ebe
000001e0: eadf c9be 9c85 a1be 3676 83be 694b 0dbf
000001f0: aadb 653c 10bf 85be fc55 eebe 4a07 cfbe
00000200: 0891 c7be d99c 69be 470d 8fbe bfd8 9fbe
00000210: 6492 58be d59f 96be 75bc 71be 3356 90be
00000220: 95bb 80be a146 32be 6305 67be dccb bcbe
00000230: 2743 32be da3a 02bc 705d a1be d883 bfbe
00000240: c365 63be 38ab 5bbe 7190 0cbe a6bf dfbd
00000250: 9d1b 3e3d 1134 e5be a70c 59be 84b3 70be
00000260: 7aa6 3cbe 6345 b73d 874c 413e e1e3 bcbe
00000270: 1259 b2be aaa7 ccbe e08a 6dbe 6995 18be
00000280: b650 c6be b385 30be b781 90be 1753 babe
00000290: 2ebe cdbd 06a5 5cbe f32e 64be 1066 0fbe
000002a0: 5e5a 7ebe 93df a8be 4600 8dbe 7262 a8be
000002b0: 9c81 2dbe 226a 60be ab56 05be b713 8dbe
000002c0: 5a55 a7be 9c3d 6fbe 707d 6cbe e9f6 3abe
000002d0: c289 4abe 107b 60be 92e0 a23d 6038 263e
000002e0: 9f9a 33be 4bc2 8bbc 2390 76be adf2 87bd
000002f0: 6c57 6ebe df98 5dbe e689 bcbe 1562 acbe
00000300: b68e 89be 3cad ccbc 9a18 bbbe a383 adbe
00000310: e152 f1bd f1ff 1dbe adae 99be 0a88 03bf
00000320: efc5 2abe 096e 7dbe 8223 63be 067d 0fbe
00000330: 67ec 86be 5e20 4ebe 7784 dd3d b372 62be
00000340: a8bd aabd 92be 5bbe cf3b 86be 232a 3bbe
00000350: b7d4 87be d381 c7be ba05 45be dccc 2ebe
00000360: ccdd ea3d 3bfb 88be 53c4 4bbe 53bd a9be
00000370: 155f 7fbe 4177 053e 1c05 88be e1de 99be
00000380: 7e52 61be 80ba 56bd 403c 99be 3637 93be
00000390: b059 62be 8d41 dcbe 1566 9ebe d3ac 8dbe
000003a0: 839e 78be d038 66be aa05 76be 9eca cfbe
000003b0: 1836 b2be dbf6 6bbe 9593 a9bd 5cf8 6ebe
000003c0: 71f3 9bbe 6d79 97be 4cbf 75be 4202 0abe
000003d0: 6453 df3c 4617 eebd f369 76be 8dc7 70be
000003e0: 5489 9abe ec9c 7dbe bbb2 0ebe b74b 5bbe
000003f0: fdb7 0b3e 6e72 52be c68b 37be d057 47be
