林锐炜/week06/FaceImageRNN/face_image_rnn_GRU_params.pth (torch, 516904 bytes, 22 tensors)

rnn.weight_ih_l0 f4 [192, 64]
0	0xbcc43836	-0.023952585
1	0x3d486869	0.0489277
2	0x3d7fc73f	0.062445875
3	0x3d23d45c	0.039997444
4	0xbd52543c	-0.051349863
5	0x3db668e8	0.08906728
6	0x3e0f2ff0	0.1398313
7	0x3ceba0b6	0.028763156
8	0x3cea663b	0.0286132
9	0x3ddb897b	0.10719582
10	0x3de1422d	0.1099895
11	0x3c9daf7f	0.019248722
12	0x3d8ef631	0.06980551
13	0xbdcf8d76	-0.101344034
14	0x3d0b5bff	0.03402328
15	0x3db57951	0.0886103
16	0x3dc66a32	0.09688224
17	0x3e110958	0.1416372
18	0xbd2ed504	-0.042683616
19	0xbce4b385	-0.027917633
20	0xbc888ee3	-0.016669696
21	0x3df34665	0.11878661
22	0x3cd7ad5c	0.026327781
23	0x3d29a086	0.041412853
24	0x3bfe63e9	0.007763375
25	0x3c50729e	0.012722639
26	0xbd59faec	-0.053217813
27	0xbbf43488	-0.0074525513
28	0x3e01d4bc	0.12678808
29	0xbd2c375f	-0.042044993
30	0x3d3cb3f6	0.04607006
31	0x3d7f3137	0.062302794
32	0xbca8e49b	-0.02061682
33	0x3d8c9af8	0.068654954
34	0xbe01b1c5	-0.1266547
35	0x3d1b40a5	0.037903447
36	0xbc8c9a47	-0.017163409
37	0xbde6d41d	-0.11270926
38	0x3cf5cbf8	0.030004486
39	0xbc0b5464	-0.008504007
40	0xbce6db53	-0.028180754
41	0x3cacbc42	0.021085862
42	0xbcb2c94b	-0.0218245
43	0xbdd07f7d	-0.101805665
44	0x3de86bde	0.11348699
45	0xbd85bf5b	-0.06530639
46	0x3c0de707	0.008661038
47	0x3ccda869	0.025104718
48	0x3c9916d1	0.018687638
49	0x3e1567e4	0.14590412
50	0x3d53da2d	0.05172174
51	0x3d4ee934	0.05051537
52	0xbd5135c6	-0.051076673
53	0xbb42f8ad	-0.0029750273
54	0xbc3ac8ff	-0.01140046
55	0xbbf6523f	-0.0075171287
56	0x3e0d8599	0.13820495
57	0x3d92daae	0.07170616
58	0x3e26f295	0.16303475
59	0x3da55328	0.080725014
60	0x3d64f00f	0.055893
61	0xbd81a1f8	-0.06329721
62	0xbd89ee65	-0.06734923
63	0xbc80cfed	-0.015724147
64	0x3d89e65e	0.06733392
65	0x3d5bddd0	0.053678334
66	0x3d8e2aa0	0.06941724
67	0x3e3aa47c	0.18226808
68	0x3d9b90b7	0.075959615
69	0x3d9aa186	0.075503394
70	0xbd364a94	-0.044504717
71	0xbcf3f404	-0.029779442
72	0xbdcae499	-0.09906883
73	0xbe000746	-0.12502775
74	0xbe15e653	-0.14638643
75	0xbd29b412	-0.041431494
76	0x3d753e2d	0.05987375
77	0x3de380bb	0.11108538
78	0x3cf46795	0.029834548
79	0x3d8d6282	0.069035545
80	0xbdf969aa	-0.12178357
81	0xbd88a74f	-0.066725366
82	0xbd448340	-0.047976732
83	0xbe06df91	-0.13171221
84	0xbd45e73d	-0.04831623
85	0x3ce7f001	0.028312685
86	0x3cdee45c	0.0272085
87	0xbcd96b1d	-0.026540333
88	0x3d2c020a	0.041994132
89	0xbdb9eefb	-0.09078785
90	0xbda3f502	-0.08005716
91	0x3dbd0b67	0.092306904
92	0x3e000afa	0.12504187
93	0x3c64fedf	0.013976782
94	0x3df72391	0.12067331
95	0x3dd36dcf	0.10323679
96	0x3d54fe60	0.052000403
97	0x3c451a90	0.012030259
98	0x3d53f029	0.051742706
99	0x3e110fa6	0.14166126
100	0x3d0e3482	0.034718044
101	0xbc912b08	-0.017720714
102	0x3d8de0fb	0.06927677
103	0xbddcc36c	-0.10779461
104	0x3db31aec	0.08745369
105	0xbdc06889	-0.093949385
106	0x3d0557ef	0.032554563
107	0x3d5d9bd3	0.054103684
108	0x3e01158e	0.12605879
109	0x3d5fda8d	0.054651786
110	0x3da97928	0.08275062
111	0x3d828226	0.0637248
112	0xbd0d1096	-0.034439646
113	0x3de778b6	0.11302321
114	0x3d1e05c8	0.038579732
115	0xbc5a4322	-0.01332167
116	0x3d6eb765	0.058280367
117	0x3dd0d47b	0.101967774
118	0xbd57e833	-0.052711677
119	0x3e09fa71	0.13474442
120	0x3d9aa3c7	0.07550769
121	0xbd6ce290	-0.057833254
122	0x3d5cb472	0.053883024
123	0xbdac7378	-0.084204614
124	0xbd142aaa	-0.0361735
125	0xbc6af9c4	-0.014341775
126	0xbd289964	-0.04116191
127	0xbb660087	-0.003509553
128	0xbd09826d	-0.03357165
129	0x3e139d91	0.14415576
130	0x3e0aaa21	0.13541462
131	0x3e39826d	0.1811616
132	0x3ba97ab6	0.005172099
133	0xbd219d9a	-0.03945694
134	0xbd0e1c13	-0.034694742
135	0x3d02c9ee	0.031930856
136	0xbe0c25bb	-0.13686268
137	0xbdf0cc64	-0.117577344
138	0xbc79d202	-0.015247824
139	0x3d47c195	0.0487686
140	0x3da1df52	0.07903923
141	0x3d945ac5	0.072438754
142	0x3dcda10b	0.10040482
143	0xbd1a5cb0	-0.03768605
144	0xbd41fe76	-0.047361813
145	0x3d4a7f29	0.049437676
146	0x3c265326	0.01015166
147	0xbc6951ce	-0.014240695
148	0x3d994736	0.074842855
149	0x3c9c6bbc	0.01909434
150	0x3cf2f5c5	0.029658208
151	0xbd1d8f90	-0.03846699
152	0x3dab714c	0.08371219
153	0x3e12aa76	0.14322838
154	0x3e2b9c24	0.16758782
155	0xbd55a873	-0.0521626
156	0xbce27424	-0.02764327
157	0xbd9954b1	-0.07486857
158	0x3df27a01	0.11839677
159	0x3d946ff4	0.07247916
160	0x3d472e62	0.04862822
161	0x3d872e92	0.066006795
162	0x3d8326d8	0.06403893
163	0xbb103787	-0.0022005753
164	0x3c78bcb3	0.015181708
165	0xbc00187d	-0.007818338
166	0xbd3886f3	-0.045050573
167	0xbd0373b8	-0.03209278
168	0xbc0f09ec	-0.008730393
169	0x3cd80d22	0.02637345
170	0x3d43e07e	0.047821514
171	0x3d699e16	0.057035528
172	0x3dd9b1da	0.106296256
173	0xbd172b90	-0.03690678
174	0x3dc160c6	0.09442286
175	0xbd0fac77	-0.035076585
176	0xbdbdeb02	-0.0927334
177	0xbce193f7	-0.027536375
178	0xbdabe3a1	-0.08393026
179	0x3cf20f39	0.029548274
180	0xbe1c4cbb	-0.15263645
181	0xbe12df0d	-0.143429
182	0xbd3332e3	-0.0437497
183	0xbdb1bc3b	-0.0867848
184	0x3d8cf1f5	0.06882087
185	0xbd98eec1	-0.07467414
186	0x3cf676b8	0.030085906
187	0xbe3c73e6	-0.18403587
188	0xbe4bca2a	-0.19901338
189	0xbd5d4548	-0.05402115
190	0xbe03f18b	-0.1288511
191	0x3cd45ee6	0.025924157
192	0xbd9a6666	-0.07539062
193	0x3d47ba28	0.048761517
194	0x3d95f821	0.073227175
195	0xbd75e7a7	-0.060035374
196	0x3e16b8e5	0.14718969
197	0xbcfae068	-0.030624583
198	0xbdaf9170	-0.08572662
199	0x3d1032c7	0.035204675
200	0x3dda04ed	0.10645471
201	0x3d9d81d1	0.07690776
202	0xbda51ebd	-0.080625035
203	0xbddc9a16	-0.10771577
204	0x3ccfc11a	0.025360633
205	0xbd892190	-0.06695855
206	0xbbe06025	-0.006847399
207	0x3dd2614c	0.10272464
208	0xbe106266	-0.14100036
209	0x3dc5409c	0.09631464
210	0xbcef7eb2	-0.029235218
211	0x3dabf16c	0.08395657
212	0xbd9fc579	-0.07801337
213	0x39e592c1	0.00043787624
214	0x3dcdde53	0.100521706
215	0x3d8e5ac5	0.06950907
216	0xbdff86f7	-0.124769144
217	0x3c3fb3ee	0.011700613
218	0x3d3cc5cb	0.046087068
219	0x3ca6ba1d	0.020352418
220	0xbd14f158	-0.036362976
221	0x3d95637e	0.07294367
222	0xbba694f4	-0.0050836746
223	0x3dd11dcd	0.10210762
224	0xbdbf3960	-0.09337115
225	0xbcfce300	-0.03086996
226	0x3dee0771	0.11622513
227	0xb9a67fcb	-0.000317572
228	0x3d2676b5	0.04064055
229	0xbd8eec63	-0.06978681
230	0xbde81f38	-0.113340795
231	0x3d88cfba	0.06680246
232	0xbd80bb88	-0.06285769
233	0xbda35efe	-0.07977103
234	0xbd47b658	-0.04875788
235	0xbc1892e3	-0.009312364
236	0xbd60ed15	-0.0549136
237	0xbc1d231a	-0.009590888
238	0x3d8f02d2	0.0698296
239	0x3d9168ab	0.07100042
240	0x3c9eb132	0.019371603
241	0x3d6da391	0.058017317
242	0xbe196830	-0.1498115
243	0x3daf860f	0.085704915
244	0xbce37ea0	-0.02777034
245	0xbd271b4d	-0.04079752
246	0x3c171eb0	0.009223625
247	0xbe0b9d0c	-0.13634127
248	0xbdf0ec56	-0.117638275
249	0x3d8fa9b8	0.07014793
250	0x3d1e5922	0.038659222
251	0x3d180ba4	0.037120476
252	0xbbd31403	-0.0064415946
253	0xbd9805a4	-0.07422951
254	0x3e14edd4	0.14543849
255	0xbc32da79	-0.010916346

rnn.weight_hh_l0 f4 [192, 64]
0	0xbe3d4892	-0.18484715
1	0xbccde03b	-0.025131335
2	0x3d6c209c	0.057648286
3	0xbd27f88d	-0.04100852
4	0xbc10d7ca	-0.008840511
5	0xbb2b8e68	-0.002617741
6	0x3db95d08	0.090509474
7	0x3aba615a	0.0014219687
8	0x3da6fe12	0.08153929
9	0xbde56e93	-0.11202731
10	0xbe00128d	-0.12507077
11	0x3d92d6ac	0.07169852
12	0xbdca202b	-0.09869417
13	0x3c45cc62	0.012072654
14	0x3d162d27	0.036664154
15	0xbb844fb8	-0.0040378235
16	0x3d312048	0.043243676
17	0xbcf15057	-0.029457254
18	0x3d93c86b	0.07215961
19	0x3d773577	0.060353722
20	0x3c48b863	0.0122509925
21	0x3dc366c6	0.09541087
22	0xbd5de9eb	-0.05417816
23	0xbe0cf842	-0.13766578
24	0x3d11fdca	0.035642423
25	0x3e391501	0.18074419
26	0x3d0cab88	0.034343272
27	0x3e24bab8	0.16086853
28	0x3d9684ae	0.073495254
29	0x3db809cc	0.089862436
30	0xbd37e2ed	-0.044894148
31	0x3e38b394	0.18037254
32	0x3a47aaba	0.0007616688
33	0x3e2c5260	0.16828299
34	0xbe29bfe7	-0.16577111
35	0xbd3b2174	-0.0456862
36	0xbe2b2cad	-0.16716261
37	0x3e116515	0.14198716
38	0x3c79ee6a	0.015254596
39	0xbc0c2a13	-0.008554953
40	0xbd9b81de	-0.075931296
41	0x3dcceac1	0.10005713
42	0xbd1c7018	-0.03819284
43	0x3c9a0230	0.018799871
44	0x3d55e0ce	0.052216344
45	0x3db83d23	0.08996036
46	0x3ca11913	0.019665277
47	0x3dac034f	0.083990686
48	0xbd9866ac	-0.07441458
49	0x3d6dec68	0.058086783
50	0xbd067330	-0.032824695
51	0xbe06e9fc	-0.13175195
52	0x3ddf8007	0.10913091
53	0xbc8d3c46	-0.017240655
54	0xbd322f91	-0.043502394
55	0x3d7dc67a	0.06195686
56	0xbd4cc8ce	-0.04999619
57	0x3e0f2095	0.13977273
58	0xbe210e7e	-0.15728185
59	0xbdab439d	-0.083625056
60	0xbdd16852	-0.10224976
61	0xbe0102ca	-0.1259872
62	0x3dffced8	0.12490624
63	0x3c573618	0.013135456
64	0x3da34ece	0.07974015
65	0x3e062226	0.13098964
66	0x3dec7a27	0.11546736
67	0x3d040c2e	0.032238178
68	0xbe090752	-0.13381699
69	0xbd32a9e4	-0.04361905
70	0xbe3fd9c4	-0.18735415
71	0x3daf4cf6	0.08559601
72	0x3e451454	0.19246036
73	0xbd22968e	-0.03969436
74	0x3d8af043	0.067841075
75	0xbce9d5f7	-0.02854441
76	0xbd27a214	-0.040926054
77	0xbd20392d	-0.039117027
78	0x3dcbffc0	0.0996089
79	0x3db980ed	0.09057794
80	0xbdb6b71f	-0.08921646
81	0x3ce6140c	0.028085731
82	0x3d18ad87	0.037274864
83	0x3d834924	0.06410435
84	0xbdb10629	-0.08643753
85	0xbdf29dd9	-0.11846513
86	0xbe1c6650	-0.15273404
87	0x3d9c2366	0.07623939
88	0xbe8850dd	-0.26624194
89	0x3d058bed	0.032604147
90	0xbd6d9baa	-0.05800978
91	0x3d51c1a2	0.051210053
92	0xbcf7fb4d	-0.030271197
93	0x3d1af0a3	0.037827145
94	0x3db96e00	0.09054184
95	0xbd6271e8	-0.05528441
96	0x3d1b2eab	0.037886303
97	0x3de864de	0.11347364
98	0xbdbde2e8	-0.092717946
99	0x3cef3124	0.029198237
100	0xbdeb1957	-0.114794426
101	0x3e01c132	0.12671354
102	0xbc9122eb	-0.017716845
103	0xbd937ac6	-0.072011515
104	0x3da2a9cc	0.079425424
105	0x3d9a8cfe	0.075464234
106	0xbe404b2e	-0.18778679
107	0x3c13ceb2	0.009021448
108	0x3e689458	0.22712839
109	0x3d5bcc3d	0.053661574
110	0x3d89550a	0.06705673
111	0x3c7d3110	0.015453592
112	0xbcaf1ff1	-0.021377536
113	0xbc808ae1	-0.015691223
114	0xbbb5fb70	-0.0055536553
115	0xbb9230db	-0.0044613904
116	0xbc2a3a39	-0.010389858
117	0xbcac5290	-0.021035463
118	0xbdaa16ba	-0.08305116
119	0xbb84b6bd	-0.0040501044
120	0xbc8e53da	-0.017373968
121	0xbd8ebe50	-0.06969893
122	0x3cffe4d6	0.031237047
123	0x3c974c5a	0.018469024
124	0x3d551a41	0.05202699
125	0xbdcaec67	-0.099083714
126	0x3d58498a	0.052804507
127	0x3d66a998	0.05631408
128	0x3cbd96e3	0.023143237
129	0xbd007a1d	-0.031366456
130	0x3a26832a	0.00063519424
131	0xbde1ee8a	-0.11031826
132	0x3c30a79b	0.010782148
133	0x3e396f87	0.1810895
134	0x3c8fe3ae	0.01756462
135	0xbd478a38	-0.0487158
136	0x3c9a3270	0.018822879
137	0xbd6023a3	-0.054721486
138	0xbc4951f4	-0.012287606
139	0x3e12528e	0.14289305
140	0xbd1aec16	-0.037822805
141	0xbd9a9b38	-0.07549137
142	0x3d4e974d	0.05043726
143	0xbd346a57	-0.044046726
144	0xbd1d32a4	-0.038378373
145	0xbd701281	-0.058611397
146	0xbd88c900	-0.06678963
147	0xbd6aaf84	-0.05729629
148	0x3d391e43	0.045194875
149	0x3d4ef526	0.05052676
150	0x3b8216b1	0.00396999
151	0xbc42e5cb	-0.011895607
152	0x3d2e28de	0.042519443
153	0xbd919b03	-0.07109644
154	0x3db59be0	0.088676214
155	0xbd9efc0e	-0.07762919
156	0x3d190441	0.037357572
157	0x3e433576	0.19063362
158	0x3de43952	0.111437455
159	0xbcf195e1	-0.029490413
160	0xbdf22063	-0.118225835
161	0x3d662c79	0.056194756
162	0xbc1ccba5	-0.009570037
163	0x3d12c260	0.0358299
164	0xbd8ca0f7	-0.06866639
165	0xbe234983	-0.15946011
166	0xbe2c9f87	-0.1685773
167	0xbdec8f3a	-0.11550756
168	0xbd8d89b2	-0.06911029
169	0xbdf04bcd	-0.11733208
170	0x3c5e2a7d	0.013559935
171	0xbc2b3707	-0.010450131
172	0xbdc76aef	-0.09737193
173	0xbde7de90	-0.11321747
174	0x3d97ef37	0.074186735
175	0x3dfb9f0a	0.12286194
176	0x3c4bd2d5	0.012440403
177	0xbd52b730	-0.051444232
178	0x3d85ed9e	0.065394625
179	0x3c9b7247	0.01897539
180	0xbd482911	-0.04886729
181	0x3e23a802	0.15982059
182	0xbd53d2f2	-0.051714845
183	0x3cbb7744	0.022884019
184	0xbdabc5f4	-0.08387366
185	0xbca80d72	-0.020514224
186	0x3de9a41c	0.114082545
187	0x3d37c8e3	0.044869315
188	0x3d8257ab	0.063643776
189	0x3d493d60	0.049130797
190	0xbd76cf6f	-0.060256418
191	0xbc3b44f6	-0.011430016
192	0xbdbd9aba	-0.092580274
193	0x3dba413b	0.09094473
194	0x3d63504f	0.05549651
195	0x3c2c2e2e	0.010509057
196	0x3a406bc7	0.0007340279
197	0x3e2bf44a	0.16792408
198	0xbd8693f0	-0.065711856
199	0xbe04a599	-0.12953795
200	0xbda3fc5a	-0.080071166
201	0x3da4283b	0.08015486
202	0x3c96acef	0.018393008
203	0x3d50d0dc	0.050980434
204	0x3d293637	0.04131147
205	0xbd27cb99	-0.04096565
206	0xbd6c0090	-0.057617724
207	0xbc10d000	-0.008838654
208	0xbc809e6f	-0.015700547
209	0x3d89e7ec	0.06733689
210	0xbd3b754f	-0.04576617
211	0xbd7a3830	-0.06108874
212	0x3bbe19e6	0.005801427
213	0xbd3543cc	-0.04425411
214	0x3dc5b818	0.09654254
215	0xbdb12250	-0.08649123
216	0x3d2ee190	0.042695582
217	0x3d40592d	0.046960045
218	0x3e075b69	0.13218464
219	0x3dc909df	0.09816336
220	0x3d9c9c5e	0.07647012
221	0xbdaf7feb	-0.0856932
222	0xbe016ffe	-0.12640378
223	0xbd7abd87	-0.061215904
224	0xbcc66ac1	-0.024220826
225	0xbb426811	-0.002966408
226	0x3bd4f7cd	0.0064992667
227	0xba1ca815	-0.0005975974
228	0xbdb53e5b	-0.08849784
229	0xbd78baf2	-0.06072516
230	0x3d83aa72	0.06428994
231	0x3c5a5d2c	0.013327878
232	0x3d24d052	0.040237732
233	0x3de62f23	0.11239459
234	0xbc941e69	-0.018080907
235	0x3e0dda2e	0.1385276
236	0xbd5a6973	-0.05332322
237	0xbdca501f	-0.09878563
238	0xbd36153c	-0.044453844
239	0x3de5ee7c	0.11227128
240	0x3d248bdf	0.040172454
241	0x3e084079	0.13305844
242	0xbe0be456	-0.13661322
243	0x3d8605c3	0.06544068
244	0xbca8a846	-0.020588052
245	0xbdf03058	-0.11727971
246	0x3e04e270	0.12977004
247	0x3de32fd7	0.11093109
248	0x3ce9cdc0	0.028540492
249	0x3d11d6c7	0.03560522
250	0xbdabc2f6	-0.08386795
251	0x3cd2763e	0.025691148
252	0x3d41cc68	0.047314078
253	0x3d741445	0.059589643
254	0xbd2a221a	-0.041536428
255	0xbd0e5400	-0.034748077

rnn.bias_ih_l0 f4 [192]
0	0xbdb11904	-0.086473495
1	0x3dd64e91	0.10464204
2	0xbdfe9a41	-0.12431765
3	0x3d726122	0.059174664
4	0xbcdc6a79	-0.026906239
5	0x3e18d61d	0.14925428
6	0x3d364eac	0.04450862
7	0xbd7958f3	-0.060875844
8	0xbc4a47bc	-0.012346204
9	0xbe1d4277	-0.15357386
10	0x3b17ef95	0.0023183574
11	0xbd791cb6	-0.060818397
12	0x3d80107a	0.06253143
13	0x3b18242f	0.0023214926
14	0x3c8b1135	0.016975978
15	0x3be4b520	0.0069795996
16	0xbd86af6e	-0.06576429
17	0xbcda7b4a	-0.026670117
18	0xbd758bbf	-0.059947725
19	0xbd2f11a4	-0.042741433
20	0x3c7863f7	0.015160552
21	0xbc0fc946	-0.008776015
22	0xbe1725ed	-0.14760561
23	0x3ba2e263	0.004970835
24	0x3da6b655	0.08140246
25	0x3cdcc1fd	0.02694797
26	0x3d41f070	0.04734844
27	0xbd9a99ae	-0.07548843
28	0xbd948935	-0.07252733
29	0xbc22ae70	-0.009929284
30	0xbd9ad7ed	-0.07560716
31	0xbd949b19	-0.07256145
32	0xbda06af4	-0.078329
33	0xbd92566c	-0.0714539
34	0xbdc37b96	-0.095450565
35	0xbd470c49	-0.0485957
36	0x3c1c70b5	0.009548356
37	0xbcca8526	-0.024721693
38	0x3d1845c5	0.037175912
39	0xbe266655	-0.16249974
40	0x3da44100	0.0802021
41	0x3dcab9af	0.098986976
42	0xbd0d6299	-0.03451786
43	0xbdbafdc1	-0.09130431
44	0x3e3e39c2	0.1857672
45	0xbd118aae	-0.035532646
46	0xbd43b759	-0.047782276
47	0xbb9b717c	-0.004743753
48	0x3ce7f177	0.028313382
49	0xbe06b0b1	-0.1315334
50	0x3e009f71	0.12560822
51	0xbc79d0ba	-0.015247518
52	0x3d6a39de	0.057184093
53	0xbd5e1ec5	-0.054228563
54	0x3b9d8083	0.0048065796
55	0xbd48884f	-0.04895812
56	0xbd6278aa	-0.055290855
57	0x3d319ed8	0.043364376
58	0x3e11dc2b	0.14244144
59	0xbcc8941d	-0.024484688
60	0xbcca0e69	-0.024665074
61	0xbdbd083d	-0.09230087
62	0x3c99d97b	0.01878046
63	0x3dcb2cd0	0.09920657
64	0xbe43e48d	-0.19130154
65	0xbe222e1b	-0.158379
66	0xbd4be422	-0.04977811
67	0x3db9c732	0.090711966
68	0xbd9661e0	-0.07342887
69	0x3bf3085f	0.0074167694
70	0xbe388d63	-0.18022685
71	0xbd46ec74	-0.048565343
72	0xbdd25b2c	-0.10271296
73	0xbd1aaee5	-0.03776445
74	0x3e0b15a0	0.13582468
75	0xbc349cb1	-0.011023686
76	0xbd9a3a30	-0.0753063
77	0x3e2d2772	0.16909578
78	0xbdcb6f41	-0.099333294
79	0xbbcac93e	-0.0061885407
80	0xbd325578	-0.04353854
81	0xbd91111d	-0.07083342
82	0xbcceba25	-0.025235245
83	0xbbe7c207	-0.0070726904
84	0xbd84f931	-0.06492842
85	0xbd40623e	-0.04696869
86	0xbe137d70	-0.1440332
87	0xbd136d8f	-0.035993155
88	0xbde139b8	-0.10997337
89	0xbe0ba3ad	-0.13636656
90	0xbc8e0cba	-0.017340053
91	0xbcf02e48	-0.029318944
92	0xbe1322b3	-0.14368705
93	0xbe09fad1	-0.13474585
94	0xbdd67e16	-0.10473268
95	0x3dc421e7	0.09576779
96	0xbe8705e9	-0.26371697
97	0xbddcabe3	-0.10774972
98	0xbe57157d	-0.21004291
99	0xbe0547f8	-0.13015735
100	0xbdcc010a	-0.09961136
101	0xbd078740	-0.03308797
102	0xbe4cd70e	-0.20003912
103	0xbd52f1d7	-0.051500168
104	0xbdfaaa7e	-0.1223955
105	0x3d86190f	0.06547748
106	0xbe021c91	-0.1270621
107	0x3c1eaab3	0.009684253
108	0xbe3afa04	-0.18259436
109	0xbd6c2044	-0.05764796
110	0xbcc7f806	-0.024410259
111	0xbcc4a484	-0.024004228
112	0xbded0419	-0.11573047
113	0xbe7fbfaa	-0.24975458
114	0xbe9192f9	-0.28432444
115	0xbde46d08	-0.111536086
116	0xbd2d38e4	-0.042290583
117	0xbdcea09f	-0.1008923
118	0xbcbeb273	-0.02327845
119	0xbd3404e4	-0.043949977
120	0xbe2cdd9c	-0.16881412
121	0xbd7676d6	-0.060171925
122	0xbe15c858	-0.14627206
123	0xbde77955	-0.11302439
124	0xbda7e01e	-0.08197044
125	0x3d084f40	0.033278704
126	0x3c1d34bd	0.009595093
127	0x3e20d450	0.15705991
128	0xbcfc7f2d	-0.03082236
129	0x3d9afadd	0.075673796
130	0x3a86ed71	0.0010294152
131	0xbdd1a483	-0.10236456
132	0xbdbf8e60	-0.09353328
133	0xbe4000ba	-0.18750277
134	0xbe2dfb25	-0.16990335
135	0x3e24bf44	0.16088587
136	0xbca93a14	-0.020657577
137	0xbd18a975	-0.03727098
138	0xbdbd499d	-0.09242556
139	0x3ceffd93	0.029295718
140	0x3bb5b818	0.0055456273
141	0x3df6bb8a	0.12047489
142	0xbddf5e95	-0.10906712
143	0xbe337f9e	-0.17529151
144	0x3d01ef8e	0.031722598
145	0x3de704c3	0.11280205
146	0x3d334e0c	0.043775603
147	0x3e59df8f	0.21276687
148	0xbc8400cb	-0.01611366
149	0xbd92f376	-0.07175343
150	0x3d883a9a	0.06651802
151	0x3caacaa7	0.020848585
152	0x3e205ee0	0.15661192
153	0x3d9eaf97	0.07748335
154	0xbdc953e9	-0.09830458
155	0xbd297e07	-0.041379955
156	0x3df707b6	0.120620176
157	0x3d0ef93c	0.034905657
158	0x3da56199	0.08075256
159	0x3d9cce8d	0.07656584
160	0xbdc4f9ba	-0.09617944
161	0xbd31e3f1	-0.043430272
162	0xbc9a3412	-0.018823657
163	0xbd5c1738	-0.05373308
164	0x3e09a6c6	0.13442525
165	0x3de6223f	0.11237001
166	0x3deb2d94	0.11483303
167	0x3df44ac0	0.1192832
168	0x3de1de02	0.11028673
169	0x3e1f8916	0.15579638
170	0xbe3ef6fc	-0.18648905
171	0x3df5fb22	0.120107904
172	0x3e32a21b	0.17444651
173	0xbdf6e339	-0.12055058
174	0xbcf3dccc	-0.02976837
175	0x3d76316f	0.060105737
176	0xbce6013b	-0.028076759
177	0xbd84958c	-0.06473836
178	0xbe03feb4	-0.1289013
179	0xbd79d684	-0.060995594
180	0x3c5f8420	0.013642341
181	0xb992aa90	-0.0002797437
182	0x3cf5b9e5	0.029995868
183	0x3e189979	0.14902295
184	0xbd92a3f7	-0.0716018
185	0xbdfe6e25	-0.12423352
186	0x3d76bdbc	0.06023954
187	0xbe3529ad	-0.1769168
188	0x3daf856c	0.0857037
189	0xbad0d09f	-0.0015931315
190	0xbce160e7	-0.027512027
191	0xbe2da46a	-0.1695725

rnn.bias_hh_l0 f4 [192]
0	0x3ddee30e	0.10883151
1	0x3dbfc909	0.09364516
2	0xbc0aea3d	-0.008478698
3	0xbb6dd544	-0.0036290446
4	0x3dedbd38	0.11608356
5	0xbce8c0a9	-0.02841218
6	0xbe19e2d0	-0.15027928
7	0xbdcf2563	-0.10114553
8	0xbdaac8b8	-0.08339065
9	0xbe1a6ac9	-0.15079798
10	0x3e11e81a	0.14248696
11	0x3dfddf90	0.12396157
12	0x3dff411a	0.12463589
13	0x3dd2c277	0.102909975
14	0x3cb33425	0.02187545
15	0x3dee81e2	0.11645867
16	0x3d7029a8	0.058633476
17	0xbe3cd088	-0.18438923
18	0xbd157eab	-0.036497753
19	0xbe09a771	-0.1344278
20	0x3d9791cc	0.074008554
21	0x3df286a1	0.11842085
22	0xbe0d6857	-0.13809334
23	0xbb638c79	-0.003472118
24	0x3e28c4f9	0.16481389
25	0x3d9ad76b	0.07560619
26	0x3dc4c619	0.09608097
27	0xbc953046	-0.018211495
28	0x3da576bf	0.0807929
29	0xbe24ff9b	-0.16113131
30	0x3d49786e	0.049187116
31	0x3dafb24f	0.085789315
32	0xbdbba339	-0.091619916
33	0xbdaf2b30	-0.08553159
34	0xbd3f7c95	-0.04674967
35	0x3cdac3d2	0.026704703
36	0x3a68987d	0.000887282
37	0x3e2e540d	0.1702425
38	0x3d5fe17c	0.054658398
39	0xbd674948	-0.05646637
40	0xbd3f67a6	-0.046729706
41	0xbd3a2c69	-0.04545251
42	0xbd776b73	-0.060405206
43	0xbd31dff5	-0.043426473
44	0x3e0cb854	0.1374219
45	0xbd7a359f	-0.061086293
46	0xbd460a93	-0.048349928
47	0x3db70845	0.08937124
48	0x3d60807a	0.054810025
49	0xbdb7543a	-0.08951612
50	0x3e2ed0e6	0.17071876
51	0x3cd4b363	0.025964445
52	0x3aefff69	0.0018310371
53	0x3e1b3ce2	0.15159944
54	0x3d1d200b	0.038360637
55	0xbd2ecb03	-0.042674076
56	0xbd07b853	-0.03313477
57	0x3d8c5590	0.06852257
58	0xbd9674f6	-0.07346527
59	0x3dbf71d6	0.09347884
60	0xbdea0f55	-0.114287056
61	0x3d789103	0.06068517
62	0xbe01c755	-0.12673695
63	0xbd2d115d	-0.042252887
64	0xbe1383b9	-0.14405717
65	0xbe06b475	-0.13154776
66	0xbd9f8578	-0.07789129
67	0x3d8971c4	0.06711152
68	0xbdff06c2	-0.12452461
69	0xbc51b907	-0.012800462
70	0xbe81c4b1	-0.25345376
71	0xbd949997	-0.072558574
72	0xbd7e6d27	-0.062115815
73	0xbd828f8a	-0.06375034
74	0xbd850f1c	-0.064970225
75	0xbd1f020d	-0.038820315
76	0xbce42852	-0.027851257
77	0x3e2c348b	0.16816919
78	0xbdace36f	-0.08441817
79	0xbe1e0e3f	-0.15435122
80	0xbd04f78e	-0.03246265
81	0xbe1a6480	-0.150774
82	0x3d506ee1	0.050886992
83	0x3b4acb79	0.0030944033
84	0xbd6a21d5	-0.05716117
85	0x3cdf2d31	0.027243229
86	0xbe44a0af	-0.19201921
87	0xbdd9b0db	-0.10629436
88	0xbe326efe	-0.17425153
89	0xbcf052f6	-0.029336434
90	0xbc26a673	-0.0101715205
91	0xbb7dd391	-0.003873084
92	0xbdbfa1f8	-0.09357065
93	0xbe50be3f	-0.20385073
94	0x3ca164bf	0.01970136
95	0x3dbd90b2	0.09256114
96	0xbe6a1db9	-0.22862901
97	0xbe78b1b1	-0.24286534
98	0xbc4c257c	-0.012460109
99	0xbda7733c	-0.08176276
100	0xbd8b69d2	-0.06807293
101	0xbb93b403	-0.004507543
102	0xbe401c7c	-0.18760866
103	0xbd0b4bfc	-0.03400801
104	0xbe372e14	-0.17888671
105	0xbe16a125	-0.1470991
106	0xbe2b38f0	-0.16720939
107	0xbe405902	-0.18783954
108	0xbdc6252e	-0.0967506
109	0x3d5b0fe0	0.053481936
110	0xbdc8a308	-0.09796721
111	0xbe44c7f5	-0.19216903
112	0xbe077a90	-0.13230348
113	0xbe040665	-0.12893064
114	0xbe4e22a6	-0.20130405
115	0xbe638d85	-0.22221954
116	0xbcd76881	-0.026294949
117	0xbe1276fd	-0.14303203
118	0xbe0375e3	-0.12837939
119	0xbdd59e82	-0.104306236
120	0xbb3b756d	-0.0028603927
121	0xbe2db3a2	-0.16963056
122	0xbd5942c6	-0.053042196
123	0xbe1afdcc	-0.15135878
124	0xbd80e2ad	-0.06293235
125	0xbe1eed00	-0.15520096
126	0xbc1ae687	-0.009454376
127	0xbd6ffe8a	-0.058592357
128	0x3c13bafe	0.00901675
129	0x3d6b7573	0.057485055
130	0xbc405cca	-0.011740873
131	0x3db2f1c7	0.087375216
132	0xbdbc0857	-0.09181278
133	0xbe1cf65d	-0.15328355
134	0xbd2926ae	-0.041296653
135	0x3c793e0f	0.01521255
136	0xbde21fcc	-0.11041221
137	0x3ddfdaa6	0.10930376
138	0x3d8659a3	0.065600656
139	0x3d334243	0.043764364
140	0xbc6fb7f4	-0.01463126
141	0x3d9e7f08	0.07739073
142	0x3d7efa87	0.06225064
143	0xbdcc45f4	-0.0997428
144	0xbcad326d	-0.021142209
145	0xbc262640	-0.010140955
146	0xbb29ad3d	-0.0025890612
147	0x3cc6dd7b	0.024275532
148	0x3df92a65	0.12166289
149	0xbcf14c3b	-0.029455295
150	0x3ddfe2be	0.109319195
151	0x3d55cca7	0.052197125
152	0x3e0031cf	0.12519
153	0x3c64412a	0.013931552
154	0x3d70e717	0.058814134
155	0xbd0d87f7	-0.034553494
156	0x3e1eef71	0.15521027
157	0x3d2c9d7f	0.042142387
158	0xbdfc8c0a	-0.12331398
159	0xbdf97358	-0.12180203
160	0xbcae0ed1	-0.0212473
161	0x3c3e9f79	0.011634701
162	0xbd055d45	-0.032559652
163	0x3d59762b	0.05309121
164	0xbbf6c79a	-0.0075311186
165	0xbd4a1f46	-0.04934623
166	0xbdbf618d	-0.09344778
167	0xbdac44b1	-0.08411539
168	0x3de38aca	0.11110456
169	0x3dc38a74	0.09547892
170	0x3c433f36	0.011916926
171	0x3d9e9194	0.077426106
172	0x3e4df39d	0.20112462
173	0xbdde0ce6	-0.10842304
174	0xbdf281d7	-0.11841171
175	0x3cb876df	0.02251762
176	0xbc76d8ae	-0.015066309
177	0xbdd7cd0f	-0.10537159
178	0xbe202e7d	-0.15642734
179	0x3cda33c7	0.026636017
180	0xbd08784a	-0.03331784
181	0xbe21f6ed	-0.15816851
182	0x3d589a61	0.052881602
183	0x3d2995ea	0.041402735
184	0x3cf09ba4	0.02937109
185	0xbcc52e74	-0.024070002
186	0x3d6782fe	0.05652141
187	0xbe1af1ca	-0.15131298
188	0x3e06653b	0.13124554
189	0xbd875f80	-0.06610012
190	0xbd20f638	-0.039297312
191	0xbdcd49ed	-0.10023866

rnn.weight_ih_l1 f4 [192, 64]
0	0xbdbf8a95	-0.09352604
1	0x3cd4ba2e	0.025967684
2	0x3d670b68	0.056407362
3	0xbe2a3940	-0.16623402
4	0xbe45591a	-0.19272271
5	0xbde5d0b7	-0.1122145
6	0x3d3c78be	0.046013586
7	0x3e94fbc9	0.29098347
8	0xbe797d74	-0.24364263
9	0x3e8b6c97	0.27231285
10	0xbd7bec6b	-0.061504763
11	0x3e101d5d	0.14073701
12	0x3d5482de	0.051882617
13	0x3deb06fc	0.114759415
14	0xbd52aabc	-0.051432356
15	0xbd61d9cf	-0.05513936
16	0x3d22cfe8	0.039749056
17	0x3c7697f0	0.015050873
18	0x3d4cbb06	0.049983047
19	0x3dcb65ba	0.09931512
20	0x3df2af42	0.11849834
21	0x3e120dd2	0.14263085
22	0x3e15716c	0.14594048
23	0x3dd6fb12	0.104971066
24	0x3dd33366	0.10312538
25	0xbe58d255	-0.21173985
26	0xbcbcb35d	-0.023034746
27	0xbe0ad495	-0.13557656
28	0x3c34cfdc	0.011035886
29	0x3e059e8e	0.13048765
30	0x3d9a2f3f	0.07528543
31	0xbdebd1f9	-0.115146585
32	0xbb9e85d8	-0.0048377328
33	0xbe941b22	-0.2892695
34	0xbbfd7189	-0.0077344817
35	0xbd62ab9b	-0.055339437
36	0x3e177350	0.14790082
37	0xbd00ef06	-0.03147795
38	0xbd97f455	-0.074196495
39	0x3d3bfea2	0.045897134
40	0x3c364db3	0.011126923
41	0xbd5d71fa	-0.054063775
42	0x3dcadb74	0.099051386
43	0x3d61302b	0.054977577
44	0x3c15c1c1	0.009140433
45	0x3cfb1316	0.03064875
46	0xbda78ce6	-0.08181171
47	0x3d83b19e	0.06430362
48	0x3e0bbc7f	0.13646124
49	0xbd60eb46	-0.054911874
50	0x3d235067	0.0398716
51	0x3da96eba	0.082730725
52	0xbe0723ae	-0.13197204
53	0x3e27cfde	0.16387889
54	0x3d75746f	0.059925493
55	0xbd1054a0	-0.035236955
56	0x3cc7b6c6	0.024379145
57	0xbd642db1	-0.055707637
58	0x3d6e060a	0.058111228
59	0x3dd90bdf	0.10597967
60	0x3dacf070	0.08444297
61	0x3c8215ba	0.0158795
62	0x3d725d58	0.05917105
63	0x3d56136e	0.052264623
64	0x3caffc52	0.02148262
65	0x3dfb595c	0.12272903
66	0xbdbccb04	-0.0921841
67	0x3d8615c9	0.06547124
68	0xbd76ffa1	-0.06030238
69	0x3d973ff3	0.07385244
70	0x3e451548	0.192464
71	0x3e1d4304	0.15357596
72	0x3ca6437d	0.020295853
73	0x3e02b001	0.12762453
74	0x3d973e03	0.07384875
75	0x3dc63ea8	0.096799195
76	0xbdc5cff3	-0.09658804
77	0xbd503f07	-0.050841358
78	0xbd9ccf13	-0.07656684
79	0xbcccede0	-0.025015771
80	0x3de41444	0.11136678
81	0x3d02c1b4	0.03192301
82	0x3d56322a	0.052293934
83	0xbd114e3b	-0.035474997
84	0x3e290215	0.165047
85	0x3e2dc7ac	0.169707
86	0x3d9217c9	0.07133443
87	0xbd6da52d	-0.058018852
88	0x3e8781ae	0.26466125
89	0x3c2d4039	0.010574394
90	0xbd716e6b	-0.058943193
91	0xbe3c6bed	-0.18400545
92	0x3c89e9f5	0.016835192
93	0xbbe28a77	-0.006913479
94	0xbe1c6d70	-0.15276122
95	0x3da31149	0.07962281
96	0x3e030015	0.12793
97	0x3cf33b66	0.02969141
98	0x3d87f7b3	0.06639042
99	0x3b817ee4	0.003951894
100	0xbca78d9a	-0.020453263
101	0xbe52f288	-0.20600331
102	0x3d9b2485	0.07575325
103	0x3e71c51c	0.23610348
104	0x3b2e96ff	0.0026640294
105	0x3c3d9d37	0.0115731275
106	0xbd0d744d	-0.03453474
107	0x3dd753dc	0.10514042
108	0xbd87eb8a	-0.066367224
109	0x3dae1567	0.08500176
110	0xbdea7939	-0.11448903
111	0x3d8338a6	0.06407289
112	0x3c9c72e6	0.019097757
113	0xbdd1e44c	-0.10248622
114	0x3e5206d0	0.20510411
115	0x3e4169ec	0.18888062
116	0xbd176941	-0.036965612
117	0x3bd5d323	0.0065254136
118	0x3d712db1	0.058881465
119	0x3d2d0006	0.04223635
120	0xbd42b880	-0.047539234
121	0xbdc7b941	-0.09752131
122	0xbc2b2028	-0.010444678
123	0xbd0811b1	-0.033219997
124	0x3e348997	0.17630611
125	0xbd05341c	-0.0325204
126	0xbca7fb49	-0.020505564
127	0x3d83c033	0.064331435
128	0xbdf69d19	-0.12041683
129	0x3d47ff43	0.04882742
130	0xbd7dd79f	-0.06197321
131	0xbc4e7bd6	-0.012602767
132	0x3dd7740d	0.10520182
133	0x3d19ccc9	0.037548814
134	0xbde17637	-0.11008876
135	0xbd16d345	-0.036822576
136	0x3d3e6f7f	0.04649305
137	0xbdc91da3	-0.09820106
138	0xbca330fd	-0.01992082
139	0xbdf5aff1	-0.11996449
140	0xbda52d3b	-0.08065268
141	0x3d3ae289	0.045626197
142	0xbda9b875	-0.082871355
143	0xbe33c120	-0.1755414
144	0xbdbb0466	-0.09131698
145	0x3e3b38f9	0.18283452
146	0x3df7237d	0.12067316
147	0xbd5397cd	-0.05165844
148	0x3d23fea4	0.040037766
149	0xbda8963b	-0.08231779
150	0xbd351e13	-0.044218134
151	0x3d565af6	0.05233284
152	0x3d3492ff	0.0440855
153	0xbdf18ae5	-0.1179407
154	0xbd6c05bb	-0.057622653
155	0x3d79f682	0.061026104
156	0x3d33349d	0.043751348
157	0xbd853c8d	-0.0650569
158	0xbd8121e5	-0.06305293
159	0xbda0bb1a	-0.07848187
160	0xbc8f0ebd	-0.017463082
161	0xbd914449	-0.070931025
162	0x3c179d6d	0.009253842
163	0x3db11194	0.08645931
164	0xbe105b1e	-0.14097258
165	0x3ceccf27	0.028907372
166	0x3d185578	0.037190884
167	0xbe529541	-0.20564748
168	0x3d22b788	0.03972581
169	0xbd04979a	-0.03237114
170	0x3e440532	0.19142607
171	0xbcb65d77	-0.022261364
172	0xbd04917f	-0.03236532
173	0x3d0b491f	0.03400528
174	0x3db4b607	0.088237815
175	0xbd8c817a	-0.06860633
176	0x3d14053c	0.036137804
177	0x3d572828	0.05252853
178	0xbe487a2b	-0.19577853
179	0x3c302cd0	0.010752872
180	0xbade43e9	-0.0016957495
181	0xbcae4c94	-0.02127675
182	0xbc2c3b45	-0.010512178
183	0x3e053b5f	0.1301093
184	0xbd5957cf	-0.053062256
185	0xbc27857f	-0.010224699
186	0x3d4adc5a	0.04952655
187	0x3e23ebee	0.16007969
188	0xbd9b47ff	-0.075820915
189	0x3d358fa7	0.04432645
190	0x3dd2536b	0.10269817
191	0x3d985e39	0.074398465
192	0xbe2b9468	-0.16755831
193	0x3dfde62c	0.123974174
194	0x3dc8b724	0.09800556
195	0xbc1b799d	-0.009489444
196	0x3d5843b4	0.05279894
197	0xbe2a3a6a	-0.16623846
198	0xbe442e40	-0.19158268
199	0xbc953c81	-0.018217327
200	0xbe09a444	-0.13441569
201	0xbd901fb2	-0.070372954
202	0xbbc84a50	-0.0061123744
203	0xbd117303	-0.035510074
204	0x3c71d89f	0.014761119
205	0x3dc1de2d	0.09466205
206	0x3d6c4af5	0.057688672
207	0xbe0b16ea	-0.1358296
208	0x3d28c47f	0.04120302
209	0x3de95cd2	0.11394657
210	0x3e6a4828	0.22879088
211	0xbd7e3ac4	-0.062067762
212	0x3c78af6d	0.0151785435
213	0xbdd5add7	-0.10433548
214	0x3e19da46	0.15024671
215	0x3bd9dd5e	0.0066487035
216	0x3dac2bc2	0.08406784
217	0x3db352c8	0.08756024
218	0xbd9044be	-0.070443615
219	0xbd1923f3	-0.0373878
220	0x3da2632b	0.07929071
221	0x3e0bbabd	0.13645454
222	0x3df59f33	0.119932555
223	0x3e684011	0.2268069
224	0xbdb0dc3f	-0.086357586
225	0xbce0c119	-0.027435826
226	0xbd9aec40	-0.07564592
227	0xbdf53150	-0.11972296
228	0xbc4ae88a	-0.012384543
229	0x3e0c7a39	0.13718499
230	0x3d11db19	0.03560934
231	0xbe839385	-0.25698486
232	0xbd89378a	-0.06700046
233	0x3e07d1c5	0.13263614
234	0x3e384809	0.17996229
235	0x3e4c63f1	0.1996
236	0x3ba5f387	0.005064431
237	0x3cb43165	0.02199621
238	0xbd989e00	-0.07452011
239	0xbde72867	-0.11287003
240	0x3d8dba12	0.06920256
241	0xbde5694d	-0.11201725
242	0xbe5942de	-0.21216914
243	0xbbfcddf3	-0.007716888
244	0xbc858aed	-0.016301597
245	0xbda66d79	-0.08126349
246	0x3c5ec5c9	0.01359696
247	0x3e70ba48	0.2350856
248	0x3cece461	0.028917493
249	0xbd3d893d	-0.04627346
250	0x3e4573f9	0.19282521
251	0xbe587538	-0.21138465
252	0xbbbae2e9	-0.0057033193
253	0xbe03ca2a	-0.12870088
254	0x3e48414f	0.19556163
255	0xbd56a543	-0.0524037

rnn.weight_hh_l1 f4 [192, 64]
0	0xbcd28af1	-0.025701018
1	0xbdd51caa	-0.10405858
2	0xbdf093fd	-0.117469765
3	0x3dcf5186	0.10122971
4	0x3e34a279	0.17640103
5	0x3e37c321	0.1794553
6	0x3d8de2ed	0.06928048
7	0x3c258ddb	0.010104622
8	0xbe03c085	-0.12866409
9	0x3c08c53d	0.0083478065
10	0xbd59a31f	-0.05313408
11	0x3e10f6b2	0.14156607
12	0x3d4bb4e0	0.049733043
13	0x3be4d236	0.006983067
14	0xbd976dfa	-0.07394023
15	0xbbbb5ce6	-0.0057178615
16	0xbb8caf49	-0.0042933566
17	0x3daafe36	0.08349268
18	0xbdb054e2	-0.0860994
19	0xbd68ea75	-0.05686422
20	0x3db1bd3b	0.08678671
21	0x3e3a8321	0.18214084
22	0x3dacc93d	0.08436821
23	0x3de55c26	0.111992165
24	0x3dbb6c92	0.091515675
25	0xbbe06407	-0.0068478617
26	0x3e516d86	0.20451936
27	0xbd8848c3	-0.06654503
28	0xb9d1442e	-0.00039914384
29	0x3da396c6	0.07987742
30	0x3e2ea68a	0.17055717
31	0x3c358b7b	0.011080618
32	0xbe77a801	-0.24185182
33	0x3c932108	0.017960086
34	0x3d193e09	0.037412677
35	0x3dc2dc39	0.095146604
36	0x3dc71b05	0.097219504
37	0xbda37222	-0.079807535
38	0xbcce0bc5	-0.025152097
39	0xbc9dcebf	-0.019263623
40	0xbd8e0a19	-0.0693552
41	0x3d864e97	0.065579586
42	0x3d6ce85f	0.057838794
43	0x3d2c2682	0.04202891
44	0x3da94042	0.08264209
45	0x3e23b3e2	0.15986589
46	0xbd3d5015	-0.04621895
47	0xbcbf3e15	-0.023345033
48	0x3e076045	0.13220318
49	0xbe662efa	-0.22478858
50	0x3e0a80b3	0.13525657
51	0xbb80963f	-0.0039241607
52	0x3da08a1f	0.078388445
53	0xbe35593c	-0.17709821
54	0x3e2a58ba	0.16635409
55	0xbda01afb	-0.07817646
56	0xbd0d67f2	-0.034522958
57	0xbdc7d722	-0.0975783
58	0x3dc2a581	0.095042236
59	0x3da9e950	0.08296454
60	0xbdf5276d	-0.119704105
61	0xbdc50403	-0.09619906
62	0xbce240fe	-0.027618881
63	0xbd54bc44	-0.051937357
64	0xbdf47ce3	-0.11937883
65	0x3e121b3b	0.142682
66	0x3d5a7a95	0.05333956
67	0x3d6e0219	0.05810747
68	0xbd97a9e1	-0.07405449
69	0x3d0efa1e	0.0349065
70	0xbd320be2	-0.043468364
71	0x3d574b01	0.052561764
72	0xbdc7aa43	-0.09749272
73	0xbe07bd2e	-0.1325576
74	0x3d95b183	0.07309248
75	0x3d9cefe7	0.07662945
76	0x3d950257	0.07275837
77	0x3d9e66fd	0.07734487
78	0xbd919dc3	-0.07110169
79	0x3c435e3b	0.011924322
80	0xbdb11c06	-0.08647923
81	0x3d95fbad	0.07323394
82	0x3d481837	0.048851218
83	0xbc817fbe	-0.015807983
84	0x3d3a0308	0.045413047
85	0xbd7f61c0	-0.06234908
86	0x3d5c7878	0.053825825
87	0x3dacf936	0.08445971
88	0xbcf78986	-0.030216943
89	0x3d8424c6	0.064523265
90	0x3de80888	0.11329752
91	0xbd7a38d7	-0.061089363
92	0x3d89b1e2	0.067233816
93	0x3e08670b	0.13320558
94	0xbd1cee88	-0.03831342
95	0xbc58ecb8	-0.013240032
96	0xbcba887b	-0.022770157
97	0xbcf1b488	-0.02950503
98	0x3e0ac608	0.13552105
99	0x3dd01917	0.101610355
100	0x3e11500b	0.1419069
101	0xbe25c631	-0.16188885
102	0xbe2c1d28	-0.16807997
103	0xbd27cd81	-0.04096747
104	0xbd8ee07a	-0.06976409
105	0x3d899ae7	0.067189984
106	0xbc91d468	-0.017801479
107	0x3dae6ace	0.08516465
108	0x3d8cbf41	0.06872416
109	0xbb831468	-0.0040002353
110	0xbc1f184a	-0.009710381
111	0xbcdcce18	-0.026953742
112	0xbd8e4425	-0.06946591
113	0x3c94dc79	0.018171536
114	0xbd5d77bf	-0.054069277
115	0xbd8d8cc6	-0.06911616
116	0xbdc0e881	-0.094193466
117	0xbb74a316	-0.0037328652
118	0xbd6de16a	-0.0580763
119	0x3d269a8c	0.04067473
120	0xbc86b397	-0.016443057
121	0xbcc34b77	-0.023839695
122	0xbe1590ea	-0.14606062
123	0xbd73ee53	-0.059553456
124	0xbddec38a	-0.1087714
125	0xbe22aedd	-0.15887018
126	0x3cd08c9a	0.025457669
127	0xbe38a043	-0.18029885
128	0x396b21db	0.00022423959
129	0x3c049c11	0.00809385
130	0x3d7be1b1	0.061494533
131	0x3d9886a1	0.074475534
132	0xbc39202e	-0.011299176
133	0x3dac2aa1	0.08406568
134	0x3d5f10fe	0.054459564
135	0x3c84666f	0.016162125
136	0x3e0b372c	0.13595265
137	0x3d47fb5f	0.04882371
138	0xbd0260ac	-0.031830475
139	0x3c704b75	0.014666428
140	0x3dd45ff4	0.10369864
141	0xbd4d8593	-0.050176214
142	0xbcc5b8dc	-0.024136
143	0xbcdd1dde	-0.02699178
144	0xbd6434bd	-0.055714358
145	0xbdf6ab47	-0.12044387
146	0xbe2214f5	-0.15828307
147	0x3b3253af	0.0027210524
148	0xbe0d692c	-0.13809651
149	0xbd6a0787	-0.057136085
150	0xbde904a6	-0.1137784
151	0xbd01b534	-0.03166695
152	0x3d887b1d	0.06664107
153	0x3c7433dd	0.014904943
154	0x3c7874e0	0.015164584
155	0xbce7656e	-0.028246608
156	0x3e01e833	0.12686233
157	0x3da17730	0.07884061
158	0xbd48a894	-0.048988894
159	0xbd8ca26c	-0.06866917
160	0xbd789a07	-0.060693767
161	0xbe00505e	-0.12530658
162	0xbd19bf07	-0.037535693
163	0x3d4268fa	0.047463395
164	0xbcbe6f75	-0.023246506
165	0xbd455349	-0.04817513
166	0xbdb6c619	-0.08924503
167	0x3d2f6ac3	0.042826425
168	0xbd0356bf	-0.03206515
169	0xbd8d58d4	-0.06901708
170	0xbdaa0569	-0.08301813
171	0x3deae2d1	0.11469043
172	0xbd5cfb6b	-0.05395071
173	0x3bc0c838	0.005883243
174	0xbdbbc436	-0.09168284
175	0x3e09f62b	0.13472812
176	0x3e00c284	0.12574202
177	0x3bad202e	0.005283377
178	0xbd04de30	-0.032438457
179	0xbd96408e	-0.073365316
180	0xbbcbde67	-0.006221581
181	0xbd918455	-0.071053185
182	0xbd46e20c	-0.04855542
183	0xbde25a06	-0.11052327
184	0xbbd1d2d5	-0.006403307
185	0x3a2147fc	0.0006152389
186	0xbcf3c47d	-0.029756779
187	0xbdf1280d	-0.11775217
188	0x3da06ed9	0.078336425
189	0x3e0ef3cc	0.13960189
190	0xbd3c7aaa	-0.04601542
191	0xbdb7a061	-0.08966137
192	0xbd6af6aa	-0.057364143
193	0xbe1263ba	-0.14295855
194	0xbe262f76	-0.16229042
195	0xbd83806c	-0.06420979
196	0xbcfc2885	-0.03078104
197	0xbd7336f5	-0.059378583
198	0xbd5abbeb	-0.05340187
199	0x3e2bbebe	0.16771981
200	0xbe000a4b	-0.12503926
201	0x3d21ffbd	0.03955053
202	0x3dd780a2	0.10522582
203	0x3bdb2a27	0.0066883746
204	0x3e0fc0c9	0.14038385
205	0xbd947172	-0.072482005
206	0x3d371c12	0.044704504
207	0x3dbdce5a	0.09267874
208	0xbc6cae1d	-0.014445809
209	0x3d3de0c1	0.04635692
210	0x3cf5ca67	0.03000374
211	0xbdd00d05	-0.10158733
212	0xbdf1527a	-0.11783309
213	0x3e548884	0.20755202
214	0x3e367855	0.1781934
215	0x3d232955	0.03983434
216	0xbcaff0a4	-0.021477051
217	0x3d707797	0.0587078
218	0xbd8dc820	-0.069229364
219	0x3d76c8ea	0.0602502
220	0xbd0525b2	-0.032506652
221	0xbcab7458	-0.0209295
222	0xbce90fea	-0.028449971
223	0x3d044c43	0.03229929
224	0xbd4711f4	-0.048601106
225	0x3c8ef1c6	0.017449271
226	0x3d8f4ec8	0.06997448
227	0x3bb9b4a5	0.0056672865
228	0xbcba15d3	-0.022715485
229	0x3cea19a7	0.028576685
230	0x3c5ff87b	0.013670082
231	0x3d46a6a9	0.048498783
232	0xbe2a6946	-0.16641721
233	0x3bc822bf	0.0061076577
234	0xbdffb14f	-0.12484991
235	0xbda4051d	-0.08008788
236	0x3e2481f3	0.16065197
237	0x3e37d603	0.17952733
238	0xbe1fea87	-0.15616809
239	0x3d9f4209	0.07776267
240	0xbd9b07d5	-0.07569853
241	0xbda54183	-0.08069136
242	0xba672123	-0.00088168884
243	0x3e227c03	0.15867619
244	0xbde3ee20	-0.11129403
245	0xbd402346	-0.04690864
246	0x3ca0e4d8	0.019640371
247	0xbd53e68d	-0.051733542
248	0xbbfd4abc	-0.0077298563
249	0x3d260acf	0.04053765
250	0x3d82eac9	0.06392438
251	0x3dc0f9ff	0.09422683
252	0xbde5d280	-0.1122179
253	0x3dcc83d4	0.09986082
254	0x3e044fa1	0.12921001
255	0xbcdbd19c	-0.026833348

rnn.bias_ih_l1 f4 [192]
0	0xbe28cead	-0.1648509
1	0x3c8e8200	0.017395973
2	0x3d4ec92b	0.050484817
3	0x3d49c7a8	0.049262673
4	0x3d312700	0.043250084
5	0x3da261d6	0.07928817
6	0x3ba9418c	0.0051652845
7	0xbd9ab333	-0.07553711
8	0xbdcc8fa0	-0.09988332
9	0x3ddd99d9	0.1082036
10	0xbd15f8c4	-0.036614195
11	0xbdc02b69	-0.0938328
12	0x3da3582d	0.079758026
13	0xbce5c4bc	-0.028047912
14	0xbe1efbd4	-0.15525752
15	0xbd9a4be7	-0.075340085
16	0xbd76a107	-0.06021216
17	0x3de24c33	0.1104969
18	0x3dafa0bd	0.0857558
19	0xbd716530	-0.05893439
20	0xbd469355	-0.04848035
21	0x3cfac0f9	0.030609595
22	0xbdbc9adc	-0.092092246
23	0xbd96e636	-0.07368128
24	0x3cea8bfd	0.028631205
25	0xbe123fa8	-0.14282095
26	0xbd149c17	-0.03628167
27	0xbd893a75	-0.06700603
28	0xbc67a817	-0.014139197
29	0x3db3faf7	0.08788102
30	0x3d456b6d	0.048198152
31	0x3e0ebd0e	0.13939306
32	0x3dc5f527	0.096659
33	0xbded8658	-0.1159789
34	0xbd40c8eb	-0.04706661
35	0xbcb82ebd	-0.022483224
36	0xbd9aa9f3	-0.075519465
37	0xbc219753	-0.009862739
38	0x3d402b14	0.046916083
39	0xbe05490f	-0.13016151
40	0x3dd8440f	0.10559856
41	0xbd11a74d	-0.03555994
42	0x3e399801	0.18124391
43	0xbd48e456	-0.049045883
44	0x3dedfb2b	0.11620172
45	0xbd24e654	-0.04025872
46	0xbcf47969	-0.02984305
47	0x3e28b414	0.16474944
48	0x3c8bbd53	0.01705805
49	0xbcf3b238	-0.029748067
50	0xbb41cafb	-0.0029570449
51	0x3db0fc0c	0.08641824
52	0xbcdffc65	-0.02734203
53	0xbd7a2944	-0.06107451
54	0x3db5e8cc	0.08882293
55	0xbdbacfd2	-0.0912167
56	0x3d2810f8	0.041031808
57	0x3df5adc7	0.11996036
58	0xbceff877	-0.029293282
59	0x3d9ad1ae	0.075595245
60	0xbdc23329	-0.09482414
61	0x3df484e9	0.11939413
62	0xbaf8baff	-0.0018976628
63	0x3dd8b976	0.10582249
64	0xbec8c548	-0.39213014
65	0xbe7e643b	-0.24842922
66	0xbe5208fe	-0.20511243
67	0xbe51b497	-0.20479046
68	0xbe077eb2	-0.13231924
69	0xbe8e86d5	-0.27837244
70	0xbead0eb3	-0.33800277
71	0xbe79b884	-0.24386793
72	0xbe00f1da	-0.12592259
73	0xbe855f93	-0.2604948
74	0xbe6a25ed	-0.2286603
75	0x3dd337e1	0.103133924
76	0xbe608e94	-0.21929389
77	0xbe1bb731	-0.152066
78	0xbdb7c14d	-0.08972416
79	0xbe419224	-0.18903404
80	0xbe7cecff	-0.24699782
81	0xbda03a99	-0.078236766
82	0xbd3da176	-0.04629656
83	0xbe2060fa	-0.15661994
84	0xbd8a24f6	-0.06745331
85	0xbe0a0310	-0.13477731
86	0xbe70f84a	-0.23532215
87	0xbdc62c10	-0.09676373
88	0xbe171d54	-0.14757282
89	0x3d845ae0	0.064626455
90	0xbdb3c4d1	-0.08777774
91	0x3d25c27d	0.04046868
92	0xbe2c061f	-0.1679921
93	0xbd0b50e4	-0.03401269
94	0xbd82d2c2	-0.06387855
95	0xbe360395	-0.17774804
96	0xbe8fa436	-0.2805497
97	0xbd3648f7	-0.04450318
98	0xbe6493be	-0.22321984
99	0xbe5d190c	-0.21591586
100	0xbe5effe2	-0.21777299
101	0xbd2f9f92	-0.042876787
102	0xbe11cfcc	-0.14239424
103	0xbe30e843	-0.17276101
104	0xbdb6d942	-0.089281574
105	0xbe4fe42d	-0.20301886
106	0x3d102ffe	0.03520202
107	0xbe1f58c2	-0.15561202
108	0x3d862c3f	0.06551408
109	0xbde305bf	-0.1108508
110	0xbd19b526	-0.037526272
111	0xbb8beca4	-0.004270153
112	0xbe9921e5	-0.29908672
113	0xbe9036c3	-0.2816678
114	0xbd002b1e	-0.03129112
115	0xbda5752f	-0.080789916
116	0xbd9f2e91	-0.07772554
117	0xbd37a54c	-0.044835374
118	0xbdef6898	-0.116898715
119	0xbe8c61e9	-0.2741845
120	0x3cdcaa59	0.026936697
121	0xbe55fedb	-0.20898001
122	0xbe2dc7c7	-0.1697074
123	0xbe1fb77b	-0.15597336
124	0xbc90f740	-0.017696023
125	0xbe141ec5	-0.14464863
126	0xbdbb24f3	-0.09137907
127	0x3dedc50f	0.116098516
128	0x3c6acac2	0.014330568
129	0x3e087cce	0.13328859
130	0xbdfcdaaa	-0.12346394
131	0xbda9d104	-0.0829182
132	0x3e0d508d	0.13800259
133	0x3ba46c60	0.005017802
134	0xbcd3297f	-0.025776623
135	0x3ddda8b1	0.10823191
136	0xbdd560f6	-0.104188845
137	0x3def8325	0.11694936
138	0xbe2ca1d1	-0.16858603
139	0x3ca62416	0.020280879
140	0x3b84df34	0.004054928
141	0xbd963aa4	-0.073354036
142	0xbac25211	-0.0014825483
143	0xbd81f077	-0.06344693
144	0xbd29d36c	-0.041461393
145	0x3e21408b	0.15747277
146	0x3ce6762e	0.028132524
147	0xbe15df0d	-0.14635868
148	0xbdc901ad	-0.09814773
149	0xbcf0aa35	-0.029378036
150	0xbe0d4ac6	-0.13798055
151	0xbe0282c4	-0.12745196
152	0xbdafde6b	-0.08587345
153	0x3c88b199	0.016686248
154	0xbd9256f1	-0.07145489
155	0x3c14de74	0.00908624
156	0xbd5049d4	-0.050851658
157	0xbce6366d	-0.028102124
158	0x3e15c291	0.14625002
159	0x3d076472	0.033054776
160	0x3d4b5d66	0.04964962
161	0x3e0fc575	0.14040168
162	0x3bf2d546	0.007410678
163	0xbce0f6c1	-0.027461411
164	0x3cdb798f	0.026791362
165	0x3c99786d	0.018734181
166	0x3c29d1cf	0.010364964
167	0xbdf6fc47	-0.12059837
168	0xbd53b253	-0.051683735
169	0x3cda7db7	0.026671274
170	0xbd3da1ba	-0.046296813
171	0xbe07264b	-0.13198201
172	0x3d7e8b82	0.062144764
173	0x3d761e5c	0.060087547
174	0xbdd0ec3c	-0.10201308
175	0xbbbd228a	-0.0057719396
176	0xbd5395df	-0.0516566
177	0xbd6357c6	-0.05550363
178	0x3dc2ed68	0.09517938
179	0x3cb6ebd1	0.022329243
180	0x3bc4cdcb	0.0060059777
181	0xbdf43cdf	-0.11925673
182	0x3d735ddf	0.059415694
183	0x3d182950	0.037148774
184	0xbe1c5763	-0.1526771
185	0xbe1800d1	-0.14844061
186	0xbd9f0569	-0.07764704
187	0xbd1f71f9	-0.038927052
188	0xbe2b7c8e	-0.16746733
189	0x3ca38ab4	0.0199636
190	0xbdd8153a	-0.10550924
191	0x3e007140	0.12543201

rnn.bias_hh_l1 f4 [192]
0	0x3c761f07	0.015022046
1	0xbd2df98b	-0.04247431
2	0xbdda5f15	-0.10662667
3	0xbcbf645d	-0.023363287
4	0x3ddbcda5	0.10732583
5	0x3e017eed	0.12646075
6	0xbd85bd50	-0.06530249
7	0x3c8e2fb1	0.017356725
8	0xbd79cd80	-0.060986996
9	0x3e0a6b3b	0.13517468
10	0x3daa5a83	0.08318045
11	0xbdaa507f	-0.08316135
12	0xbcde3a08	-0.02712728
13	0x3d3e474d	0.046454716
14	0x3d6ffec6	0.05859258
15	0x3dfa02e6	0.12207584
16	0xbc9f6ed0	-0.01946202
17	0xbdc12713	-0.09431281
18	0x3df9b29b	0.121922694
19	0x3d80ea9c	0.06294748
20	0xbd7c9bb2	-0.06167192
21	0x3d0231e1	0.03178585
22	0xbd6c26e6	-0.057654284
23	0x3db88077	0.09008878
24	0x3b563577	0.0032685676
25	0xbdb92dcd	-0.09041939
26	0xbc055f21	-0.008140356
27	0xbdb212f9	-0.08695025
28	0x3d905926	0.07048254
29	0xbddb8f3f	-0.107206814
30	0xbdb3cc01	-0.08779145
31	0x3ae49f6c	0.0017442531
32	0x3df288cd	0.11842499
33	0xbdc10392	-0.09424509
34	0x3da0c255	0.07849566
35	0x3d21d6df	0.039511558
36	0x3d9fcf23	0.0780318
37	0xbdeaf27b	-0.11472031
38	0x3b3dfc3e	0.002898946
39	0xbe04bc35	-0.1296242
40	0x3dd76571	0.10517395
41	0xbdb6cc19	-0.08925647
42	0x3e436f79	0.19085492
43	0xbc9792f2	-0.018502686
44	0x3c8e5216	0.017373126
45	0x3cd735dd	0.026270801
46	0x3d45165a	0.04811702
47	0xbd0f4a52	-0.034982987
48	0xbd4c9737	-0.049948897
49	0xbd1d527b	-0.038408738
50	0xbd49be58	-0.04925379
51	0x3dbe09c8	0.092792094
52	0xba7a7708	-0.000955448
53	0x3c5c54eb	0.01344798
54	0x3d9aa88e	0.075516805
55	0xbd3223f7	-0.04349133
56	0x3d8f82c5	0.07007364
57	0xbcec0cbc	-0.028814666
58	0x3cb6cd9d	0.02231484
59	0xbd8da360	-0.06915927
60	0xbd9fbbeb	-0.077995144
61	0x3da2506d	0.07925496
62	0xbb589b99	-0.0033051728
63	0x3d0a9c75	0.033840615
64	0xbe6d9aa0	-0.23203516
65	0xbe101289	-0.1406957
66	0xbe339074	-0.17535573
67	0xbecc44b5	-0.3989617
68	0x3d5ef05f	0.054428454
69	0xbe8a7f3a	-0.2705019
70	0xbe61a623	-0.22036032
71	0xbc2f1151	-0.010685281
72	0xbdd8311d	-0.105562426
73	0xbebafc02	-0.36520392
74	0xbe2378c4	-0.15964037
75	0xbc4de3ad	-0.012566489
76	0xbdec1389	-0.115271635
77	0xbe128a0f	-0.14310478
78	0xbd52d858	-0.051475853
79	0xbd0e3e46	-0.034727357
80	0xbe23bbbe	-0.15989587
81	0x3ca86f91	0.020561012
82	0x3daf5b9e	0.085623965
83	0xbd8eb227	-0.069675736
84	0x3d89f404	0.067359954
85	0xbe6ed1f2	-0.23322275
86	0xbe68d2a8	-0.22736609
87	0xbd65ede9	-0.056135092
88	0xbe0536df	-0.13009213
89	0xbdc26bf2	-0.09493245
90	0xbe839327	-0.25698206
91	0x3d86ec10	0.06587994
92	0xbd4c7e69	-0.04992524
93	0xbe4a25eb	-0.19741027
94	0xbdd3efd8	-0.10348481
95	0xbe80f1b9	-0.2518442
96	0xbe4b3e47	-0.19847976
97	0x3c51769d	0.012784627
98	0xbe6d0e41	-0.23149969
99	0xbeba9237	-0.36439678
100	0xbe52fac8	-0.20603478
101	0xbe080ba2	-0.13285688
102	0xbe5709db	-0.20999853
103	0xbdbeb12f	-0.09311139
104	0xbe6b9888	-0.23007405
105	0xbead3c4d	-0.33835068
106	0xbd90ad4d	-0.070643045
107	0xbdca4041	-0.09875537
108	0x3db21f45	0.086973704
109	0xbd601e45	-0.054716367
110	0xbda90256	-0.08252399
111	0xbe0955e2	-0.13411668
112	0xbe46df38	-0.19421089
113	0xbea9e428	-0.33181882
114	0xbe101fa7	-0.14074574
115	0xbd80905e	-0.06277536
116	0xbb867782	-0.004103602
117	0xbdfc437f	-0.12317561
118	0xbe782b60	-0.24235296
119	0xbe0672c3	-0.13129716
120	0xbdff7d28	-0.124750435
121	0xbd667f73	-0.05627389
122	0x3c20d9b2	0.009817528
123	0xbe178b2f	-0.14799188
124	0xbe0551e0	-0.13019514
125	0x3ceb7a9a	0.028744984
126	0xbdbaa461	-0.09113384
127	0x3cb29dbb	0.021803727
128	0x3d6a7756	0.057242714
129	0x3bb0521a	0.005380881
130	0x3b9f5e90	0.0048635677
131	0xbe0d6322	-0.13807347
132	0xbd2a5d75	-0.041593034
133	0xbd278f48	-0.040908128
134	0xbdc27ed7	-0.09496849
135	0x3dcd33a8	0.10019618
136	0x3da146a9	0.078748055
137	0x3dfe5ebd	0.12420414
138	0xbe3991c3	-0.1812201
139	0x3db884eb	0.09009727
140	0xbc7fe39c	-0.015618231
141	0xbdcb100c	-0.0991517
142	0xbd7f9888	-0.062401325
143	0xbe03ed02	-0.1288338
144	0xbd1adf9a	-0.0378109
145	0xbd689d2c	-0.056790516
146	0x3c966153	0.018356955
147	0xbd9c03d8	-0.07617921
148	0x3d552b84	0.052043453
149	0x3db48226	0.08813886
150	0x3ce2ea7c	0.027699701
151	0xbd3cfed9	-0.04614148
152	0xbd1a2a6f	-0.037638124
153	0x3b451595	0.0030072678
154	0x3d5071f7	0.050889935
155	0xbc17781a	-0.009244943
156	0x3da9f921	0.08299471
157	0x3e14a364	0.14515454
158	0x3ded1f1c	0.11578199
159	0xbba438d9	-0.0050116596
160	0xbd1afdeb	-0.03783981
161	0x3d70e3db	0.05881105
162	0xbdd58fbf	-0.10427808
163	0x394ae6c9	0.00019350195
164	0x3dd54be0	0.10414863
165	0xbdeb2b8e	-0.11482917
166	0xbd816d65	-0.063196935
167	0xbdef244d	-0.11676846
168	0x3d3184c5	0.04333951
169	0xbdd30263	-0.103031896
170	0xbded7f7d	-0.11596582
171	0xbe2e7398	-0.17036283
172	0x3da22f8c	0.07919225
173	0xbd43db21	-0.0478164
174	0x3a45bd05	0.000754312
175	0x3dc7588f	0.09733688
176	0xbddcea61	-0.10786892
177	0xbd9d3b4c	-0.076773256
178	0x3cab1aac	0.020886742
179	0x3d8e2a62	0.06941678
180	0xbd994aef	-0.074849956
181	0xbde5637f	-0.11200618
182	0x3da6a1a8	0.08136302
183	0x3d1f9aa9	0.038965855
184	0x3d478967	0.04871502
185	0xbcdbf7d3	-0.02685157
186	0x3ca3e3d6	0.020006102
187	0xbd82931f	-0.06375717
188	0xbe252690	-0.16127992
189	0xbc322f3a	-0.0108755175
190	0xbd9b9a94	-0.07597843
191	0xbd33b512	-0.043873854
