林锐炜/week06/FaceImageRNN/face_image_rnn_RNN.pth (torch, 185778 bytes, 22 tensors)

weight_ih_l0 f4 [64, 64]
00000000: cc84 39be 9fb0 4dbd 2f1a 4abb 5a0f 92bd
00000010: 6779 dcbd f18a 85bc 66ea 32bd b57d ebbd
00000020: 5019 f9bc 9a6c 023e 09b5 3bbd d0de cabb
00000030: f606 f33b 2f65 cb3d aff1 babd 68f3 e93d
00000040: 0cbe f13c ad44 56bd 5caf dfbd d2ca a33d
00000050: 298a 103d 4a19 d73c dc56 eb3b 2e40 6dbc
00000060: 1534 183d ae8d c83d e3b4 ddbd 3d7a 3fbd
00000070: 1582 6a3d 4dca 4dbd a8b1 b9bd 5de1 393d
00000080: d6dc a7bd 8ed6 8f3d c51b b03d b5f6 0fbd
00000090: b0de f73d 05eb 543d 8687 6b3d 8aea b3bd
000000a0: e9ad 28bd 6db0 34bd ceb2 f93d 464e e83d
000000b0: e851 d43d abbc 1a3e d375 143e 08bc a4bb
000000c0: cde6 93bd a5e1 2bbd 9c04 b43d df43 aebd
000000d0: 4f70 b2bd 822d 013e 3391 b43d 5e45 95bd
000000e0: f8b1 57bd 9109 6dbd 5a8a 4fbc 3015 82bb
000000f0: a792 223e d410 0f3e bcf0 e93d 8dc8 f23b
00000100: 8e29 a53d 4d38 c23d df93 53bd ff6c c3bb
00000110: c9c3 4c3c 8893 e2bd b651 a33c 2be1 c0bd
00000120: edf2 c33c a138 f63d 7e43 b53d a972 483c
00000130: b1b9 9f3d 909d d93d 5b39 993d a42d 9abd
00000140: dd9b cc3d f453 d8bd f689 cb3c e71f b1bd
00000150: 61bf ad3d d74b 143e 6b56 c23d 962a 6dbd
00000160: e0db d83c 0795 10bd 1f89 58bc 8060 273d
00000170: 319d 08be 8542 fdbc 3a78 bd3d 86ee b73d
00000180: 37be e4bd 0360 02bc 1f1f 7fbd 2652 503d
00000190: d193 1a3d 1a3c 16be 63d0 c63d 9295 753d
000001a0: cc0e cc3d 08ab a73d 01a4 44bd 46e1 d9bd
000001b0: 698b cf3d 900b c2bd eb2e 92bc 047c d6bd
000001c0: 08b7 903d d9fa eabd 1d52 8c3c 5f69 28be
000001d0: 32a8 2f3c 1999 22be da89 593d 0271 a9bd
000001e0: b469 26be ea50 efbd 4c1e b03c ba92 2dbe
000001f0: 7fb3 0cbc bf74 3ebe 5f6c edbd db87 83be
00000200: 25b4 a1bd db42 e8bd 04eb 8bbd 3f93 743c
00000210: 6fde 13be 0d36 8cbd be2b 393c f35b db3d
00000220: edf7 ca3d 7595 c43c 0a0a c3bd 0661 ab3b
00000230: 761c 183e d791 9abd 7a88 60bd 9859 eebc
00000240: 86a8 f53d ce8a 953d 5d05 953d 2951 c63d
00000250: daba 92bd de16 f9bd 8b8e 133d 9fa1 e2bd
00000260: 19f9 873d ea2f 9a3d 87a4 673d de96 d03d
00000270: db96 9bbd 398a df3d 6a03 a9bd dcd3 77bb
00000280: e6ac dc3c bdce 4fbd df2d 973d c494 4f3d
00000290: 3e67 cdbd 6fde dfbb 5e01 b6bd 3ccd a1bd
000002a0: 0b7c edbd 688e f5bd 89ef b6bd bfcd b8bd
000002b0: ae20 6fbd 8fe7 3a3c 71f8 5ebd ae13 f1bc
000002c0: 531f 66bd 0b12 86bd f128 703c 9f44 49bd
000002d0: a5a5 f13d 1f5d 893c 819c c5bc 33d0 ad3d
000002e0: d4f2 40bd ccac 6f3d c318 fdbd 9781 573d
000002f0: 1477 72bd ea80 91bd 758e 93bc 9c32 773d
00000300: 586a cabc 1d30 573c edcc ff3d 74fe 523d
00000310: f6d9 d03b 113b c23d 0976 183d 57ba fbbd
00000320: cbbd 693c f36d 0dbe 6cf6 92bc beb2 a0bd
00000330: 5d85 a93d 0919 ec3c 9144 073d 4cc0 3cbd
00000340: a25e aa3d e915 debd e99f 433d 3b12 c93d
00000350: e258 22bc 2e7b 5ebd fc9d 0ebd d2c9 1dbd
00000360: b738 9d3d 957c 4a3b 737d a43d 73e4 5e3d
00000370: 2061 ac3d 2e36 91bd 8ffd 55bd f78c 5abd
00000380: bab8 ca3c 53ad 9fbd 0fa8 b63d d038 d8bd
00000390: 9924 873d c0b9 183d a794 a43d eb1d c6bd
000003a0: 6322 cfbd cbb4 fe3c dc18 66bd cc96 c4bc
000003b0: 16d1 6ebd acb3 e0bb f0e8 8fbd 8c70 563d
000003c0: 869e 4f3d 3d0d 983c e1af c1bd 3463 35bd
000003d0: 7e74 c0bd d9eb 8c3d e476 26bc e169 62bd
000003e0: 380e d03d 3f75 5bbd e095 223e f173 1e3e
000003f0: 43cf 1b3e 6a5b 643e 472b fc3d c53b fc3d
-0.18117064 -0.050217267 -0.003083836 -0.07131834 -0.10765343 -0.016301604 -0.04368057 -0.11498586
-0.030407578 0.1273674 -0.045826945 -0.006191112 0.0074166013 0.099314086 -0.09128129 0.11423379
0.029509567 -0.052311588 -0.10922119 0.07997669 0.03528801 0.026257176 0.0071819853 -0.014480634
0.037159044 0.09792648 -0.10825517 -0.046747435 0.057252962 -0.050241757 -0.09067088 0.04538094
-0.08196418 0.07023345 0.085990466 -0.035147388 0.12103021 0.051981945 0.057502292 -0.08784969
-0.04118148 -0.044113565 0.121923074 0.113430545 0.10367185 0.15111034 0.14498071 -0.005027298
-0.07221756 -0.04196324 0.08789942 -0.08509039 -0.087128274 0.12615016 0.08816757 -0.07288621
-0.05265996 -0.05787045 -0.012667263 -0.003969811 0.15876256 0.13971263 0.114228696 0.0074091614
0.080645666 0.09483395 -0.051654693 -0.005963921 0.012497851 -0.110632956 0.019936424 -0.094179474
0.023919547 0.1202252 0.08850764 0.012234368 0.0779909 0.10625756 0.07481643 -0.075282365
0.09990666 -0.10562888 0.024846058 -0.08648663 0.08483768 0.14482056 0.09489139 -0.05790194
0.026472032 -0.035298374 -0.013216286 0.040863514 -0.13341214 -0.030915508 0.09251447 0.089810416
-0.11169093 -0.007957461 -0.06228554 0.050859593 0.037738625 -0.14671364 0.09707715 0.059957094
0.0996376 0.081869185 -0.04800797 -0.106386706 0.10134012 -0.094748616 -0.017844638 -0.10472873
0.070661604 -0.11473627 0.017128998 -0.16446446 0.010721253 -0.15878715 0.05310998 -0.08273508
-0.1625126 -0.11685355 0.021498822 -0.16950503 -0.008587717 -0.18599223 -0.11592936 -0.25689587
-0.07895688 -0.11340877 -0.06831935 0.014927684 -0.1444032 -0.06846247 0.011301933 0.10710897
0.09910569 0.023997048 -0.09523399 0.005230072 0.14854607 -0.07547348 -0.054817654 -0.029095456
0.11995034 0.073018655 0.072764136 0.09683449 -0.07164545 -0.12162565 0.03602461 -0.11065983
0.066393085 0.0752867 0.05655339 0.10185026 -0.07597133 0.10915036 -0.08252604 -0.0037815487
0.026937913 -0.05073427 0.07381796 0.050678983 -0.100294575 -0.006831936 -0.088869795 -0.079004735
-0.11595925 -0.119900525 -0.089324065 -0.09023618 -0.058380775 0.011407747 -0.05443615 -0.02942833
-0.056182217 -0.0654641 0.014658199 -0.049137708 0.11799172 0.016768036 -0.024122478 0.084869765
-0.04710658 0.0585144 -0.123582385 0.05261382 -0.059195593 -0.071046665 -0.018012265 0.060351
-0.024708912 0.01313403 0.12490258 0.051512197 0.006373639 0.09483922 0.037221942 -0.12291401
0.014266442 -0.13811474 -0.017939769 -0.07846592 0.0827739 0.028820531 0.033024374 -0.046081826
0.08318831 -0.10844023 0.047759924 0.0981793 -0.009908887 -0.054316692 -0.034818634 -0.03852255
0.07676833 0.003089701 0.0803174 0.054417085 0.084169626 -0.07090412 -0.052243765 -0.05335709
0.024746288 -0.07796731 0.089187734 -0.10557711 0.06598777 0.03728652 0.08036166 -0.09673675
-0.101139806 0.031092068 -0.05617605 -0.023997687 -0.05830487 -0.006857356 -0.07026851 0.052353427
0.05068829 0.018561 -0.09457374 -0.04428406 -0.09397219 0.06880922 -0.010160182 -0.055276755
0.10158962 -0.05357861 0.15877485 0.15473916 0.15215783 0.22300497 0.12312942 0.12316088

weight_hh_l0 f4 [64, 64]
00000000: f844 0dbe d7b7 22bd 2df0 6d3d 166a 133e
00000010: 40f6 debd 1782 e5bc 3fba d93c 9409 ffbb
00000020: 6e93 083e 35be 70bd 4ad9 ad3d 4c1f 58bd
00000030: 763f 56bb b466 18bd 47ef b1bd 4253 613d
00000040: 14cb 87bd 1257 03be 37f0 e9bd c585 b4bd
00000050: 7708 923d 21e9 c4bd d1d1 7dbd 791d d7bd
00000060: d320 993d b68b b8bd 758b 3c3b 90e1 f3bb
00000070: c288 7fbd cf75 25be 4ff3 24bd 1ac0 353c
00000080: 3769 0f3e 5f42 21bd 9d5a 96bd b2ef 53bd
00000090: 5ea9 d33c f115 013e 651c f43c 7037 fcbd
000000a0: a5b3 aabd 2c8a 52bd 2efe 513d acbe a73d
000000b0: 21f9 3d3d c359 a8bc 425b aa3d c793 b83d
000000c0: 308f e13d 483a 1a3e a4b0 ffbd d2c4 44bd
000000d0: 660d 8fbd 3f60 a53d cf6e 23be 6342 52bd
000000e0: 58f2 abbc 1f69 0fbd d3b8 dd3c 6c23 e13d
000000f0: 9858 343e cbaf 6dbd 89ce 993c 58fd 47bd
00000100: 56e2 9eb9 2a7b 933d 45ba 9b3d 820a aa3d
00000110: b7c5 d2bc e37e 5f3d e11e 233d bc71 8abc
00000120: 67d3 083e 52b1 4c3c b3c8 943d 1326 a7bc
00000130: 263b ef3d ef1d afbd cbb5 cabd bfbd 6abd
00000140: 3bf6 d9bd a1e1 5b3d 5df2 d53c 30bf 303d
00000150: 618e 4b3d 5325 b5bd 2c52 d83c 0877 95bd
00000160: f3e6 2c3e 9564 723d eb7d e4bd 726c f4bd
00000170: e4de b73a 2476 c4bc 2fed e43c 31fc 043d
00000180: bd44 c43c a335 5ebc 6d89 4ebd aed6 df3c
00000190: e928 3d3c d399 a6bd 83e9 133b 601f bebd
000001a0: f55d 86bd b18d 343d a89f a73b 0f68 10be
000001b0: ed21 94bd f0a6 5dbd 468c a9bd dab3 853d
000001c0: 3a41 ffbd da87 3f3e 538c 63bc 7083 b9bd
000001d0: 7e42 ae3d 236d 54bd 166e 18bd fdb7 743c
000001e0: fc31 ed3d 656e 213d 77da 6fbb 5bd8 4bbc
000001f0: 8b35 de3b e962 f8bc 6890 5fbd ae6a 0a3d
00000200: 502f 84bd 89a8 34be d414 713d a153 023c
00000210: b6b6 af3d 0da5 ce3d f940 7e3d d1b7 f8bd
00000220: a249 3c3d 6da9 4cbd aa68 c7bb be3a 103e
00000230: a474 e13d aa90 003d 57ac b33d 5c3c 0dbe
00000240: 1247 333e c4ca df3c 5ffd 013c 6706 99bd
00000250: 2bac a0bd 8df9 0dbe e498 fa3d 0986 0c3d
00000260: 68cb a9bc 66d3 ba3b 8039 01be ae84 87bd
00000270: c9cd 623d 4ff5 9e3c 86f6 97bd 9521 94bc
00000280: 7f5b de3d ecf1 1abe 8b15 203d b854 583d
00000290: c7ef 643c de44 063e ee36 73be 7c11 ac3d
000002a0: c694 683d 6ab5 fd3d 4cc8 dbbd 543f 613e
000002b0: f397 2abd 245f 0fbe 9505 8a3c ea43 04be
000002c0: fa0f 1cbd cb46 b43b 74dc 69bd 68f3 b93c
000002d0: 541a ab3d aa42 e23d 4bbb 72bc 9b01 cf3c
000002e0: 81e8 b1bd a743 b03d 19ba 2cbd 9574 2bbe
000002f0: 4fdf a33d ec73 ca3d 6e46 9b3c 0e98 c0bc
00000300: fc30 cbbd b4d6 d9bd 32de d13d f818 b7bd
00000310: 1a9e 8b3d 0306 6e3d 9e59 b3bc 13a6 aebd
00000320: b246 9fbd c3be d33d aeda 49bd e807 913d
00000330: 92d7 e73d a1fc 643d 498c 9abb bf91 973d
00000340: 1dd1 2e3c 4f18 883d c30f 7abd 1172 673d
00000350: 7d7b b4bc 3220 31bd 1332 b1bd 8137 52bd
00000360: 91d3 ff3c 6ea2 a33c 993f 8fbc f01f 5a3d
00000370: 0d36 82bc af30 883a 948c f83d c3a1 823d
00000380: 7805 9fbc 5a2b fb3d 2e2d c7bd b5cb f23d
00000390: 9e0c 053e 2ce1 01be a8b8 7d3d 73fa 813b
000003a0: 8f30 e9bd f798 933d 9a75 f63d 9189 c73c
000003b0: 8545 973d d640 9fbd 30e0 0c3e 1fe7 5fbd
000003c0: 4474 3e3d 2764 8ebd 62d3 a43d 855c e4bd
000003d0: d47a c63c 4ec5 e1bd 12e7 06be 437e 6cbd
000003e0: 5242 703d 16c1 f23c 6fa7 e2bc a48b 793d
000003f0: 7922 ce3d 55d4 193e 07d5 3c3d 0c60 9cbd
-0.1379584 -0.039726105 0.058090378 0.14395937 -0.10886812 -0.028016133 0.026578067 -0.007783124
0.1333749 -0.058775146 0.0848871 -0.052764222 -0.0032691634 -0.03720732 -0.08688217 0.05501104
-0.06630531 -0.12826183 -0.114227705 -0.08814577 0.07130521 -0.09614778 -0.061967675 -0.10503668
0.07476964 -0.09011023 0.0028769646 -0.0074426606 -0.06238628 -0.16158222 -0.0402711 0.011093164
0.1400498 -0.039369937 -0.07341502 -0.051742263 0.025837597 0.12606026 0.029798696 -0.12315261
-0.08335046 -0.051401302 0.051267795 0.08190665 0.046380166 -0.020550614 0.08318187 0.09012561
0.11013639 0.15061295 -0.124848634 -0.048039265 -0.069849774 0.08074998 -0.15960239 -0.051332843
-0.020989582 -0.03501236 0.02706567 0.10993084 0.17611921 -0.058028977 0.018775241 -0.04882559
-0.00030304742 0.07201226 0.076038875 0.083027855 -0.025729043 0.054564368 0.03982437 -0.016899936
0.13361894 0.012493448 0.07264843 -0.020403897 0.116812035 -0.08550631 -0.098979555 -0.057309862
-0.10642668 0.053681973 0.026116544 0.04315108 0.04969633 -0.0884501 0.02640637 -0.07298094
0.16884975 0.059177954 -0.111568294 -0.11934747 0.0014028219 -0.023982115 0.02794513 0.03246707
0.023958558 -0.013562593 -0.05042403 0.027324047 0.011545398 -0.081348084 0.0022569604 -0.09283328
-0.0656089 0.04408044 0.005115468 -0.14102195 -0.07233033 -0.054114282 -0.08278708 0.065284446
-0.12463613 0.18704167 -0.013888436 -0.09058273 0.08508776 -0.051861893 -0.03721436 0.014936444
0.115817994 0.03941192 -0.003659872 -0.01244172 0.006781285 -0.030320602 -0.054581076 0.033793144
-0.06454337 -0.17642416 0.058857754 0.007954509 0.08579771 0.10090075 0.06207368 -0.12144435
0.04596866 -0.049966265 -0.006085475 0.14084908 0.110085756 0.031387962 0.087731056 -0.13792557
0.1750758 0.027318366 0.0079339435 -0.07471924 -0.078453384 -0.13864727 0.12236193 0.034307513
-0.020726874 0.00570147 -0.12619591 -0.066171035 0.055372033 0.019404082 -0.074200675 -0.01808242
0.10857295 -0.15131348 0.039083045 0.05281517 0.013973183 0.13112208 -0.23751423 0.084017724
0.056782506 0.123881176 -0.10731563 0.21996814 -0.041648816 -0.14001137 0.016848365 -0.12916532
-0.038101174 0.0055016032 -0.057095006 0.022699073 0.08354631 0.110478714 -0.014815162 0.02526932
-0.08686925 0.08606654 -0.042169664 -0.16743691 0.08001577 0.098853916 0.018954482 -0.023510005
-0.099214524 -0.106366545 0.102474585 -0.08940309 0.06817265 0.058111202 -0.021893319 -0.0852777
-0.07777156 0.10339119 -0.049280815 0.07081586 0.11320414 0.05590499 -0.0047164303 0.07400846
0.010669974 0.066452615 -0.061050188 0.056505267 -0.02203154 -0.043243594 -0.08652129 -0.051322464
0.031228812 0.019974913 -0.01748638 0.053253114 -0.015894914 0.0010390485 0.12136188 0.0637851
-0.019411787 0.12264128 -0.09725414 0.1185526 0.12993094 -0.12683553 0.06194368 0.0039666235
-0.11386215 0.0720691 0.120341495 0.024357589 0.07386307 -0.07776038 0.13757396 -0.054663774
0.0464976 -0.06952696 0.080481306 -0.11150459 0.02422849 -0.11023961 -0.13174084 -0.0577376
0.058656998 0.029633086 -0.02766773 0.060924187 0.10065169 0.15022404 0.046101596 -0.07635507

bias_ih_l0 f4 [64]
00000000: d27a 32be b0ac dcbb 6203 e13d d226 43bd
00000010: 9698 bdbd 549b fbbd 1d2b 18bd db15 18bd
00000020: bd14 b3bd 64a9 1c3d 050a b0bd 6749 8f3d
00000030: edf0 8c3d 9416 963c f416 43be 0db9 83bd
00000040: c087 c2bd 7e94 52bd 2ceb 89bd f1f5 9c3d
00000050: 7a06 983d 41c7 ae3d f7e0 c4bd 475e ed3d
00000060: 37ce 3fbe ef35 ee3c f734 20be f42d fbbd
00000070: cf3f bdbd 2236 743d 111b 47bd 9d08 f03d
00000080: da6e bc3d c24f 013e b740 273e c67b c1bd
00000090: bd98 ed3c a160 d2bd d518 0f3e aad4 d2bd
000000a0: 48c8 8abd bb6f 84bc f335 d0bd 33fa 603b
000000b0: 69ae 22bd 17dc b83d dd04 ac3d 86b8 0c3e
000000c0: 8d68 14be 83c6 bcbd ec73 013e 5a01 a13d
000000d0: a7c1 15be 2e82 0c3e a42f b9bc cf67 18be
000000e0: 5377 97bc 109a 23bd c43d 183d 3b42 f93d
000000f0: f839 0abe b0a3 213d 9149 6abc 4e50 383e
-0.17429665 -0.006734453 0.10986973 -0.047644444 -0.09257619 -0.12285486 -0.03715049 -0.037130218
-0.0874419 0.03824748 -0.08595661 0.06996422 0.068818904 0.018321313 -0.19051725 -0.0643178
-0.094985485 -0.051411144 -0.067343086 0.07664097 0.0742311 0.085340984 -0.09613221 0.115902476
-0.18731008 0.029078452 -0.15645204 -0.12264624 -0.09240686 0.059621938 -0.048609797 0.11720393
0.09200831 0.12628081 0.1633328 -0.09447436 0.029003495 -0.10272337 0.13974316 -0.10294469
-0.06776482 -0.016166558 -0.1016654 0.0034328818 -0.03971711 0.09026354 0.08399365 0.13742265
-0.14493008 -0.092175506 0.12641877 0.07861586 -0.14624654 0.13721535 -0.022605725 -0.1488335
-0.018489515 -0.039941847 0.03716828 0.121708356 -0.13498676 0.039462745 -0.014299766 0.17999384

bias_hh_l0 f4 [64]
00000000: 9dde deba 177a 893d 87dc 283e bd55 f1bd
00000010: 0e37 da3d 96f7 b03d 989a bd3d f361 0cbe
00000020: 2a85 7cbd 206c ebbb 9887 95bd 95c7 f1bc
00000030: 56d7 183e 344a 60bd c2b0 56bd 342f f13c
00000040: 2aeb 973d 36d3 a13d cff1 573d 5333 a33c
00000050: d6be c33d 8346 943d 3d36 1ebe 08b2 c33b
00000060: ed8f 3dbe 1151 f5bc e9d0 19be 7e36 61bd
00000070: 7667 3bbc b7e5 7abd 11da 49bd 61df d33d
00000080: 7515 6f3d 7f25 fcbb 294a 973d 70db e6bd
00000090: 1dc7 07be 0927 1dbe 9ce6 ff3c 7667 10be
000000a0: 5934 5bbd 1045 aebd 3914 08be 5e30 2abe
000000b0: 8f91 4b3d 015c 8ebb 0de3 ab3d b282 fc3d
000000c0: 3af4 8b3d b6de 67bd 64f1 13bb 56ef 933d
000000d0: f50e f0bc ce82 ba3d 6464 39bd cc9a 45be
000000e0: b425 0f3e a0a5 f13d 18a2 c4bd d552 1a3d
000000f0: 6cd7 33be 8491 a13d 1a22 c1bc da85 423e
-0.00170036 0.0671274 0.16490375 -0.117839314 0.10655032 0.08640973 0.09258002 -0.1370924
-0.061650433 -0.0071845204 -0.07301253 -0.029514113 0.14925894 -0.054758266 -0.052414663 0.029441454
0.07417901 0.079016134 0.05272084 0.019921934 0.095578834 0.072400115 -0.15450378 0.0059721507
-0.18511935 -0.029945882 -0.15021099 -0.05498361 -0.011438241 -0.06125423 -0.04928023 0.103453405
0.058370072 -0.0076948996 0.07387192 -0.11272323 -0.1325955 -0.15346922 0.031237893 -0.14101967
-0.05351672 -0.085092664 -0.13288964 -0.16620013 0.049699362 -0.004344464 0.08392916 0.12329616
0.06833692 -0.056608878 -0.00225743 0.07223384 -0.029304007 0.0910698 -0.045261756 -0.19297332
0.13979226 0.117991686 -0.096012294 0.03767665 -0.17562646 0.07889083 -0.023575831 0.18996373

weight_ih_l1 f4 [64, 64]
00000000: 0b3d 47be 15fc 013e fc41 dd3d ff1d bcbd
00000010: 2f9b ae3d 5f9f 5cbe ec6c 803d 7e2b b4bd
00000020: f23d 42be 906e ac3d e797 023d 0e82 04be
00000030: a7f0 55bc 3b30 ad3d 9adf 5b3b 817e fbbd
00000040: 300f 043e 4cf9 b93d 99f2 04be a784 e23d
00000050: 3aa5 f13c 4b3c d73b fedb 993d a568 833a
00000060: b6fb 583c 9dc0 2d3d 0e36 0abe 9668 10bd
00000070: 8470 0dbd e70b 653e d330 fb3d 82c3 4d3d
00000080: 0e68 c0bd 852f 2e3d 2cc4 cb3d 2ac8 963d
00000090: 7bb7 91bd 177e 923d 2e30 94bd 894d 153d
000000a0: 91bf e93d 06a4 a1bc 37eb 3d3e aaf1 1ebd
000000b0: 71a9 2fbe 3e7d 3fbe eb02 64bd efbf 6c3d
000000c0: 2b10 fe3c 5fa2 18bd 6c6b 24bd 608d d2ba
000000d0: 8457 edbd 4efe 1f3d 34a7 f2bd b6f1 b5bc
000000e0: d67f 73bd f851 f5bd cf65 f1bd 1e94 7e3c
000000f0: d271 9cbd b7eb cabd 6681 183e 6e14 c1bd
00000100: 59b1 803d 2578 aabd 3e1a 82bd 1ac8 06be
00000110: 31fb 2f3b 6f38 8fbc 9935 a2bd 1f93 0e3e
00000120: aff9 1ebe ed7e 4c3d c867 debb edd6 afbc
00000130: f829 3cbe 4755 debb 36ce d53d 63e2 b63d
00000140: e657 e1bd 878b 9b3d 725a 1a3e 865b bb3d
00000150: 7a8d 643d d816 81bd ae01 e13c 386d 803d
00000160: d916 073e b949 f83d 850f 5a3e 13f6 21bd
00000170: 52a3 0dbe dcee 503d 8686 cebc 8a97 5cbd
00000180: 5e8c 81bd b44d 5bbe 7ef1 003c c62b c8bd
00000190: c499 223d ecc7 343d c88d 443d e3d0 c7bd
000001a0: abe6 463d 2fee ef3d 369a 0e3e ea18 413e
000001b0: edfb 88bd b992 ecbc fe27 57bc 54f2 963d
000001c0: 9130 283e 1233 74bd d31c f4bd 383d 02be
000001d0: 4f79 093e c89e cc3d 04bc c53d ca08 0b3e
000001e0: d328 e93d 4d83 47bd 36a5 0a3c 7f21 233e
000001f0: 4cea 823e 601b 943c 7129 f1bc b291 c8bc
00000200: ccda d33d 2f3e b8bc 9c19 10be 2835 f2bd
00000210: c010 d9bd 002c 35bd b1e3 0e3e 3abc 83bd
00000220: b129 dd3d 4123 f73d 1e5e 6a3d d5f4 0b3d
00000230: 0fb3 19be b770 aa3d b111 81bd 6085 aabd
00000240: 370d d3bd b02a 233e 29f9 053e 3e3d 873d
00000250: fbd6 a5bd ca8c d1bc be27 1ebe 1745 d0bc
00000260: f95b 25be a4e8 27bb 1794 54bd 7f6b 1f3e
00000270: 2be2 66bd 2e9b 1c3e ee20 62be 2a0a b63d
00000280: 31af 1cbe 69b0 8fbd 211d 4d3b b93a 50be
00000290: 77f5 aabb 6c7d 02be 3870 963d 1f92 30be
000002a0: 2b17 55bc 5466 a73d a8b9 61bd 3e06 9d3c
000002b0: 35a4 a03d 5730 92bd 1325 313d 1656 e2bd
000002c0: f8d7 bb3d f2d5 01bd a5ae 11bd ef30 0cba
000002d0: 2c45 133e a347 563e 57f3 6e3d 1ec7 1abd
000002e0: 68b9 3bbd 74cd 3cbe a2a2 25be 8eac 8ebd
000002f0: bdaf bebd 024e aabd e398 34be 46b1 073e
00000300: d037 203d 8079 013d d8ce 4abd e6aa 15bd
00000310: 08f9 c5bd bd5b 213e 68a7 bfbc c06a 51bc
00000320: fbd8 18bd 37fc 25bd 60c0 12be 18d6 1a3e
00000330: d98a 453e 31d3 cb3d bd68 1abe bcf2 c03c
00000340: 9f54 03be a519 edbd edca 8f3d fd30 11bd
00000350: 54ff 393d 47da 0ebe 4df7 d03d b195 d5bd
00000360: 024b 96b9 e1c6 b7bd 6e38 77bd de23 33be
00000370: 3934 ed3d f761 e6bc 84c0 003e 6bdb 903d
00000380: 2462 c13d 137e fb3d 0b69 6d3d 7a30 da3d
00000390: 57fb 6abd d647 fb3d 24a3 32bc b1c0 fc3d
000003a0: 97fb 8dbc ff1e 8abd 8625 603d 1711 c5bd
000003b0: e618 fbbd 36de 60bd 23de 37bd 399a bd3d
000003c0: c100 893d f089 cc3d 692f 8e3d ce51 f03d
000003d0: 2bc3 afbd d97e 8ebd 4562 a23d 47bf c13d
000003e0: 6d27 9e3d b0a6 113d e89d 94bd 9e5d 2bbd
000003f0: 51b6 14bd 8239 013e 5ffb be3c 124d 75bd
-0.1945688 0.12693818 0.10803601 -0.09185409 0.08525693 -0.2154517 0.06270775 -0.08797358
-0.18968943 0.084195256 0.031883147 -0.12940237 -0.013057864 0.08456465 0.0033550025 -0.12279988
0.12896419 0.09080753 -0.12983169 0.11060458 0.029497731 0.006568467 0.07512663 0.0010025693
0.013243606 0.04242002 -0.13497183 -0.03525599 -0.03453113 0.22367822 0.12265172 0.05023528
-0.09394847 0.042525787 0.09949526 0.07362397 -0.07115074 0.07152956 -0.07235752 0.036450896
0.114134915 -0.019731533 0.18546759 -0.038804688 -0.1715448 -0.1870012 -0.055666845 0.05780023
0.031013569 -0.037264224 -0.040141508 -0.0016063862 -0.11588958 0.039060883 -0.11848298 -0.022209983
-0.059448086 -0.11978525 -0.117869966 0.015538244 -0.07638897 -0.0990824 0.14893112 -0.09427725
0.062838264 -0.08323697 -0.063526616 -0.1316227 0.0026852603 -0.017482964 -0.07920379 0.1392331
-0.15524934 0.049925733 -0.006787274 -0.02146479 -0.18375385 -0.006785068 0.10439722 0.089298986
-0.110030934 0.07594972 0.15073565 0.09148316 0.055798985 -0.06303185 0.027466621 0.06270832
0.1319231 0.121234365 0.21294983 -0.039541315 -0.13831833 0.051009044 -0.02521063 -0.053855456
-0.06325601 -0.2141636 0.007870076 -0.09773974 0.039697424 0.044135973 0.047986776 -0.09756639
0.048559826 0.11715352 0.13926014 0.1885716 -0.06688676 -0.028878557 -0.0131320935 0.07370439
0.16424777 -0.059619017 -0.1191956 -0.12718666 0.13425182 0.099912226 0.09655002 0.13577572
0.1138474 -0.048709203 0.008462241 0.15930746 0.2556938 0.01807946 -0.029438706 -0.024483535
0.103444666 -0.022490589 -0.14072269 -0.11826545 -0.10598898 -0.044231415 0.13954045 -0.06432386
0.10798968 0.12067271 0.057218663 0.034169037 -0.15009712 0.0832228 -0.063022025 -0.083262205
-0.10305255 0.15934253 0.13083328 0.06603478 -0.08097645 -0.025579829 -0.15444848 -0.02542357
-0.16148366 -0.0025620842 -0.051899042 0.1556835 -0.056368034 0.15293571 -0.22082874 0.088886574
-0.15301205 -0.070160694 0.003129788 -0.20334901 -0.00521725 -0.12743157 0.07345623 -0.17243241
-0.013006012 0.081738144 -0.055108696 0.019168016 0.0784382 -0.07138126 0.043248247 -0.11051576
0.09172052 -0.031698175 -0.035566945 -0.0005347868 0.14381856 0.20925765 0.058337536 -0.03778755
-0.045831114 -0.18437749 -0.1617532 -0.06966506 -0.09310863 -0.0831566 -0.17636447 0.13251218
0.039115727 0.031610012 -0.049513668 -0.036539935 -0.096666396 0.15757652 -0.023395255 -0.012781799
-0.037316304 -0.040523734 -0.14331198 0.15120733 0.19291247 0.09952391 -0.15079017 0.023553245
-0.12825249 -0.11577157 0.07021127 -0.03544711 0.045409516 -0.13950454 0.10203419 -0.10428942
-0.00028666115 -0.0897348 -0.06035655 -0.17494151 0.11582226 -0.028122885 0.12573439 0.07073101
0.09442547 0.12279906 0.057961505 0.106537774 -0.057368603 0.12269561 -0.010903154 0.123414405
-0.017331881 -0.06744193 0.054723285 -0.096224 -0.122606084 -0.054899417 -0.04488958 0.09257931
0.06689597 0.09987247 0.069426365 0.11734353 -0.08582147 -0.06957788 0.079289 0.094603114
0.077223636 0.035559356 -0.07256681 -0.041837327 -0.036306683 0.12619594 0.023313222 -0.059887953

weight_hh_l1 f4 [64, 64]
00000000: 6140 0e3e 7ff3 03be 86ad 0fbc 0977 0bbd
00000010: 135e ac3d eedc 273d add9 9abc a4e4 a7bd
00000020: 6ba0 1cbd 5cc1 9bbd 0675 0f3d c7fa 1c3d
00000030: 1695 7dbd 9ad9 b8bb 95bf f13b a567 f13b
00000040: 2b07 68bd ace2 10be 9ff8 8abd 4ab9 4e3d
00000050: 6937 87bd 1f37 9b3b ed98 9039 5027 08be
00000060: 2e9e 3a3d 5f1b e8bd fac6 bdbd b4a4 123e
00000070: 3720 543d 49aa 43bd 97bf 7abd e82d 1d3d
00000080: 6731 5b3c ae39 0bbc 2e6e aebd 9e02 6fb9
00000090: 2e8a cb3d ca96 893d 7b33 f33d 8ef2 bfbd
000000a0: 387a 89bc 3d34 8c3d 3645 8ebd df66 82bc
000000b0: 9b45 61bd a09e 7d3d b88d a5bc 9346 ad3c
000000c0: 0c04 b23d 2546 adbc d969 a23d 73d9 aa3c
000000d0: d625 813d d2b8 e03d f051 08be 0d70 05be
000000e0: 738a f8bc 8281 11bc 500d ba3d 20a9 24bd
000000f0: 72f6 2ebd e0e2 5dbd 6718 083e d545 6dbd
00000100: 012e 453d 0c7f a63c 1fa7 f33c 398e 6abc
00000110: 105b a1bd da3a cdbd 7c0c 89bd df06 c03d
00000120: 54b5 e53d af68 b9bd cd41 9a3d 63c3 6a3d
00000130: aced 5d3d 553f adbc ab47 04be 31a5 7b3d
00000140: cb90 11bd c8d4 013e f4c8 23bc 5437 a93d
00000150: 9d60 f13c 8066 38bd 3e12 a5bd 6711 933d
00000160: 4224 86bd fc45 cabd ed05 133c 8aed cbbc
00000170: 0998 bc3d 431a 8d3d 4835 eabd 151f 873d
00000180: fada 44bd 28ce 4e3c 971c b63d 031e b3bd
00000190: c4fd 40bd 10bf bc3d 177d ee3d de46 b9bd
000001a0: 114b 88bc 8df5 e4bd b432 4cbc a22d c23c
000001b0: 9618 123d 782a 8c3d 393c d53d b953 95bc
000001c0: bc21 a2bd d86f 8bbd c27e d9bd 5967 41bc
000001d0: a339 563d 2fcf d4bd 36ee 113d 50d0 8ebd
000001e0: af93 cfbd 7e3f 213d 1941 523c 1b66 653d
000001f0: 518c 25bd abf1 0b3e 5c7f b63d bbf2 6ebd
00000200: 8b0e 90bc 78f0 eabc 2eb7 653d fcc8 b9bd
00000210: e8ce 82bd 1f87 823d dbdf 21bd 8721 433d
00000220: 73f0 9f3d 3926 51bb a67b 3dbd c4fb 25bd
00000230: 6baa 873d 6bc3 e13b 2b0e dd3d 1ab3 12bb
00000240: ea61 d6bd e7e8 d1bc 9af6 6bba 94a0 48bd
00000250: e151 11bc bbc5 10be 0004 66bd 25ec 2f39
00000260: a2d1 903d 10e2 d43d 9035 033e 9456 e5bd
00000270: c710 643d d918 9d3d fac5 18bd 6a45 873d
00000280: de42 76bc 3e4c 78bc 9a33 bdbd 144d 923d
00000290: 5577 cf3d 4cf2 e3bc 66ee 68bd 802e b33d
000002a0: 1e5b 003e 26af 8d3c ea45 87bd 446f 2abe
000002b0: 4e2d 903d 04da 85bc 3ce4 eabd ed09 15be
000002c0: a870 5a3a abea cdbc 9f2b 94bd 9df7 2b3d
000002d0: 2f41 d03d 9205 4fbd 3f3c 44bc 6e8f 2dbd
000002e0: 2664 cdbd f1bd 8d3d a6f2 fb3c 5337 093e
000002f0: c3b4 d3bc b0ed 9b3d 92a3 3e3d 7ac4 9fbd
00000300: 9074 9abd b3cf 983d 9eb5 d43b 72f5 25bd
00000310: 7d41 3c3d 0982 aa3d b913 24bd 9f11 a23d
00000320: ef72 9b3d 91f6 a5bb 474d 9dbc 9d36 0cbc
00000330: afb5 bc3d da47 b63d b0eb 1cbc 2896 bb3d
00000340: f48a d0bd d015 513d 8e5f 74bd 0560 873d
00000350: 818b debd 7405 ac3c 9fa2 823d 737b 29bd
00000360: e8af ad3d a3f2 e5bc 77c4 e7bc c37a eb3d
00000370: a10e 8fbd e810 503d 1ed7 d3bd ac2a 9c3c
00000380: a751 5a3d 32ac fe3c 3295 e03d 1a02 63bd
00000390: 90ab 573d 696a e73d 5cc9 ab3d 8f26 c43c
000003a0: e95a 923d e051 963c 1b7d 31bd a8f5 70bc
000003b0: 20af b4bc af06 723d 20b5 46bd b5a0 4ebd
000003c0: ea92 2cbd bbfa 753d e36e ba3d 1f56 423d
000003d0: 1f0f e23d 6e13 bf3d 00e3 68bd 3788 3fbc
000003e0: cf72 103c 836e 07be 0940 cabd bcb4 d4bd
000003f0: 402b 133c 9c28 a83d aa2b e23c b28f b93d
0.13891746 -0.12885855 -0.008769399 -0.034049068 0.08416381 0.04098218 -0.018902624 -0.081979066
-0.038238924 -0.0760524 0.03502371 0.038325097 -0.061909758 -0.0056411745 0.0073775747 0.0073670917
-0.05664746 -0.14148968 -0.06785702 0.050469674 -0.066023655 0.0047367956 0.0002757976 -0.13296247
0.04556101 -0.113333456 -0.092664674 0.14320642 0.051788535 -0.04776982 -0.06121787 0.038373858
0.013378478 -0.008497639 -0.08517109 -0.00022793791 0.09938465 0.06718214 0.118750535 -0.093724355
-0.016781911 0.06845901 -0.06946795 -0.015918193 -0.05499802 0.061918855 -0.020209178 0.021151816
0.08692178 -0.021151612 0.07930345 0.020855641 0.06306045 0.10972752 -0.13312507 -0.13031025
-0.030339455 -0.008880975 0.090845704 -0.040200353 -0.042715497 -0.054171443 0.13290559 -0.057927925
0.048139576 0.020324253 0.029742775 -0.014316135 -0.07878697 -0.10020991 -0.06691834 0.093763106
0.11216226 -0.0905317 0.07532082 0.05731524 0.05418174 -0.021148363 -0.12917964 0.061436836
-0.035538476 0.12678826 -0.009996641 0.08262506 0.029465014 -0.045019627 -0.0806012 0.071810536
-0.065498844 -0.0987663 0.008973581 -0.02489354 0.09208686 0.06889775 -0.11435944 0.06597725
-0.048060395 0.012622394 0.08892172 -0.08745959 -0.04711701 0.0921613 0.11644953 -0.0904672
-0.016637357 -0.111796476 -0.01246326 0.0237034 0.03566798 0.06844038 0.10411877 -0.018228399
-0.079165906 -0.06808442 -0.1061988 -0.011804425 0.05230106 -0.1039108 0.035627566 -0.06973326
-0.1013559 0.03936719 0.012832903 0.05600558 -0.04041702 0.13666408 0.089110106 -0.058336955
-0.01758506 -0.028679118 0.056082897 -0.09071538 -0.063871205 0.063734286 -0.039520126 0.047639396
0.07809534 -0.0031913652 -0.0462605 -0.040523306 0.066243015 0.0068897507 0.10793718 -0.0022384585
-0.104678944 -0.025623752 -0.0009001285 -0.048981264 -0.008869619 -0.14137928 -0.05615616 0.00016777271
0.07071234 0.103946805 0.12813401 -0.11198154 0.055680063 0.07670755 -0.03729818 0.066050366
-0.015030591 -0.015154896 -0.09238358 0.07143608 0.10130183 -0.027825497 -0.05686798 0.087491035
0.12534758 0.017295431 -0.06605132 -0.16644007 0.07039891 -0.01633931 -0.114693135 -0.14554568
0.0008332827 -0.025136312 -0.072348826 0.04198419 0.10168683 -0.05054242 -0.011977254 -0.042373113
-0.100288674 0.06920994 0.030755352 0.13400011 -0.02584303 0.07613695 0.04654271 -0.07801147
-0.07541764 0.074614905 0.006491377 -0.040517278 0.045960892 0.083255835 -0.04005787 0.07913517
0.07590281 -0.0050647934 -0.019201888 -0.008557943 0.09214341 0.08900423 -0.009577677 0.091594994
-0.10182753 0.051046193 -0.05966144 0.06610111 -0.10866452 0.020998694 0.06378674 -0.041377496
0.08480817 -0.0280698 -0.028291924 0.11498024 -0.06985212 0.050797373 -0.10343765 0.019063316
0.053300526 0.031087968 0.10965957 -0.055421926 0.05265385 0.11299593 0.08388016 0.023944167
0.07146246 0.018349588 -0.0433322 -0.0147070065 -0.022056162 0.059088405 -0.048512578 -0.05044623
-0.042132296 0.06005357 0.09103181 0.047445413 0.1103804 0.09329878 -0.05685711 -0.011690191
0.008816435 -0.1322575 -0.09875495 -0.10386035 0.00898248 0.082108706 0.027608711 0.09060611

bias_ih_l1 f4 [64]
00000000: c275 bcbd 7dd8 11be 423b 603c 2397 a23d
00000010: 5845 81b9 27bf 503c 448d 58bd efb6 6fbd
00000020: 1b3a d1bd ccd3 99bd dfa6 89bd 817c 4fbd
00000030: 155d f53c c4e6 963d a673 073e 6e49 0fbd
00000040: 4333 d73d 7648 4bbd e148 54bd efda 5bbd
00000050: 2079 8a3d 43cf 19bc ba42 6fbd c45a 773d
00000060: 8908 b23d 2260 f83d 1ece ac3d 8368 b33c
00000070: 7d0f cdbd 7842 343d 65a2 a73d 812f 773d
00000080: 387d 10be 7cf2 31bc a06f 733d 4c31 27bd
00000090: d9cf 45bd 396d f1bc 3ebf 6c3d 0bc6 4d3d
000000a0: 66f4 58bd fbc1 b93d 6dae e3bd cdd4 e0bd
000000b0: 1dae 23be ad28 10bd 9b31 3c3d 293b bebd
000000c0: ac30 993d ac0a 733d 2b08 15bd bf9e 0e3d
000000d0: 5e46 803d f4f2 7c3d 55b8 21bc bf80 8fbd
000000e0: 5ced 4b3d c082 07be 757f 303d a972 ee3d
000000f0: be2a 8ebd 281f 0fbe a0f8 46bc 782e bebd
-0.09202148 -0.1424274 0.013686003 0.07938983 -0.00024656462 0.012740887 -0.052869096 -0.05852407
-0.10216161 -0.075111 -0.06721281 -0.050655846 0.029951612 0.07368234 0.1322771 -0.034982137
0.10507824 -0.04962965 -0.051827315 -0.05367559 0.06761384 -0.009387794 -0.058413245 0.060389295
0.08693034 0.12127711 0.08437751 0.021900421 -0.1001272 0.044008702 0.08185271 0.060348038
-0.14110267 -0.010861035 0.059432626 -0.040818498 -0.048293922 -0.029471027 0.05779957 0.050237697
-0.05296745 0.09070202 -0.111172535 -0.109780885 -0.15984388 -0.03519504 0.045945745 -0.09288628
0.074799865 0.05933635 -0.036384743 0.03481936 0.062634215 0.061755136 -0.009870608 -0.07006978
0.04978691 -0.13233471 0.043090302 0.116429634 -0.06941746 -0.13976729 -0.012144238 -0.09286207

bias_hh_l1 f4 [64]
00000000: aa06 943d c10e adbd 3757 823d 2e8b 2dbb
00000010: 9996 cabd db68 ac3c f842 783c 1ce9 2cbe
00000020: 5807 38bd fb3a 973d add5 ca3d 6296 29be
00000030: 6615 75bd e7e5 df3c b2d2 fc3d 5b8f 22bd
00000040: f991 92bd aeaa ce3d b35c f1bc 8997 423d
00000050: 2693 e0bd e256 a2bb f190 ce3d 282d f83a
00000060: 7921 d4bd 6ade c4bd 6232 aa3d 6364 a3bc
00000070: 8fdc 963d fc89 91bd 8d42 1b3d 50f7 353c
00000080: b4c4 01be 67ce 973d d246 0bbc fb10 9f3c
00000090: bed5 e6bd 6b1c aebd 1075 a53c ad5c a23d
000000a0: f80b 88bd 3dde 8f3b 9f30 e7bd 5787 e1bd
000000b0: 382f 00be 99a4 0fbe 6d55 043d c0b0 323d
000000c0: 2e34 e2bc 8f46 b53d 4660 203e 7fd4 79bd
000000d0: 2ae4 913d f474 b93c 73e4 cebc f852 06bd
000000e0: adc9 3e3c 35ba acbd 71e6 0bbd 7186 ebbc
000000f0: 3d31 debc e6ff 84bd 6dde 57bd 02bc 81bd
0.072278336 -0.0845008 0.06364291 -0.0026480663 -0.098920055 0.021046093 0.015152685 -0.16885799
-0.04492888 0.073842965 0.09904037 -0.16561273 -0.05983486 0.027331306 0.123448744 -0.039687496
-0.07156748 0.10091148 -0.029463148 0.047507796 -0.10965566 -0.004954205 0.10086239 0.0018934356
-0.10357947 -0.096127346 0.08310391 -0.019945329 0.07366287 -0.071063966 0.037905265 0.011106327
-0.12672693 0.07412415 -0.008500772 0.019417277 -0.11271237 -0.08501514 0.020197421 0.07927833
-0.06642908 0.0043905065 -0.112885706 -0.11012142 -0.12518013 -0.14027633 0.03230803 0.043625593
-0.027612772 0.088513486 0.15661725 -0.060993668 0.07123597 0.022638775 -0.025255417 -0.03279397
0.011644763 -0.08433954 -0.034155313 -0.02875063 -0.027123088 -0.06494121 -0.052702356 -0.06334688

weight_ih_l2 f4 [64, 64]
00000000: a315 b53d 901c 693b 6c9a acbd f4b8 d23c
00000010: 314c 14bc 3c6f 173e 4c6d 353e b371 12be
00000020: 4c35 eebd 5385 f8bd ef62 da3d c6a3 a8bd
00000030: 982b 36be 0011 68bd cfad f63d a7e9 2d3e
00000040: 5b74 49be a1cb 21be 5cc3 88bd 237a 4dbc
00000050: 45ec 80bd a88f ce3c c4f6 a03d b0d7 993d
00000060: 942c a63c f876 a23d 401a 573b 3d28 27be
00000070: 972a 213e f388 f83d df3d 9ebd 512b d9bd
00000080: 5051 6f3e 7b46 b9bd dfb8 fc3d df8f 55be
00000090: c3bb 803d de88 75bd 2140 82bd 17e6 f3bc
000000a0: e661 7f3d 2804 a4bc 3911 fbbd 8a46 c13d
000000b0: 2661 a7bd ee29 d13d cf18 853d d084 213d
000000c0: 7423 903c 9f36 a53d ab54 5ebd 7a73 0c3e
000000d0: 436c 46be 7909 953c 0ad2 5bbe fed2 023d
000000e0: 8ee2 0dbe 6e3d e73d b604 ae3c 3cc0 8d3c
000000f0: 88e2 1abe 14ad 133c dcbf 893d 12d3 053c
00000100: 16e0 113e c36a c1bd e1af 113e 640d f4bd
00000110: 39b5 853d 3bae fbbd affb d73c bb64 373d
00000120: 2ea4 64bc e243 52be b838 0a3d 6685 6abd
00000130: 9f2c 25bc c47c c3bd a704 13bd a9f5 04bd
00000140: d098 193d 74b1 063e e144 143d aef0 2dbd
00000150: 7bcc d3bd 8618 073e 99bf 2c3e 6f60 c0bd
00000160: ba88 9abd 2f0a dd3d abcb c63d cb85 24be
00000170: 6027 3c3e 2180 8bbd 753b 6f3e 4755 ca3d
00000180: a0a3 0abe 50a9 f53d bd5c f0bd 6609 3d3c
00000190: ce1d 05be e4e4 083d 7578 453d 0aa3 433d
000001a0: 3e1b b7bd b534 1d3e 2776 67bd 09b5 31be
000001b0: 4f47 923c a6ad bdbd c5ed 0b3d 472b bbbd
000001c0: acb9 0a3d f98a 193e 66b9 09bd 3f6d a7bc
000001d0: fec3 b63d 6aa5 85bd 07eb 84bd b542 f0bc
000001e0: 6128 423e 6b14 d1bd b98f 2dbc 5020 2abd
000001f0: 27f0 c4bd 55b2 2fbe 6c9c bebd 90c8 5f3d
00000200: 5532 a33d b3a9 0cbe f4a9 08be 85fa 9b3c
00000210: 9214 14bd ea96 10be 9f09 7ebd 30e0 18be
00000220: b334 2fbd 5b39 31bb 1df1 a53d c38b 69bd
00000230: 01de 69bd 5b2a 073e 0871 ee3d 3310 ebbd
00000240: 9044 fb3c 1c68 193d ffc6 05be 8c8b d93a
00000250: 6e68 d9bc 4c7e c7bd 590b b83b b2db e33b
00000260: 67d1 88bd 2da3 483d af59 26bc b022 3e3e
00000270: 9bbf af3d ec43 eb3d 0fed f5bd bf85 083b
00000280: c472 073e fc94 143e 9f41 01be 1bce 4abd
00000290: a4af 6d3d fc02 c5bd d0d8 0e3d d9c2 793d
000002a0: 2bc8 4fbc 4103 2bbe d4af f7bd db18 e73d
000002b0: a462 f1bd 8f55 10be 3dd3 1d3d ee7e 773d
000002c0: 6d60 debd 02e1 a9bd f0b0 103d e58f 0bbe
000002d0: f6b3 2b3e 0285 d4bd aeea c03d c671 c4bb
000002e0: e15b 813d 8a46 c8bd 5c61 e43d 4439 7dbd
000002f0: ece0 473e 96ad aabc fb79 da3d 7ed7 d1bd
00000300: 5742 733d 042c ae3c f778 733e dbb3 d3bb
00000310: 2ef5 d83d 8d95 cbbd 09f0 d7bc 75d3 b83c
00000320: 09a7 cc3c acb6 31bd 8197 ddbd b80e 58bc
00000330: 5072 e6bd 4215 ce3d 8074 893d 7364 de3d
00000340: c1c4 88bd bb86 3abd 5ff6 e63d 5643 a1bd
00000350: b262 1bbd d48b c73d f69e f23b b635 853d
00000360: e400 eb3d a0e0 5fbc e5de fcbc 819e 0ebc
00000370: f9f5 abbd abb5 0cbe 14a1 ec3c c7b8 d23d
00000380: 6cd0 a3bd 1848 e2bd ffb0 97bd 27fd 053c
00000390: 9f90 cebd e1c8 96bd 8158 2d3d 05f7 1bbb
000003a0: 4a9f e03d 58e4 dd3d c4b9 943d 1ffd 50be
000003b0: a8b2 16be ea1f 69bb b5d3 42bd 000d e2bc
000003c0: bdf4 8cbd 7753 0d3e 7d89 b43d f6ea 953d
000003d0: 8430 5dbd 18fe 953d 4d44 d9bd ed6e 27bd
000003e0: 5f79 af3c ebbf 673c 7dba d03c 6adf 363e
000003f0: de02 37bc 7ba6 8a3c 2028 1abc a168 a63c
0.088420175 0.0035570003 -0.08427891 0.025722958 -0.009051369 0.14788526 0.17717475 -0.14301185
-0.11631259 -0.121348046 0.10663401 -0.08234362 -0.17790067 -0.056656837 0.1204487 0.16983663
-0.19673292 -0.15800335 -0.06677887 -0.012541327 -0.06295065 0.025214985 0.07859567 0.07511842
0.020284928 0.07932848 0.0032822043 -0.16323943 0.15738903 0.12135496 -0.07726645 -0.10603965
0.23370862 -0.09046646 0.12339949 -0.20855664 0.06285813 -0.05994498 -0.06359888 -0.029772801
0.062349223 -0.020021513 -0.12259144 0.094372824 -0.081728265 0.102130756 0.064988725 0.0394333
0.01759503 0.08067059 -0.054279964 0.13715926 -0.19377236 0.018192993 -0.21466842 0.0319395
-0.13855955 0.11291014 0.02124248 0.017303579 -0.15125477 0.009013433 0.067260474 0.008167999
0.14245638 -0.09444191 0.14227249 -0.119166166 0.06528706 -0.12289091 0.02636513 0.0447738
-0.013955159 -0.20533708 0.033745497 -0.057256125 -0.010081439 -0.095452815 -0.03589311 -0.032460842
0.03749925 0.1315363 0.0361985 -0.04246586 -0.10341736 0.13192949 0.16869964 -0.09393393
-0.0754561 0.10792958 0.09706815 -0.16066663 0.18374395 -0.06811548 0.23362525 0.098795466
-0.1353898 0.119951844 -0.117364384 0.011537885 -0.12999651 0.033421412 0.04821058 0.047762908
-0.08940743 0.15352137 -0.056509163 -0.17354216 0.017856268 -0.092616364 0.0341623 -0.09139114
0.033868477 0.1499442 -0.033624075 -0.020437835 0.08924101 -0.06525691 -0.064901404 -0.029328683
0.18960716 -0.102089725 -0.010593348 -0.04153472 -0.09616118 -0.17157872 -0.09307179 0.05463463
0.079685844 -0.1373661 -0.13346082 0.019040355 -0.03615243 -0.14120069 -0.062020894 -0.1492927
-0.042774867 -0.0027042243 0.08102629 -0.057018053 -0.057096485 0.13199751 0.11642653 -0.11477699
0.030672342 0.037452802 -0.13064192 0.0016597374 -0.026539054 -0.09740886 0.005616587 0.00695368
-0.06680565 0.04898374 -0.010153218 0.1856792 0.08581468 0.114875644 -0.12008106 0.0020831672
0.13227373 0.14509958 -0.12622689 -0.049512964 0.058028832 -0.0961971 0.034874737 0.060976837
-0.012682001 -0.1670046 -0.120940834 0.11284038 -0.11786392 -0.14095138 0.03853153 0.060423784
-0.108582355 -0.0829487 0.03532499 -0.1362911 0.16767868 -0.10376932 0.094197616 -0.005995008
0.06316353 -0.09779079 0.11151382 -0.06182219 0.19519395 -0.020834725 0.10667797 -0.1024618
0.05938944 0.021261223 0.23776613 -0.0064606494 0.10593639 -0.09940634 -0.026359575 0.022561768
0.024981992 -0.0433871 -0.10819913 -0.013187103 -0.11252272 0.10062648 0.06711674 0.10859003
-0.06678153 -0.045538645 0.1127746 -0.078741714 -0.03793592 0.09743467 0.0074042035 0.06504385
0.11474779 -0.013664395 -0.030868003 -0.008704782 -0.08396525 -0.13741176 0.028885402 0.1028915
-0.07998738 -0.11048907 -0.07406806 0.008178032 -0.10086178 -0.07362533 0.042320732 -0.0023798358
0.10967882 0.10834569 0.072619945 -0.20409058 -0.1471659 -0.0035572 -0.04756518 -0.02759409
-0.068826176 0.1380137 0.08815286 0.07320206 -0.054001346 0.07323855 -0.106087305 -0.04087727
0.021420179 0.014144878 0.02547955 0.17858663 -0.011170117 0.016925087 -0.009408981 0.020313563

weight_hh_l2 f4 [64, 64]
00000000: 900d 143e c10b 82bd ad79 0a3e 2750 033e
00000010: 2dce d6bd 935c 143e 5502 22bd d198 16be
00000020: 25ea 9cbd fc87 febc 17a2 383c cf19 6f3c
00000030: 63dc a1bd 41ce a23d e7f9 a93d ba38 8d3d
00000040: fe1d f63d d831 983d 897b 32be bf55 8b3d
00000050: ccf3 e6bd c5d3 edbc cb69 153e 7dd6 ecbc
00000060: 3633 9dbd 5654 773d ffff 1a3d af51 fd3d
00000070: e527 9dbd 546a 51be 7974 a23d d253 69bd
00000080: fbf4 163d 5046 edbd 97f2 013e 071d d13d
00000090: 50ed 62bd 4216 583d b21b 01bc c6d5 043c
000000a0: f07c 4abd df06 fb3c e71e cebd 571f 1f3e
000000b0: ea24 0cbe 013b bbbd af4e ba3d bb61 a1bb
000000c0: 0602 83bd 2730 6d3e 2b7d 91bd e5e0 243e
000000d0: a650 973d e724 81bd 7336 003e 0500 7bbe
000000e0: 0d88 743d 0a79 983c fcfe cf3c 7e7b b9bd
000000f0: aee0 9e3d aa3f b43d 2ff1 72bd 6e3a 1a3e
00000100: 6c40 753c ba47 71bd 35e1 c83d bb8d 31bd
00000110: 1535 d5bd 1c06 b6bd ff29 c2bd 31a0 96bd
00000120: ee69 01be 2339 9d3d 78f2 8fbc e5a2 b1bd
00000130: 3943 b83d fc1a a23d 12ff 25bd 1343 25be
00000140: 089d 663d a728 6ebd 155a b4bb 08de 92bd
00000150: dd92 88bc 656b 99bd 3f0e c03c 1d40 003d
00000160: e0ab 053d cf73 033e f99e 1ebd ab4b d5bc
00000170: 4cd2 12bd 9601 c4bd 2095 bcbb ecdd 473b
00000180: 26e4 0d3e 9a58 fcbd 460c 1f3d 75d3 a83a
00000190: 6e00 9a3d 4ce0 6c3d 5fa7 b9bd a78c ceba
000001a0: 32e8 f0bd 6dc0 e5bd fc1f 7c3c fb11 05be
000001b0: 511a 2bbd daaf 8f3c 2788 a3bd 7b70 333d
000001c0: 15db ee3c eb00 e53d 4f01 91bd aedd 403d
000001d0: ad0b b63d 25c4 513d 8c8a a03b c2d4 af3d
000001e0: 4ebe c6bd f31b adbd b029 b5bc 1d72 603b
000001f0: 9d36 77bd 5840 9dbb 90a3 eb3d 5655 88bd
00000200: 83ec a2bd da30 803d 032a 7d3e 98c4 963c
00000210: 6aa7 4a3c 06d5 a63d 29f3 84bd 0842 7e3d
00000220: ca66 193e ebf4 7bbd df56 d5bd 4041 8e3d
00000230: 4380 bfbd e349 eebc 59c6 ae3d 3d81 153d
00000240: 517a ef3d b99e be3d b18a 9abc 8992 b7bd
00000250: 30df d6bb 1ca4 133e 531e 433e 5e14 3abe
00000260: 8b0b 96bd 7385 5ebc d5d6 273e 7723 09be
00000270: 71e6 79bd 7652 303d b7c1 a33d ae32 e13c
00000280: 326e 45bc dc1d 953d 3bec 8e3d e984 9dbd
00000290: 8a21 d13d 7aa8 ecbd 6108 a1bd 7943 0cbd
000002a0: da72 46be ebb0 0cbc 7435 95bd b458 913c
000002b0: 8149 823d eb6b 3f3a 5313 aa3d 5d46 853d
000002c0: d6b8 b93d 7ef1 e73a d9b7 f13d 5646 aebd
000002d0: 047b e73d a6a2 e8bd deef bbbd d67f 3abb
000002e0: 57b9 f1bc db2a 22bb 4b7c aabd 98be 1abd
000002f0: dce1 d53c a91e c93d 22b0 93bc 234a d13d
00000300: 025e e93c 280c b5ba c614 abbd ee86 153e
00000310: 3415 34be 12c4 1f3d 3caf c83d c9ad 5a3c
00000320: 6b70 0dbe f468 343c a7f1 8c3d 3ffe a93b
00000330: e449 c53d c423 cf3c cbb4 29be 1112 cfbd
00000340: d78a 593e 60b1 c9bd c77f 21be 2a76 d0bd
00000350: 643f d33d 92fe 4fbd 2847 d0bd ec14 c8bc
00000360: 1fe1 e23c 2f53 d93d fb15 443d 0b12 7e3d
00000370: e228 eabd ad0d 5d3c bd17 0e3e b1bb 773c
00000380: 1732 82bd 55d3 a43d 2726 bdbd 4d13 8b3d
00000390: 0f34 ecbc dabf 4fbd 5ad6 1e38 e6f8 38bd
000003a0: bdef 3f3d 0b0d 603c 9ea7 1abe b98f 9f3c
000003b0: b151 483e df17 46bc e35b 5c3d 570c fd3c
000003c0: db66 153c 7670 ed3c c9ab 9d3d f00f be3d
000003d0: a4af cbba 7341 173e 499f 79bd c8f9 b7bd
000003e0: 90a4 15be d226 0f3e 99fc 33bd 23a4 e13c
000003f0: 3021 cd3c 1571 00bd b676 babd 168a a5bd
0.14458299 -0.06349898 0.13522978 0.12823544 -0.10488544 0.1448844 -0.039553005 -0.14706732
-0.07661847 -0.031070702 0.011269114 0.014593556 -0.079033636 0.07949496 0.08299618 0.06895585
0.12017439 0.07431382 -0.17429937 0.06803464 -0.11276969 -0.029031644 0.14591138 -0.02891087
-0.07675783 0.060383163 0.037841793 0.123690955 -0.07673625 -0.20450717 0.07932372 -0.056964703
0.036854725 -0.11585677 0.12690197 0.10210615 -0.0554021 0.0527556 -0.007880138 0.008107608
-0.049435556 0.030642925 -0.10064488 0.15539299 -0.13685957 -0.091421135 0.09097039 -0.0049249805
-0.0639687 0.231629 -0.07103952 0.16101415 0.07388429 -0.06305867 0.1252077 -0.24511726
0.05970006 0.018612403 0.02539014 -0.090567574 0.07757698 0.088012055 -0.05931204 0.15061352
0.014968973 -0.058906294 0.0980858 -0.043348055 -0.10410515 -0.08887884 -0.09480666 -0.07354773
-0.12638065 0.076769136 -0.017571673 -0.08673648 0.08997197 0.07915303 -0.040526457 -0.16138868
0.0563021 -0.058144238 -0.0055039027 -0.07171255 -0.016671592 -0.07491187 0.023444293 0.031311143
0.032634616 0.12837146 -0.038725827 -0.026037058 -0.035845086 -0.09570615 -0.005755082 0.0030497266
0.13856563 -0.12321587 0.038830064 0.0012880402 0.07519613 0.057831094 -0.09065127 -0.001575847
-0.11763038 -0.11218343 0.015388485 -0.1299514 -0.041773144 0.017539907 -0.079849534 0.04380844
0.0291572 0.11181816 -0.07080328 0.04708641 0.08888946 0.05121245 0.0048993286 0.08585502
-0.097042665 -0.084525965 -0.022114605 0.0034247704 -0.060354818 -0.00479893 0.115058064 -0.066569015
-0.07955267 0.06259318 0.24723057 0.01840429 0.012369016 0.081461 -0.064916916 0.06207469
0.14980617 -0.06151287 -0.1041696 0.06946039 -0.09350636 -0.029087966 0.085339256 0.036500204
0.11693252 0.09307618 -0.018864961 -0.08963496 -0.0065573677 0.14418072 0.19054537 -0.18171832
-0.073264204 -0.013581621 0.16390546 -0.13392435 -0.06101078 0.04304739 0.079959325 0.027489986
-0.012050198 0.07281086 0.06978651 -0.07691366 0.10211475 -0.11555572 -0.07862926 -0.034244034
-0.1937975 -0.008587102 -0.07285586 0.017742492 0.06361676 0.0007302153 0.08304467 0.06507561
0.09068458 0.0017695872 0.11802644 -0.08509509 0.1130276 -0.11359148 -0.091766104 -0.0028457544
-0.029507322 -0.0024744782 -0.08324488 -0.03777942 0.026108675 0.09820301 -0.018028323 0.102192186
0.02848721 -0.0013812827 -0.083535716 0.14602253 -0.17586213 0.039005347 0.09799048 0.013347098
-0.13812415 0.011011351 0.06882029 0.005187779 0.09633234 0.025285609 -0.16572873 -0.10110868
0.2124437 -0.09848285 -0.157714 -0.10178788 0.10314825 -0.050779887 -0.10169822 -0.024424039
0.027695237 0.10611569 0.047872525 0.062028926 -0.11433579 0.01349203 0.13876243 0.015120433
-0.0635721 0.08048121 -0.092357926 0.06790791 -0.028833417 -0.050720073 3.7869766e-05 -0.045159243
0.04685949 0.013674985 -0.15103003 0.019477712 0.19562413 -0.012090652 0.053798568 0.030889673
0.009118761 0.02898429 0.07698781 0.092803836 -0.0015540016 0.1477106 -0.06094292 -0.08983189
-0.14613557 0.13979653 -0.043942068 0.027544087 0.02504024 -0.031357843 -0.091046736 -0.080829784

bias_ih_l2 f4 [64]
00000000: 5647 0cbd 9984 6fbc b9fd e83d 8d87 b8bb
00000010: b8e1 5c3c 7a99 e6bb 65e4 1cbe 4b31 c9bd
00000020: f2f3 d1ba 94b1 bdbc fe85 38bd 3ffb 383c
00000030: 4fa2 083e db4d 813d 7e18 8f3d 2a9a 80ba
00000040: 5bea e63c 0aef 70bd 9d9d adbb 307f 02be
00000050: e1bb e73d d60e 0e3e b006 8a3d 01e8 0a3e
00000060: db18 debc 32b4 d53d 09b0 213e 6a3e 6c3d
00000070: ba97 063c 0296 3d3d a020 83bc 767f bc3d
00000080: 0be0 ec3d 7e07 4b3d fac6 373d 9c7e dbbc
00000090: c499 823d 49cd 7c3d 9994 0a3d 7e32 b3bd
000000a0: 36d4 ddbd 4086 bcbd b37d 1cbe 19f5 983d
000000b0: 02aa 8fbd dcdf 8b3d 626e 413d 58c7 ea3d
000000c0: 5279 bdbd e2cf 3abd 77be b43d 3c5f d2bc
000000d0: 0c9a 65bd 2f97 303c fcdd 80bd 5cac e0bc
000000e0: 1ca1 16bd 2a24 dbbc 0427 a5bd 765a 40bd
000000f0: f022 19be a287 3d3e 4a27 b03d 42fa 563b
-0.03424772 -0.014619016 0.11376519 -0.0056313933 0.01348155 -0.007037339 -0.153215 -0.09823855
-0.0016018136 -0.023155965 -0.04504966 0.0112903705 0.13343166 0.06313678 0.069870934 -0.000981157
0.028187921 -0.058821715 -0.00529833 -0.1274383 0.11315132 0.13872847 0.06739557 0.13565065
-0.027111461 0.1043476 0.15789808 0.05767671 0.008214885 0.046285637 -0.016006768 0.09203999
0.1156617 0.049567692 0.044867493 -0.02679377 0.06376985 0.061719213 0.03383312 -0.08749865
-0.10831492 -0.09205294 -0.15282325 0.07468624 -0.07014848 0.06829807 0.04722441 0.11463803
-0.09251656 -0.04560841 0.08825391 -0.025680177 -0.056055114 0.0107782325 -0.0629234 -0.027425937
-0.03677474 -0.026750643 -0.08064082 -0.04696127 -0.14954734 0.18508771 0.08601244 0.0032802974

bias_hh_l2 f4 [64]
00000000: 1102 52bd e81b 553d eba0 f43d 220b 983c
00000010: 723c 2e3e 1073 8f3d 1173 20be b9d1 db3d
00000020: 577e 923d daf8 003e f0aa 7abb 1d76 f73c
00000030: f442 a73d 535e 23be 128a c5bd 5666 f13d
00000040: 620c a0bd 62f5 393d 7c98 c43d 491d 15be
00000050: 415b 2cbc 30f1 0fbd d79e 5bbd e31a 123e
00000060: 1a76 fbbd f2ed 003d 2984 383d cc39 fb3c
00000070: 1209 88bd 4e9a 453d 1168 f53d 6c36 c3bd
00000080: db8c f33d 2848 efbd ed82 02bd fad4 af3b
00000090: ba0a 493d b563 073e 35cf 5abd b681 e5bd
000000a0: 16b9 0f3d 4e40 fc3c e32d 883c 9904 8e3d
000000b0: 7ce0 d13d 649b c63d b927 0ebe 7b80 b33c
000000c0: 7484 57bc c8e4 ba3d 909b 133d 4bcd 9e3d
000000d0: 3b42 143c ea0a b1bc eacc df3d 1612 43bd
000000e0: 08b0 24be 9251 8b3d 8ce9 ebbd a9b4 ea3d
000000f0: de42 2abe 1092 a93d 8552 d23c e7ab 6c3c
-0.051271502 0.052028567 0.11944755 0.018559996 0.17015246 0.07004368 -0.15668894 0.10733361
0.07153004 0.1259493 -0.003824886 0.030207688 0.08167067 -0.1595395 -0.096454754 0.11787097
-0.07814862 0.04540003 0.095993966 -0.14561953 -0.0105198035 -0.035142124 -0.05361828 0.14268069
-0.122783855 0.031476922 0.045047913 0.030667208 -0.06642355 0.04824286 0.1198274 -0.095318645
0.118921004 -0.116836846 -0.03186314 0.005365965 0.049082495 0.13221629 -0.053420264 -0.11206381
0.03508862 0.030792382 0.016623443 0.06934471 0.10247895 0.09697607 -0.1388234 0.02191185
-0.013154138 0.09125668 0.036037028 0.07754 0.009048994 -0.02161165 0.10927756 -0.04762467
-0.16082776 0.06802668 -0.11519155 0.114602394 -0.1662707 0.08279812 0.025674114 0.014445282
