林锐炜/week06/FaceImageRNN/face_image_rnn_LSTM_params.pth (torch, 683394 bytes, 22 tensors)

rnn.weight_ih_l0 f4 [256, 64]
000000 ee 17 18 3e 8c 28 93 bd de f1 16 3e 91 c3 a9 3d
       0.14852878 -0.07185468 0.14740703 0.082892545
000010 34 1c 5d 3d d9 3f 34 3e 61 e3 f3 bc 60 92 0c 3e
       0.053981975 0.17602481 -0.029771509 0.13727713
000020 8e 1b d7 3d a4 a0 40 3a 0b a1 29 3d cf 64 a8 bd
       0.105033025 0.0007348156 0.04141335 -0.08222353
000030 e2 70 e8 bd 01 89 f1 bd a7 66 51 bd c6 ff 82 bd
       -0.11349656 -0.117937095 -0.051123288 -0.06396441
000040 6e d3 ed 3c 43 37 ac 3d b3 51 b8 bd e9 0b 05 3e
       0.029031482 0.08408978 -0.08999958 0.12992825
000050 b9 b6 c5 bd 42 3e b6 3c a6 52 45 bd 9c 5b ce 3d
       -0.09653992 0.022246484 -0.048174523 0.10076067
000060 34 6b ba 3d bd 2c fa 3c ab 66 6a bc d4 24 e7 3d
       0.091024786 0.030538911 -0.0143067045 0.11286321
000070 a7 b2 05 3e 24 fa de 3d 5b 1a 82 bd 52 7a 84 3d
       0.13056432 0.10887554 -0.06352683 0.06468643
000080 8b 2d 93 bc 7c 4a 05 bb a1 8f a7 3d cd ff 85 3c
       -0.017966053 -0.0020338586 0.08181692 0.016357327
000090 3d 84 71 bd 5b b1 1f 3e ea 3f 25 3e 67 09 27 3d
       -0.058964003 0.15595 0.16137663 0.04078045
0000a0 d0 6d de 3d 70 68 cd 3c f9 b9 c5 bc da 0e 77 bd
       0.10860789 0.025074214 -0.02413653 -0.060316898
0000b0 d7 fd c2 3d 0a 19 bf bc 1f 65 a0 3d eb 04 02 3e
       0.09521072 -0.02332737 0.07831787 0.12697189
0000c0 73 be e2 bd be b6 c8 bd 4c 9e ca 3d d8 e0 0a 3d
       -0.110714816 -0.0980048 0.09893474 0.033905834
0000d0 5b 46 23 3d 9c 36 00 3e 3e 4b 2c bd 2f 7a 8e 3c
       0.039862018 0.12520832 -0.042063944 0.017392246
0000e0 11 2b 12 bb 09 0f 07 3e 04 ef d6 bc db c4 ac bd
       -0.0022303502 0.13189329 -0.026237018 -0.08435985
0000f0 bb 6d a8 3d 56 ae dc 3d ea 7d ed 3c 94 34 88 bb
       0.082240544 0.107754394 0.028990705 -0.0041566584
000100 da 8f 87 3d 4c 91 df 3d 16 71 73 3d 2f 33 fa bd
       0.066192344 0.10916385 0.05943402 -0.12216794
000110 05 d5 7d bd 2c 9e 86 3d b7 24 12 bd 72 3f 28 be
       -0.06197073 0.06573138 -0.035679545 -0.16430452
000120 4d 2b 3c 3d 3d 9e 7f bd 80 b4 27 3c 5a 8c 8b 3d
       0.045939732 -0.062406767 0.010235906 0.06813879
000130 c5 ed 42 bd 1d 26 a9 3d e6 e3 96 bd da 0e 1a 3b
       -0.047590036 0.08259223 -0.07367687 0.0023507387
000140 34 b7 37 3d ab ef 8b bd d6 a6 03 bd d8 f5 9e 3d
       0.04485245 -0.068328224 -0.03214153 0.07761735
000150 b3 34 0b 3d 14 e8 78 bc 48 49 45 3a c9 66 9d bd
       0.033985805 -0.0151920505 0.00075258734 -0.0768562
000160 f8 b0 7d 3d 77 87 d3 3b 3b fc 3d bd ba 81 12 bd
       0.06193635 0.0064553577 -0.046383124 -0.03576825
000170 c7 e8 bc bc 2e cd 9a bd c2 3f e7 3d 73 11 e2 3d
       -0.023060216 -0.07558666 0.11291458 0.110384844
000180 34 ce eb 3d e2 81 e9 3c 82 90 4e 3d 71 4d ab 3d
       0.115139395 0.028504316 0.050430782 0.0836438
000190 9b 2d e2 bd 25 1f cd 3d 55 c2 80 3d 0a c9 e1 bd
       -0.11043855 0.10015706 0.06287066 -0.11024673
0001a0 0b 79 9b bd f7 3b c1 bd 06 b7 c5 bd ba 83 0b be
       -0.075914465 -0.094352655 -0.096540496 -0.13624468
0001b0 e0 b8 8f bd fe 40 f7 bd 51 03 c6 3c 0d 00 53 be
       -0.07017684 -0.12072943 0.024171503 -0.20605488
0001c0 70 b4 1f be cc c0 4c bb 4b 25 08 be 34 48 ef bd
       -0.15596175 -0.0031242846 -0.13295476 -0.116836935
0001d0 3a 13 47 bd fc 2d 75 bd c8 1c e7 bd 75 ad 12 be
       -0.04860232 -0.059858307 -0.112847865 -0.14323981
0001e0 dd 86 ba bd 57 5d dc bd bd 77 b6 bc 4c 22 ad bd
       -0.091077544 -0.10759991 -0.022273893 -0.08453807
0001f0 6d e7 bd bb 4d 1b a5 bd 31 45 0d bd b4 82 2f be
       -0.0057954104 -0.08061848 -0.034489814 -0.17139703
000200 00 ad c4 3d df e9 be 3d de b3 04 3e 77 90 2b 3d
       0.0960331 0.09321951 0.12959239 0.04188582
000210 52 1f 17 3e de 2e 68 bc e8 0b a9 3d 2d 71 a4 3d
       0.14758042 -0.01417133 0.08254224 0.08029399
000220 6b cf 34 3e aa 80 03 bb cb 48 4f 3e b6 e5 a8 3d
       0.17657249 -0.0020065703 0.20242612 0.08246939
000230 80 07 a5 3d 51 62 c2 3d 5e 49 8a 3c d8 08 08 3e
       0.08058071 0.094914086 0.016880687 0.13284624
000240 7e fc 41 bd 35 e6 15 3e 74 02 15 3e 5d ed 3d 3d
       -0.047359936 0.14638598 0.14551717 0.046368945
000250 40 40 da 3d 4b 17 94 3c 6b a7 8e bb 87 12 03 3d
       0.10656786 0.018077513 -0.004353454 0.03200009
000260 3c 4b 16 3e d2 26 50 3e b1 20 40 3e 20 64 26 3e
       0.14677137 0.20327309 0.18762471 0.16249132
000270 21 94 6a 3e c4 2c 42 3e 80 e0 63 3e f7 dc 20 3e
       0.22908069 0.18962389 0.22253609 0.15709291
000280 70 36 0c bd 8c b7 11 3e 4d 05 28 bd c5 eb a6 3d
       -0.034231603 0.14230174 -0.04102068 0.08150438
000290 a1 2c 45 3e d4 51 2f 3b 32 68 57 3e 45 0e d2 3c
       0.19255306 0.0026751654 0.21035841 0.02564157
0002a0 d2 e6 49 3e 00 5f 0d 3e 0d 54 3d 3e 54 38 59 3e
       0.19716957 0.13805771 0.18489094 0.21212894
0002b0 d9 d6 c5 3d ae e4 9f 3c 16 de 9f 3d d5 92 33 3e
       0.096601196 0.019518223 0.078060314 0.1753648
0002c0 d8 b7 4d 3d b0 fb c4 bc 9c bb 52 3d 22 94 15 3e
       0.050224155 -0.024045795 0.05144845 0.1460729
0002d0 b3 21 95 3d 93 ce 78 3c 42 c3 ad 3d 6d 16 0b 3c
       0.07281818 0.01518597 0.08484508 0.008489233
0002e0 35 7b c7 3d 15 b3 88 bd 73 e3 b4 3a 8f 25 89 3c
       0.09740297 -0.06674782 0.0013800695 0.016741542
0002f0 47 90 04 3d 98 96 a1 bd 8d b0 a6 bb b3 f0 2b 3e
       0.032364156 -0.078900516 -0.0050869645 0.16791038
000300 84 00 91 bd a5 98 cf bc 5c a5 42 3d 92 14 e3 3d
       -0.070801765 -0.025341341 0.04752098 0.11087908
000310 90 1b d4 3d c5 f9 ce 3c 32 43 07 bd 55 f5 91 3d
       0.1035682 0.025265584 -0.033023067 0.071268715
000320 24 a7 e4 3d 73 27 20 3e a9 c9 0d 3c 8c e0 ee 3d
       0.11164692 0.15640049 0.008654037 0.11663923
000330 4d 59 0c 3e 8a 16 f4 3d ef d3 0e 3d fc ff 89 ba
       0.1370594 0.119183615 0.034870084 -0.001052856
000340 cb 09 03 3d 4b f2 0a bd e8 76 1d 3c b2 2b 27 3e
       0.03199176 -0.033922475 0.009610869 0.16325262
000350 2b 84 d4 3d 3b d3 cb 3d 96 ff 6a bd 61 a9 f1 3d
       0.103767715 0.099523984 -0.057372652 0.117998846
000360 8a 53 27 3d 9b 87 7f bd 1f df 17 3e 96 06 38 bb
       0.040851153 -0.062385183 0.14831208 -0.0028080097
000370 20 3c b6 3d ec 85 e4 3d f8 a7 83 bb fe 3d 16 3e
       0.08898187 0.11158356 -0.004017826 0.14672086
000380 27 f8 70 bc 1c 00 12 3e c9 ef 18 3e ed ee 8c bd
       -0.014707602 0.14257854 0.14935221 -0.06881509
000390 37 4b 17 3e 5d ba ea bc 36 60 da 3c f0 ab ac 3d
       0.14774786 -0.028653318 0.026657205 0.08431232
0003a0 5f 2c 97 bd ea f8 ec 3d 50 a7 6d bc cb be 35 bd
       -0.0738151 0.11570914 -0.014505222 -0.044371407
0003b0 5a b6 69 3d 8e ab 76 bd 8b 86 a9 bc d0 94 06 3e
       0.05705867 -0.0602222 -0.020694038 0.13142705
0003c0 58 0d 48 bc fe 78 9d bd 29 cf f7 bc 55 35 6e bd
       -0.012210213 -0.07689093 -0.030250149 -0.05815633
0003d0 ad d0 bf bc 0f cd e1 3d 4f 8e c7 3d 89 84 9c 3d
       -0.023414934 0.1102544 0.0974394 0.076424666
0003e0 a6 09 ab bc 9c 19 85 3d c9 a0 b0 3d cf 09 eb 3c
       -0.020878624 0.06499025 0.08624417 0.0286912
0003f0 68 84 e1 3c 07 93 56 bc b2 a1 29 bb da 27 34 bd
       0.027528957 -0.0130965775 -0.0025883731 -0.043983318

rnn.weight_hh_l0 f4 [256, 64]
000000 f0 04 dc 3d e1 c7 1a 3d 25 76 31 bd a4 65 85 bd
       0.10743129 0.037788276 -0.043325562 -0.06513527
000010 ff ba 9f 3d 42 1f 9f bd 23 aa 5f bd 33 de 09 be
       0.077993385 -0.07769634 -0.054605614 -0.13463669
000020 b9 ca 3f 3c 76 d9 a6 3d ba 4c ad bd 99 41 10 be
       0.011706048 0.08146946 -0.084619 -0.14087524
000030 cf ea 67 bd 60 83 e9 3d 7a 54 7a bd ce 2e dc 3d
       -0.056620415 0.11402011 -0.06111572 0.10751115
000040 23 d7 0a 3d 93 dc ab bd fc 95 28 bd 0b 28 cd 3c
       0.033896577 -0.083916806 -0.04115866 0.025043508
000050 eb c3 32 bd 34 5f 5a 3d eb 59 d4 bd 3c e5 13 3e
       -0.043643873 0.05331345 -0.10368713 0.14442915
000060 32 6f 63 b9 0c 95 81 3d ff 8b 81 3d 8d 8a b0 bd
       -0.0002168983 0.063272566 0.0632553 -0.086201765
000070 47 85 d4 3d 0c 86 27 3c 9a df 83 bd f5 1b 9b 3d
       0.10376983 0.01022483 -0.06439133 0.07573692
000080 02 55 bb 3a 5d 20 aa bd 61 17 cc 3c 56 f7 11 3d
       0.0014292302 -0.08306954 0.024913492 0.03563627
000090 98 ac a0 bc bd e0 4f bd 87 dc 54 3c 46 12 8e bd
       -0.01961355 -0.050751437 0.012992031 -0.06937079
0000a0 3c c0 61 bd a5 6d 9f 3d 41 86 dc bd b0 b1 bd 3d
       -0.05511497 0.07784585 -0.107677944 0.09262407
0000b0 55 51 b6 3d 11 32 79 3d f0 80 96 bc 21 f0 28 bd
       0.089022316 0.060838763 -0.018372029 -0.04124463
0000c0 11 41 93 3d 5b 70 2c 3c ff 01 93 bd eb 31 0e bc
       0.07190145 0.0105248345 -0.07178115 -0.008678894
0000d0 b4 56 60 3d ab e5 a0 bd 16 df f4 3c 09 6d b4 3d
       0.054770187 -0.07856306 0.029891532 0.08809859
0000e0 63 de bc bd f5 e5 21 3d 0b c7 0f be 2a 5d e9 3d
       -0.092221044 0.039525945 -0.14040773 0.11394723
0000f0 8c 5e 01 3e d7 2a 28 bd 06 69 ab bd 62 ff 0a be
       0.12633723 -0.04105648 -0.08369641 -0.13573983
000100 a6 17 8e 3d a9 b6 1f 3d 72 ba 41 3e b5 dd 81 3d
       0.06938104 0.038992558 0.1891878 0.063411154
000110 23 10 f5 bd 6c de 93 3d 81 55 0e 3e 2f 5e e0 bc
       -0.119659685 0.07220158 0.13899805 -0.02738866
000120 ec 17 59 bd e6 af 7a 3d 14 b1 9a 3d 08 a9 22 3c
       -0.05300133 0.061202906 0.07553306 0.0099279955
000130 5b 7d 10 3d ce a9 19 3d 7c de b8 3d e5 cd 7b 3c
       0.0352758 0.037515454 0.090268105 0.015368913
000140 22 62 95 3d d7 a0 ab 3c 0e 5e ef bd 62 eb 4d be
       0.07294108 0.020950718 -0.116878614 -0.20109323
000150 ef 8e 0c 3d ad 0b dd 3d 37 e2 5e 3c 3e aa 11 3d
       0.034316 0.107932426 0.0136037385 0.035562746
000160 4d 8b 81 bd 1f 45 24 be fd 7f 69 bd ae 44 1b 3d
       -0.06325398 -0.16041993 -0.057006825 0.037907295
000170 1d 8e e8 3d 92 e3 4e bd ce 45 31 3d 42 8d 43 bd
       0.11355231 -0.050509997 0.04327946 -0.047742136
000180 4c 1a 29 bd c8 5d 12 bc 91 a9 bf bb e6 3f 09 be
       -0.041284844 -0.008933492 -0.0058490713 -0.13403282
000190 01 ab 7b 3d 77 8a aa 3d 08 ca 3e bd 60 84 47 3d
       0.06144238 0.08327191 -0.04657939 0.048710227
0001a0 8c 81 89 bd bb 38 38 3d a8 bf 1b be fd 08 0b be
       -0.06714162 0.044975977 -0.1520983 -0.13577648
0001b0 b3 9e e0 bd ca fc 4d bd 97 fb 8a 3c db c8 72 3d
       -0.109677695 -0.050289907 0.01696567 0.059273582
0001c0 76 07 5f 3c 47 3b 10 3b eb 58 21 3d d6 00 73 3c
       0.013612619 0.0022007988 0.03939144 0.014831742
0001d0 a4 9f 89 bc 98 a0 e0 bc 96 81 ad bd 19 f2 45 3e
       -0.016799755 -0.027420327 -0.08471982 0.19330634
0001e0 a8 3a 93 bd 9f 9c 9f 3d a1 5f 81 bd f9 ab 5e bc
       -0.07188922 0.07793545 -0.06317068 -0.013590806
0001f0 ac b3 09 ba 91 39 ad 3d 05 9f 3d bd b5 25 6d 3d
       -0.00052529084 0.084582455 -0.04629423 0.05789729
000200 95 a6 12 bd d0 d7 09 3e 39 dc 56 bd fa 93 6f bd
       -0.035803396 0.13461232 -0.052456114 -0.05849073
000210 f3 53 04 3e 47 73 d7 bd 27 a0 03 3c 5d c9 5f 3d
       0.12922649 -0.10520034 0.008033789 0.054635394
000220 c6 a9 d0 bc 4f 51 5d bd 4e 00 cb 3d 53 76 ba bc
       -0.02547158 -0.05403262 0.099121675 -0.0227615
000230 6f 4a 6e bd d6 ec e8 bd 86 dd aa 3d f9 78 04 be
       -0.058176454 -0.11373298 0.083430335 -0.12936772
000240 66 3a 1b be 3c 32 0a 3e 7a 27 9d bd bd be 03 3e
       -0.15158996 0.13495725 -0.07673545 0.1286573
000250 3e c1 56 39 9a b2 a4 bd 31 11 e5 bd a6 00 be bd
       0.00020480619 -0.08041878 -0.111849196 -0.092774674
000260 d0 0d 1b 3e bf ff 6f 3d c8 f4 c3 3b 59 0e 91 3d
       0.15141988 0.058593508 0.005980108 0.07082815
000270 9c 5b 3d bd 00 e5 1d 3e be 7c b9 3d ac 8d c4 3d
       -0.046229944 0.15419388 0.09056996 0.09597334
000280 d8 9e d1 3d bb 7e 2a 3d 09 da 0b 3d e3 6b 02 3e
       0.10235375 0.041624766 0.03414348 0.12736468
000290 b9 c2 a9 3d 19 4b e7 3d 6b da 04 bd 71 22 4b bd
       0.082890935 0.112936206 -0.032434862 -0.049593393
0002a0 d0 80 e6 3d 78 65 fc bd 3f 40 21 3b 9b 4f 83 3d
       0.11255038 -0.12324041 0.0024604944 0.06411668
0002b0 ab 20 c9 3c e7 dc ae bd 10 d8 01 3c f4 f8 58 3e
       0.02455171 -0.085382275 0.0079250485 0.21188718
0002c0 32 38 8d 3d 00 54 d5 3d ef d9 c9 bc bd 0c 9a 3d
       0.06895484 0.10416412 -0.024640052 0.07521961
0002d0 61 38 c8 bd cc 65 e0 bd ad 5e fa bc 27 eb 03 be
       -0.097763784 -0.10956916 -0.030562723 -0.12882672
0002e0 08 88 3b 3d f2 27 36 3d f2 4a 96 3d 71 19 3d bd
       0.045784026 0.04447169 0.073385134 -0.04616684
0002f0 cd 9d 24 bc eb 86 43 bd 16 b7 d3 3c f7 57 15 3e
       -0.010047388 -0.04773609 0.025844138 0.14584337
000300 de 87 3b bc 2a 88 51 3d 0a 93 c8 bc 6c 2a 97 bd
       -0.0114459675 0.051155247 -0.024484176 -0.07381138
000310 25 4c 75 bd d0 ad a5 bb d3 be b0 bd a4 a3 31 bd
       -0.05988707 -0.0050561205 -0.08630147 -0.04336895
000320 24 49 59 bd 7e 7b 07 3e e7 a5 d7 bd 78 0c 94 bd
       -0.053048268 0.13230702 -0.1052969 -0.07228941
000330 2c 7e 74 3d 01 8a be bd 01 93 80 bd 67 d2 4b 3c
       0.05969064 -0.09303666 -0.06278039 0.012440301
000340 2f 81 e4 bd dc 5b a7 3d 2d 99 e0 3d 0a 2c 06 bd
       -0.11157452 0.08171818 0.10966716 -0.032756843
000350 34 8c e4 bc 6b 4e 33 bd b5 36 88 3d 11 06 ed bd
       -0.027898885 -0.043775957 0.066510595 -0.11573423
000360 bd 81 a9 3d f4 bd d1 bd f1 5e 63 3d bd 06 7c bc
       0.08276699 -0.10241309 0.055510465 -0.015382466
000370 a6 3e 93 bd 4e a7 b6 bc 29 50 5c bd 0a 26 6e 3d
       -0.071896836 -0.022296574 -0.053787384 0.058141746
000380 49 00 31 bd 01 f0 54 3d 73 b1 e2 3d 48 19 ca 3c
       -0.043213163 0.051986698 0.11069002 0.024670258
000390 e8 36 9a 3c c4 e4 6e 3d 36 cf 85 3d 93 46 43 3d
       0.01882501 0.058323637 0.06533663 0.047674727
0003a0 57 38 3e 3d 88 c3 01 be 84 51 26 bd e2 93 18 be
       0.04644045 -0.12672246 -0.040605083 -0.14900163
0003b0 ea d8 92 3d fb c9 81 3d 57 cf b4 bd 20 25 81 3b
       0.07170279 0.06337353 -0.088286094 0.003941193
0003c0 3a f5 86 3d 46 3c 17 3e 68 fb 93 3c 78 ec 8b bd
       0.06589742 0.14769086 0.018064216 -0.06832212
0003d0 9c 63 d7 bd 18 b8 82 bd 0d 9e fa 3d 41 cc 90 3c
       -0.10517046 -0.06382769 0.12237177 0.01767552
0003e0 1b 8c 0e be d8 57 53 be b5 d8 02 be 0b 74 07 bd
       -0.13920633 -0.20638978 -0.1277798 -0.03306965
0003f0 01 dd 94 bc 20 b0 8d 3c 22 48 c4 3d 8f f8 75 bd
       -0.01817179 0.017295897 0.09584071 -0.060051497

rnn.bias_ih_l0 f4 [256]
000000 27 48 ab bd 44 33 e0 bd e9 01 bf 3d b8 e1 5b 3c
       -0.08363371 -0.10947278 0.09326536 0.013420515
000010 f6 17 64 3d 41 4e 32 3e 95 7d b6 3d 9b b8 b5 3d
       0.055686913 0.17412664 0.089106716 0.08873101
000020 ec 13 9b 3d 8e d4 77 3c 50 91 0a 3e 3a 73 5a bd
       0.07572159 0.015126361 0.13531995 -0.053332545
000030 0b 8e 62 3c 7a 5a 53 3d 71 6e d2 3d 33 ed 2b 3a
       0.013827811 0.051599957 0.10274971 0.0006558478
000040 ac 13 32 bd f8 9d 9a 3d f5 0b ed 3d 8e 07 d9 3b
       -0.04347579 0.075496614 0.11574546 0.006623215
000050 5d e0 6e 3d 70 8f ac 3d b3 da a4 3c 2c 9b c5 3d
       0.05831944 0.08425796 0.020123815 0.09648737
000060 03 39 ca 3d 3a 26 06 3c 6f 40 bc bd 88 35 cb 3d
       0.09874155 0.008187825 -0.09191977 0.0992232
000070 19 88 dc 3d df 27 1d be 67 77 b4 3d a7 b5 15 bd
       0.10768146 -0.15347241 0.08811837 -0.03655019
000080 a3 61 8d bc 65 11 98 bd 5c 98 df bc a5 74 4a 3e
       -0.01725847 -0.07425193 -0.02729433 0.19771059
000090 55 58 7b bd d0 96 f0 bb f0 f0 86 bd ec 2f 8e 3d
       -0.061363537 -0.007342197 -0.06588924 0.06942734
0000a0 7d ff e2 3c ad 72 73 bd 02 02 ff bc 5e 73 18 3c
       0.027709717 -0.059435535 -0.031128887 0.009304849
0000b0 b7 f8 b9 bc 00 c5 17 3d 14 ec d2 bc d4 57 6d 3c
       -0.022701604 0.03705311 -0.025747336 0.014486272
0000c0 49 bd 0c 3d 4f 30 42 3b 49 9a d7 bd 7c ee f6 bd
       0.034360204 0.0029630845 -0.105274744 -0.12057206
0000d0 ff 9a 60 3d 94 55 ad 3d 90 4c 5b bd e5 f0 f1 3b
       0.054835316 0.08463588 -0.053539813 0.007383453
0000e0 0a 7c f1 bc 05 73 a0 bd 75 24 0c 3e aa b4 62 3e
       -0.029478092 -0.07834438 0.13685782 0.2213923
0000f0 47 bc dd 3d 99 a5 a4 bb f7 29 b4 bd f5 48 a6 3d
       0.10826927 -0.0050246236 -0.08797067 0.08119384
000100 c7 84 4f 3d a0 d7 cd bd 52 b6 b5 3d b0 5f a9 3d
       0.050663736 -0.10050893 0.088726655 0.08270204
000110 2f 92 fe bb 02 9d 32 bd b4 da 5f bd 29 2d af bd
       -0.0077688913 -0.043606766 -0.05465193 -0.085535355
000120 be ad e5 3d 41 77 e6 bd 7f e6 76 3b 09 ea 43 bd
       0.11214779 -0.11253215 0.0037674007 -0.047830615
000130 05 6d 01 bd 6e 6b 8b bd 21 46 a1 bd 95 af 97 3d
       -0.03159811 -0.068076 -0.07874704 0.074065365
000140 d3 ee 25 3e 2a 95 e9 3b f8 00 90 bd 5d 3a 9b 3d
       0.16204385 0.0071283774 -0.07031435 0.07579491
000150 ef 38 aa bd 4a 02 19 3d ef f7 88 3d 9e 5d 29 3d
       -0.083116405 0.0373557 0.066879146 0.041349046
000160 43 92 05 be a5 18 51 3d 48 df 28 bd 59 6b 6a bd
       -0.13044076 0.051048893 -0.041228563 -0.05723128
000170 53 59 a3 3d 7c c7 77 3d 8e 36 9b 3d c2 87 31 be
       0.079760216 0.060492977 0.07578765 -0.17336944
000180 55 24 e9 bd ee c2 91 3d 28 e2 1c be 8e 79 c8 3c
       -0.11383883 0.07117258 -0.15320647 0.024472024
000190 c8 56 4c 3d 34 91 2e bd 60 93 77 3d 35 5f cd bd
       0.04988745 -0.042618945 0.060443282 -0.10027925
0001a0 74 ec c9 3d 4b d0 cf 3d 8f 37 9f bc 21 05 34 3d
       0.09859553 0.101471506 -0.019435672 0.043950204
0001b0 ec d8 b1 bb 64 d2 ae 3d e2 8f f7 bd 33 bf 0c be
       -0.0054274704 0.085362226 -0.1208799 -0.13744812
0001c0 50 95 f7 bd 49 49 cb 3d 2a d7 de bb f9 b5 3f bd
       -0.12089026 0.099260874 -0.006800552 -0.046804402
0001d0 fe a4 f5 3d 6e ae 08 39 37 47 ab 3b 07 08 65 3d
       0.119943604 0.00013034951 0.0052269953 0.05591586
0001e0 4f 88 55 bd 43 ff a7 bd 4c c7 5c 3d b2 57 dd bc
       -0.052131947 -0.08202984 0.053901 -0.027019355
0001f0 71 75 ca 3d bf 5c a3 bc 6c a5 bb 3c 01 84 6a bc
       0.098856814 -0.019941686 0.022906028 -0.014313699
000200 28 c6 fa 3d 9b 64 95 3d e7 b7 7a 3d 90 96 b9 3d
       0.122448266 0.072945796 0.06121054 0.09061921
000210 87 5f b2 3d 0c de b6 bd 6c 83 2f be a7 6b 9a 3d
       0.08709627 -0.08929071 -0.17139977 0.07540064
000220 67 e8 c5 bb 46 80 b9 bd 4d 6f b7 3c dd 7e 27 bd
       -0.0060396674 -0.09057669 0.02239194 -0.04089247
000230 97 04 05 be 0c 86 71 be 6b 8d 34 3e 43 bb 42 3d
       -0.12990032 -0.23586291 0.17632072 0.047541868
000240 9b 86 0c bc 91 90 82 bd e9 60 38 3e 24 23 10 be
       -0.008577014 -0.0637523 0.18005718 -0.14075905
000250 c7 36 43 3d 62 ae 6d 3d 73 95 0a 3d 45 7f 02 be
       0.04765966 0.058027633 0.033833932 -0.12743862
000260 2e f0 19 3d ae fd a4 bd ea a4 38 3d 72 dd 0c bd
       0.03758257 -0.08056198 0.04507915 -0.034390874
000270 c6 b8 1a be 74 ce d0 bd 96 00 45 3d cd c2 17 be
       -0.15109548 -0.10195628 0.048096262 -0.14820404
000280 a1 ac 1e 3c 7a db e8 3d a0 2d 0c bd 31 b0 38 bd
       0.009684713 0.11369987 -0.0342232 -0.045089904
000290 2b 61 17 be 22 c9 1c 3e 0c 56 63 3d 72 cb 27 bc
       -0.1478316 0.15311101 0.055501983 -0.010241376
0002a0 d5 a3 3a 3e 09 d3 2d be fe d1 61 3d 84 b4 43 3d
       0.1822656 -0.16975035 0.055131905 0.047779575
0002b0 7a 4e e2 3d 8d 75 37 3d 35 c5 28 3e 8d ae 50 3d
       0.110501245 0.04478984 0.16481479 0.050947715
0002c0 4c 95 38 3d 86 de 71 3d bc 58 96 3d 9a ad 1d bd
       0.045064256 0.059050106 0.073411435 -0.038495637
0002d0 7b 99 a2 3d ff 58 d7 3d a7 7b c3 3c ce 46 c1 bd
       0.0793943 0.105150215 0.023862673 -0.09437333
0002e0 51 d3 2b 3e 62 f7 0c 3c a7 ef 70 bc a0 f7 fe 3d
       0.1677983 0.0086039025 -0.014705575 0.124495745
0002f0 38 ae ee bc 3a 53 1c 3d 02 46 e4 3d f2 6f 26 bd
       -0.029135808 0.03816531 0.111461654 -0.040634103
000300 0d 88 e8 bd 9b 4c 99 3c e7 ed 85 bd 7a fa c0 3a
       -0.113540746 0.018713286 -0.06539517 0.0014723085
000310 a1 a6 e2 3d c1 d4 fa 3d 33 32 2a 3d c2 ce 2f bd
       0.11066938 0.12247611 0.04155178 -0.04292179
000320 95 50 9a bb f4 c2 d8 3d fc be 88 3d 89 2d 01 3e
       -0.004709313 0.10584059 0.066770524 0.12615027
000330 0b f5 04 bd 44 36 fe 3d 41 fe 31 bd d2 0e 68 bd
       -0.032460254 0.12412694 -0.043455366 -0.05665476
000340 6a c0 8c bd 74 a6 f9 bc 1b 34 c7 bc e9 ac 2f 3e
       -0.068726376 -0.030474879 -0.024316838 0.17155804
000350 d6 6f db bd a0 a1 cc bd ba 0f 84 3d 2d 6c 92 bd
       -0.107146904 -0.09991765 0.06448312 -0.07149539
000360 3f f1 6e bc c1 7e cd bd 45 1c 03 be e1 ed 9e bd
       -0.014583885 -0.10033942 -0.12803753 -0.077602156
000370 a1 32 f8 3c 12 83 a2 bd 44 00 f2 bd 59 e4 1b be
       0.03029758 -0.07935156 -0.11816457 -0.15223826
000380 33 61 c0 bd 4f 38 4e bd 04 c2 4c bc f0 05 33 3e
       -0.09393539 -0.05034667 -0.012497429 0.17482734
000390 6c 17 13 ba 29 43 fa 3d 0f 20 18 3e 5b 7c a6 bd
       -0.0005611095 0.12219841 0.1485598 -0.08129188
0003a0 56 ea de 3d 94 25 94 3c d7 58 c8 3d 51 04 39 3d
       0.1088454 0.018084325 0.0978257 0.045170132
0003b0 de 4a e7 bc 99 78 83 bd db 27 54 bc 8e 1e f7 3b
       -0.028233942 -0.064194866 -0.012948955 0.007541484
0003c0 36 89 51 bd 28 aa 0c 3d c8 3a 31 bd fe 11 c3 3d
       -0.051156245 0.03434196 -0.04326895 0.09524916
0003d0 64 b4 e9 3d 45 37 a2 bd 08 ba e9 bc 8f bb 86 3d
       0.1141136 -0.07920698 -0.02853109 0.06578743
0003e0 5a 2e 20 3d 29 6f da bd 5d de c8 3d 8f ff 73 3d
       0.039106704 -0.10665733 0.098080374 0.05956989
0003f0 d8 86 46 bd 6a 19 4e bc 0b 6e ff bd 20 84 07 bd
       -0.04846844 -0.012579301 -0.12472161 -0.03308499

rnn.bias_hh_l0 f4 [256]
000000 35 32 ae 3d b7 7f 4a bd 8f 54 a1 3d 18 76 3b 3d
       0.0850567 -0.049438205 0.078774564 0.04576692
000010 d9 89 7b bd e6 2e 0b 3d 4f f4 a1 3d 11 94 97 3d
       -0.06141076 0.033980273 0.07907926 0.07401288
000020 31 33 24 3e 05 1f 84 3d f7 bb a8 bd 90 b1 38 3d
       0.16035153 0.06451229 -0.082389764 0.04509121
000030 ea b1 c4 bd 02 50 2b bd 19 a8 95 bd a4 b7 7f bd
       -0.09604247 -0.04182435 -0.07307453 -0.062430993
000040 2c c5 a6 3c 40 2d d2 bd 1d f5 35 bd 66 d3 06 3e
       0.02035769 -0.10262537 -0.04442321 0.1316658
000050 e5 ed d2 3d ca d6 04 be 83 68 60 bd 6b bb 74 3d
       0.10299281 -0.1297256 -0.05478717 0.05974905
000060 3b 03 8d bd 06 ed b2 3d 36 96 89 bd 6d 8f a2 3d
       -0.06885382 0.08736615 -0.067181036 0.079375125
000070 14 dd 0a bd 25 f7 c0 bd 15 e1 a5 bd c0 0f e5 bd
       -0.033902243 -0.09422139 -0.080995716 -0.11184645
000080 99 7e 16 3d 51 e1 a7 3d 80 4f 12 3d c6 0a fd 3d
       0.036741827 0.081972726 0.03572035 0.123555705
000090 14 f5 1a bd 9d 61 37 3d 33 ba e8 3d 14 e2 d6 3d
       -0.03783138 0.044770826 0.1136364 0.1049234
0000a0 4f 87 67 bd af c8 0b 3e 81 f4 0a be 68 c1 bc 3d
       -0.056525525 0.13650773 -0.13569833 0.09216577
0000b0 1d f6 61 3c c2 d2 1a bd 16 d2 98 3c f8 d8 db bd
       0.013791588 -0.03779865 0.018654864 -0.10734743
0000c0 d5 68 a1 3c 3f 75 4d 3d e7 d2 d4 3d 8a ed ad 3d
       0.019703308 0.050160643 0.10391789 0.084925726
0000d0 55 3c eb bd 98 6e a9 3d 15 bc f3 bd 38 43 e0 3d
       -0.11486117 0.08273047 -0.11901108 0.10950321
0000e0 ab 1c f7 bc 59 25 00 3e 65 17 dd 3d de 2c 0a 3d
       -0.030165037 0.12514247 0.10795478 0.033734195
0000f0 c0 a3 86 3c fa e0 7c 3d ed 01 bb bd 5c 2a 02 be
       0.016435504 0.061737992 -0.09131227 -0.12711471
000100 99 18 08 be 4a 70 24 be 30 c3 16 3e c2 42 e0 3d
       -0.13290633 -0.1605846 0.14722896 0.10950233
000110 af bd 7a bd 90 5f 53 bd 79 09 05 3e 09 19 ad bd
       -0.061216053 -0.051604807 0.12991895 -0.08452041
000120 10 0f e7 3c c5 86 83 3c fe c5 08 bd 91 78 54 bd
       0.028205425 0.016055474 -0.033391945 -0.051872794
000130 bc a9 27 ba 67 f8 82 3d 14 c3 c8 3c f7 5f 23 bd
       -0.0006395837 0.06395035 0.024507083 -0.03988644
000140 9d 99 28 3e 16 7a af bd 76 67 63 3d 87 56 05 3e
       0.16464849 -0.08568208 0.05551859 0.13021289
000150 c8 d3 2c bc bd 2b de bd 9d 5e 88 3d b6 57 12 3e
       -0.010548539 -0.10848186 0.06658671 0.14291272
000160 38 db 51 3d a9 02 53 bd f2 c9 58 bd 1d be f3 bd
       0.051234454 -0.05151621 -0.052926965 -0.119014956
000170 fa 66 0b 3d ea 5c a2 bd c6 38 ec 3d 16 f9 0d be
       0.034033753 -0.07927878 0.11534266 -0.1386455
000180 97 b9 08 3c b3 29 4b bd 31 ea 29 be 72 dd 84 bd
       0.008345029 -0.049600314 -0.16593243 -0.0648755
000190 96 df 8e 3d 52 2f 46 bd ba 90 a3 3d 79 b2 e8 bd
       0.069762394 -0.048384972 0.07986589 -0.11362166
0001a0 8a 60 eb 3d f9 52 81 3b 94 62 62 3c e5 17 2d be
       0.11493023 0.0039466587 0.013817448 -0.16903646
0001b0 1e 04 dd bd 5c 3e 4c 3d ba 5f 89 3d 89 98 0f be
       -0.10791801 0.049864158 0.067077115 -0.14023031
0001c0 91 c2 9f bc 28 77 1e bc 4a f4 0e bc 83 3e 49 bd
       -0.019501956 -0.009671964 -0.008725235 -0.04913188
0001d0 53 1e 65 bd 54 2b 8e bd 81 5a 96 3d cf ff d4 3d
       -0.055937123 -0.06941858 0.07341481 0.10400354
0001e0 40 74 d5 3d 5d 24 5f 3d 1c f3 f5 bd 7c 95 bd 3d
       0.104225636 0.054478038 -0.1200926 0.092570275
0001f0 c1 b9 0f bd cb 00 24 3d ce 93 93 3c 24 c7 e0 3c
       -0.035089258 0.04003982 0.018014815 0.027438708
000200 cc 8b d8 3d 19 de 90 3d c5 80 05 be 36 96 03 3d
       0.10573539 0.07073612 -0.13037403 0.032125674
000210 ed 73 43 3e f9 15 20 be 8f 11 0e bc a8 a9 2c 3e
       0.19087191 -0.15633382 -0.0086711785 0.16861594
000220 30 66 4f be d4 6e dc 3b 9f ea 18 be d9 7e 20 bd
       -0.20253825 0.006727079 -0.14933251 -0.03918347
000230 14 cc 46 be dd 48 53 bd 5a 91 39 3e 44 35 96 3c
       -0.19413787 -0.05158316 0.18121853 0.018335946
000240 34 f6 6c be 57 af a7 bd 91 fb 23 3e 22 31 cd bd
       -0.23140794 -0.0818774 0.16013934 -0.10019137
000250 81 b6 ba 3c 04 23 18 3e 59 6c 98 bd 2d 33 40 be
       0.022792103 0.14857107 -0.07442541 -0.18769522
000260 e4 29 5d 3d e0 f7 fe bb 9e 7e 4b bb e0 ee f3 3d
       0.05399503 -0.007781014 -0.0031050812 0.11910796
000270 6f 12 3b bd 43 b0 86 3d 01 76 df bd 88 7a 46 3d
       -0.045671877 0.06576588 -0.10911179 0.0484567
000280 d0 3c 11 bd c6 1c 97 bd b1 9b db 3d 71 e4 14 be
       -0.035458386 -0.07378535 0.10723055 -0.14540268
000290 8a c2 34 bd 2e 80 19 3e e0 dd 13 3e 8f db 8f bd
       -0.04413084 0.14990303 0.14440107 -0.07024299
0002a0 6c dc b5 3d f3 ae 07 bc f2 92 29 ba 7e 04 11 3c
       0.08879933 -0.008281457 -0.0006468735 0.008851169
0002b0 8a d6 7c 3d 2d b9 ea bd b9 d5 41 3d 89 66 06 3d
       0.061728038 -0.11461101 0.047322962 0.03281263
0002c0 9c f2 25 bd 10 67 8d 3d 3c 56 d7 3d 5e 38 3c bd
       -0.040514573 0.06904423 0.10514495 -0.045952193
0002d0 be 79 7d bc e9 38 20 3c 3d 60 28 3e ba d9 e7 3d
       -0.01547092 0.009779193 0.16442962 0.11320825
0002e0 a4 11 72 3d 54 18 fe bd 0d 86 4b bd 60 d8 2b 3e
       0.059098855 -0.12406984 -0.049688388 0.1678176
0002f0 e0 0f 30 3e 08 dd 7a 3d ec 4b d6 bb 16 76 79 3c
       0.17193556 0.061245948 -0.0065398123 0.015225908
000300 66 cb 95 bd 5e d0 d0 bd 7e ed e9 3c 81 0c 25 3d
       -0.07314186 -0.10195993 0.028555628 0.040295128
000310 99 5f 84 3c 75 1d 36 3e ba ae 01 3e 5c 27 4f ba
       0.016158866 0.17784674 0.12664309 -0.00079022883
000320 67 16 b6 3d 3c fc a9 bd ce 50 8f bd b0 a5 81 3d
       0.08890992 -0.08300063 -0.06997834 0.063304305
000330 cc 9e 96 bd 56 24 aa bd 8c cf a1 bd 16 99 d5 bd
       -0.07354507 -0.08307712 -0.079009145 -0.104295895
000340 78 24 a4 3d 2e f3 91 bd a2 e5 b7 3d df 5f 45 bc
       0.08014768 -0.07126461 0.08979346 -0.012046783
000350 2a 7d 34 bd a5 e7 f1 bc 50 da fe bc 89 85 5d 3d
       -0.04406468 -0.029529402 -0.031109959 0.054082427
000360 8c 8f df 3d 2d 16 64 3c 6f 79 e1 3d a4 5d b2 3c
       0.10916051 0.013921303 0.1100949 0.021773167
000370 7b 76 a6 3c da 9c 8b bc 5c 61 9d bd 22 d7 be bd
       0.020320168 -0.017042566 -0.076845855 -0.09318377
000380 53 5b ef 3d 30 12 e3 3b 5e f9 18 bd 40 8c b5 3c
       0.116873406 0.0069296584 -0.03734719 0.022161603
000390 5e a4 07 be 60 49 37 3d 99 f0 57 3d b5 18 9c bd
       -0.13246295 0.04474771 0.052719686 -0.076219
0003a0 3a 6d 8c bd 5d 51 ab bd 1e 6c 34 3d 63 45 86 bc
       -0.06856771 -0.08365128 0.04404842 -0.016390508
0003b0 17 50 f9 bd cc c0 bb bd f0 1b 78 bd 63 b3 54 bb
       -0.12173479 -0.091676325 -0.06057352 -0.0032455556
0003c0 7c dc 1c 3e 9a 5f 31 3e 8d fe e1 bd 72 e2 15 be
       0.15318483 0.17321625 -0.1103488 -0.14637163
0003d0 8c 99 d7 3d 44 72 17 3e ed 16 a7 3d ce d9 bf b9
       0.105273336 0.14789683 0.081586696 -0.00036592636
0003e0 08 61 8f 3d ff c5 14 bd 9b e9 16 3e c7 cd 1f bd
       0.07000929 -0.036321636 0.14737551 -0.039014604
0003f0 a1 39 db 3d d9 72 02 3d aa 81 d9 3b 4e c4 02 bd
       0.10704351 0.03184781 0.0066377716 -0.031925492

rnn.weight_ih_l1 f4 [256, 64]
000000 b7 4d dd ba 60 af ee 3d c3 22 c1 3d 6a 75 1c 3e
       -0.0016884123 0.11654544 0.094304584 0.15279165
000010 8e cb 39 bd 18 52 19 bd fe cd 06 3d 8a e8 08 be
       -0.04536014 -0.037431806 0.032911293 -0.13369957
000020 3b d0 41 3d 81 4c e0 3b 9e b4 2a 3e 6d 8a c1 3d
       0.047317725 0.0068450575 0.16670462 0.09450231
000030 39 ab 43 be 87 c6 dc 3c 3e ce 97 3d bc fd 84 bd
       -0.19108285 0.026950134 0.074123845 -0.064937085
000040 f1 de f8 3d 92 24 67 3c 2f e1 5e bc 00 6d 1c be
       0.12151898 0.01410784 -0.013603493 -0.15275955
000050 51 00 0d 3e c3 8a 3f bd 83 18 01 3e e1 96 0a 3d
       0.13769652 -0.046763193 0.12607007 0.033835296
000060 70 a6 08 bd b0 00 44 3d 25 d0 13 be e1 ee 83 bd
       -0.033361852 0.04785222 -0.1443487 -0.06442047
000070 01 8a 28 3e 6d 51 40 bc 11 2d 44 be f2 a4 cf 3c
       0.16458894 -0.011738163 -0.19157816 0.025347207
000080 8c 2e 9f 3c ad 33 04 3e 5d 8d 1e 3d de 28 21 bd
       0.019431375 0.12910338 0.038709033 -0.039345615
000090 de 59 07 bd 4d 2b 0e be a7 0e c9 bd f9 3b b5 bd
       -0.03304469 -0.13883705 -0.09817248 -0.088493295
0000a0 f9 97 d4 3c c7 27 88 3d bd 9c 21 3e 33 a7 34 3a
       0.025951372 0.06648212 0.15782447 0.00068913697
0000b0 83 ef 9d 3b 4e 0a 53 bc 71 35 90 3d d9 2d 17 3e
       0.004819812 -0.012880875 0.07041443 0.14763583
0000c0 51 d0 24 bd f0 8b e3 3d 98 ec d0 bd 00 55 8e 3d
       -0.04023773 0.11110675 -0.10201377 0.06949806
0000d0 41 97 f6 3d 3f 7e 69 3d 95 9b 91 bd a8 cc d6 3d
       0.12040568 0.057005163 -0.07109753 0.10488254
0000e0 ca 82 30 3e 83 9d 8e 3b 42 bb 05 bd 85 00 eb bd
       0.17237392 0.004352273 -0.032649286 -0.114747085
0000f0 66 85 84 3e 71 fd 02 bd 1f d2 45 bd 43 bd 92 3d
       0.25883025 -0.03197998 -0.04829609 0.07165005
000100 8f b4 1e 3d 17 c2 1a 3d 15 5b ce 3c a5 13 d0 3d
       0.038746413 0.037782755 0.025189916 0.10159997
000110 8d bf 96 bb 4d 7c 1b bd 3d 4a b9 bd 12 0b 36 3d
       -0.0046004714 -0.03796034 -0.09047363 0.04444415
000120 ba 32 61 bd 44 84 80 bd 16 ba c7 3d a3 49 01 bd
       -0.054980017 -0.06275228 0.0975229 -0.031564366
000130 26 68 58 be 3f 5b 08 bc d1 ea 81 bd ea 51 b7 3d
       -0.2113348 -0.008322536 -0.06343616 0.08951171
000140 bd 7e 50 3d d7 dc 33 bd 18 43 03 bc 8d c6 8c be
       0.050902117 -0.04391178 -0.008011602 -0.27495232
000150 b8 84 2d 3e 65 02 82 3d 21 8f d2 bc 59 ee e9 3d
       0.1694516 0.06348113 -0.025703015 0.11422414
000160 87 08 30 3d 0f 0a b3 bc 39 a4 45 be 80 9a 9a bd
       0.042976882 -0.021855382 -0.19300927 -0.07549
000170 36 a3 8f bd 5f 47 2d bd 6e 32 07 bd c1 04 d7 bd
       -0.07013552 -0.042304393 -0.033007078 -0.104989536
000180 aa 34 11 3e 63 4b ca 3d a9 d4 18 3e f6 23 30 bd
       0.14180246 0.0987766 0.14924873 -0.043003045
000190 51 9e b9 3c f9 10 da bd aa c7 86 3d 89 86 06 3d
       0.022658499 -0.106477685 0.06581052 0.032843146
0001a0 40 92 59 3d 2e f6 e3 3d 34 c4 40 3e 96 91 a3 bd
       0.05311799 0.111309394 0.18824846 -0.07986753
0001b0 2c 5e a9 bc 80 19 09 3e 05 27 f6 bc 7e a8 83 3d
       -0.020674787 0.13388634 -0.030047903 0.06428622
0001c0 27 4d 06 bd 2e 74 07 3e a9 76 cc 3d 8d d7 06 3e
       -0.032788422 0.13227913 0.0998357 0.13168164
0001d0 51 0d f5 bb d1 2a 5c 3c 89 14 d6 3d 5c cf f1 3c
       -0.007478394 0.013437943 0.104531355 0.029517822
0001e0 4d b8 69 3e 21 2c f6 3d 67 d5 d5 bd 09 f1 cc bd
       0.22824211 0.12020136 -0.10441094 -0.10006911
0001f0 7a c7 af 3d 78 54 02 3e 24 ff 32 bd 1a 62 de bd
       0.08582969 0.12727535 -0.043700352 -0.10858555
000200 da 80 80 bd 84 46 e8 bc 7c 3b 8e 3e ab df 8b bd
       -0.062745765 -0.028353937 0.27779758 -0.06829771
000210 98 25 a1 bd e8 d8 0a 3d c1 c1 bd bd 6f 48 ea 3d
       -0.078684986 0.033898264 -0.09265471 0.11439597
000220 a5 e5 ff bd f2 0a c7 3d 47 51 0a 3e 29 4c 1c be
       -0.12494973 0.097188845 0.13507567 -0.15263428
000230 33 4f 60 3e 6d 22 fa bc 30 60 01 bd 54 45 5d bb
       0.21905212 -0.030533994 -0.031585872 -0.0033763247
000240 f1 a0 84 3d ad a2 03 3e 1d 35 96 bc c3 9a f0 3b
       0.0647601 0.12855025 -0.018335873 0.007342668
000250 bc fd 9d 3c a2 1f 16 bc 3f a8 cf bd b1 fe 30 bc
       0.019286029 -0.009162815 -0.10139512 -0.010802911
000260 c1 93 27 bb 13 5c 40 be f3 30 71 bc 55 d6 a7 3d
       -0.0025570246 -0.18785124 -0.014721143 0.081951775
000270 6b d2 84 bd b4 81 82 3d 9c 49 90 bd be 7d 1d 3e
       -0.064854465 0.06372395 -0.0704529 0.15379998
000280 8f d6 40 3c 44 97 0d 3e f1 6c 20 3d fa 14 53 bd
       0.011769905 0.13827235 0.039166395 -0.051533677
000290 9a ee 45 bd cf ba 8a 3d 14 20 20 bd ac 8a 11 3d
       -0.04832325 0.06773912 -0.039093092 0.03553264
0002a0 c4 df 75 bd 6b 5f 4a 3d f5 f4 16 be a7 1a 84 3d
       -0.060027853 0.049407404 -0.14741881 0.06450396
0002b0 25 03 2d 3d 67 1d 82 3d a7 41 bc bc 0b 5a a6 3d
       0.042239327 0.06353264 -0.022980524 0.08122643
0002c0 68 e2 a5 bb a3 4b 1c bd 92 63 22 bd f8 97 52 3c
       -0.00506239 -0.03815807 -0.03964574 0.012853615
0002d0 c4 d5 55 bc 41 6b 6b 3e 16 69 6f bc a9 29 29 3e
       -0.013051454 0.22990133 -0.014612457 0.16519798
0002e0 78 7d a7 bd 7f 3f bc bd 7f a9 64 be 1c bf d8 bb
       -0.08178228 -0.091917984 -0.22330283 -0.006614579
0002f0 b0 24 59 bd 27 38 7b 3d c0 35 a2 bd 05 c0 b4 bc
       -0.053013504 0.061332848 -0.07920408 -0.022064218
000300 64 90 1f 3c bf 6d 2a bd 85 a6 dc 3d 13 8f 90 bd
       0.009739015 -0.04160857 0.107739486 -0.07058539
000310 37 a1 b3 3c 33 15 83 3d e0 c5 66 3d 48 06 10 3e
       0.02192746 0.06400528 0.056341052 0.14064896
000320 3b 85 11 be 02 af d6 bd db 42 f5 3c 00 06 a8 3d
       -0.1421098 -0.10482599 0.029939106 0.082042694
000330 8e 77 31 bd 52 45 87 3d 0b 3f 1f bd 48 bf 62 bd
       -0.043326907 0.06605019 -0.03887848 -0.0553582
000340 a7 36 a7 bc 99 22 a2 3d b6 44 a6 3d 65 16 5a bb
       -0.020411802 0.07916755 0.08118574 -0.0033277508
000350 86 af c8 bd 18 bb b2 bd 75 f8 45 bd ef 98 1f 3d
       -0.097991034 -0.087270916 -0.04833265 0.03896421
000360 fa 18 15 3d 69 02 d2 3d ae 5b 5f be ca 24 bb bd
       0.036400773 0.10254366 -0.21812317 -0.09137876
000370 3c d2 5b bc 0d dc c7 3d 1e 07 46 bc 89 e7 24 3e
       -0.013416823 0.09758768 -0.012086658 0.16103949
000380 69 5b 56 bb cb 44 af bc d2 86 29 be 89 5e 93 3c
       -0.0032708293 -0.021395108 -0.16555336 0.017989414
000390 2c 2d 16 3c 4d 3f 50 bd d8 9e a4 3a 7e fd 8f 3d
       0.009166043 -0.05084162 0.0012559546 0.07030772
0003a0 48 b3 19 3d 7a 0c 8b bd 1c 9f 56 3d aa 22 e7 3d
       0.03752449 -0.06789489 0.052397832 0.112859085
0003b0 9e 36 8a bd 76 96 a7 3d 9d 1a 10 be 33 d5 59 3d
       -0.06748699 0.08182995 -0.14072652 0.05318184
0003c0 2d c5 fd 3d 96 76 ae 3c a9 b3 67 3d 0f c5 45 bc
       0.12391124 0.02129678 0.05656782 -0.012070908
0003d0 17 f4 af bd e8 b0 ac 3b 5d c4 df 3d 0f 1d 4d bd
       -0.08591478 0.0052701123 0.10926125 -0.05007654
0003e0 03 e0 2d be 24 eb 38 ba 27 25 25 bd de 39 b2 3c
       -0.16979985 -0.00070540817 -0.040318634 0.021756109
0003f0 40 6d 23 be af 87 fc bd 50 5a c5 bd f4 a3 93 3c
       -0.15959644 -0.12330567 -0.09636366 0.018022515

rnn.weight_hh_l1 f4 [256, 64]
000000 2e 84 82 3d df 84 b0 bd a9 09 bb 3d fc 29 25 3d
       0.063728675 -0.08619093 0.09132702 0.040323243
000010 e1 b1 21 be ea 45 7e 3d 43 ee 8b bd 3a 6b 2d bd
       -0.15790512 0.062078394 -0.06832554 -0.042338587
000020 02 17 33 3d f8 df 90 3d f8 80 98 3d a1 5a 84 3e
       0.043723114 0.07073969 0.07446474 0.25850394
000030 fc 17 f3 3d 92 ed 4f 3d 47 2e 89 3d 3d 3f 9f 3c
       0.11869809 0.050763674 0.0669828 0.019439334
000040 ce 7c 5c bc 8a 74 08 3d 76 a8 a0 3d 80 07 fe 3d
       -0.01345749 0.033314265 0.078446314 0.12403774
000050 1f ce 85 3d da cf 7b 3c 28 9d ae bc c8 88 0c 3e
       0.06533455 0.01536938 -0.021315172 0.13724053
000060 48 78 2f 3e ae 16 a8 bd 30 52 ae 3d 9b 54 57 3d
       0.17135727 -0.08207451 0.0851177 0.05257092
000070 26 dc 1e bc 26 69 4d 3e 35 54 13 be a7 40 c9 bd
       -0.009696042 0.20059642 -0.14387591 -0.098267846
000080 26 4a 06 3e 4f 06 1b be 34 b9 03 3d af b6 38 3d
       0.13114223 -0.15139125 0.032159045 0.045096096
000090 91 29 61 be bf 82 24 3e 65 96 0f 3e 54 f6 c4 bc
       -0.21988513 0.160655 0.14022215 -0.02404324
0000a0 0a 5b 8c bd 7c 74 31 3d 4a 42 66 be e3 2f 14 3d
       -0.06853302 0.04332398 -0.22486225 0.03617848
0000b0 dc 63 4f 3e f0 98 5d bc 3c cd 17 bd 14 bf 0a 3e
       0.20252937 -0.013525233 -0.03706096 0.13549453
0000c0 1f 9a 52 3d 43 cc 68 3d 2a b4 9c bd 24 4c ee 3c
       0.051416513 0.056835424 -0.07651551 0.029089041
0000d0 be b7 87 be b0 0e 30 be 37 96 36 3e 6f 09 8a 3d
       -0.26507372 -0.17193103 0.1783074 0.067400806
0000e0 9c 92 3c bd 03 13 0d bd b2 ae f8 3d 6f 92 0c 3b
       -0.046038255 -0.03444196 0.121426955 0.0021449586
0000f0 30 c0 2d 3d e5 b0 cd 3d be c4 d9 3d 68 0f 5c 3d
       0.042419612 0.100435056 0.10633229 0.05372563
000100 9f 70 2a bb 0c ee 0a 3d 4c ed 66 3e a9 26 66 bd
       -0.0026007069 0.033918425 0.22551459 -0.056189213
000110 24 27 13 bc 16 6e 03 be 2b ef e5 bd 1d e3 da bc
       -0.0089815 -0.12834963 -0.11227258 -0.026719624
000120 d7 d3 35 3e 00 80 10 b8 9a d9 d9 3d f6 77 03 3e
       0.17756592 -3.4451485e-05 0.10637207 0.1283873
000130 34 ec 47 3c f3 eb d9 bc d7 19 df 3c c3 f8 9d bd
       0.012202311 -0.026601767 0.027234001 -0.07713463
000140 2f d0 85 bc c5 4b 23 3e e5 20 04 3e 23 37 5f bd
       -0.016334621 0.15946873 0.12903173 -0.05449594
000150 9e 28 0c 3d 80 48 7f bd f0 7a e7 bd 35 1d 75 3e
       0.034218423 -0.062325 -0.11302745 0.23936923
000160 2c a3 24 3e 3d 2d 34 be f0 d7 d8 bd 86 f6 3c 3c
       0.1607787 -0.17595382 -0.10588062 0.011533385
000170 ee a6 9c 3b af 04 e6 bd 1d 29 9c 3d f8 4b 15 3c
       0.0047806418 -0.11231362 0.07625029 0.009112351
000180 04 6b 83 3c 14 d2 1a be df ff 90 3c 37 0f 0e ba
       0.01604224 -0.15119201 0.017700134 -0.00054191373
000190 a7 b4 6a be e3 af 01 3e 03 ec 35 3c 3c f7 1a 3e
       -0.22920476 0.12664752 0.011103633 0.15133375
0001a0 90 9d 1e 3e 74 65 d9 3c e7 55 5f bd 3e 46 3d be
       0.15489793 0.026537634 -0.054525282 -0.18483827
0001b0 ca 43 c0 bc bf d2 c0 bd da d5 2c 3d 0b 68 14 3d
       -0.023469824 -0.094151966 0.042196132 0.036232036
0001c0 7e 07 97 bd 14 3b 0b be 24 2d cc 3c dc 3d a7 bd
       -0.07374476 -0.13596755 0.024923868 -0.081660956
0001d0 75 0f 7e be 52 29 13 be 01 37 04 3e e3 84 8d bd
       -0.24810584 -0.14371231 0.12911607 -0.06910112
0001e0 3f 85 d5 bb e1 7d c0 3c 7d bd f0 3c a5 fa 82 bc
       -0.0065161283 0.023497524 0.02938723 -0.015988657
0001f0 f5 04 c2 3d 0f fa 06 3e 80 36 08 3e 3a e6 0c bc
       0.09473602 0.13181327 0.1330204 -0.008599812
000200 a2 39 36 be c1 89 8f 3d fb db e8 bc 95 1b 40 3e
       -0.17795423 0.07008696 -0.028425207 0.18760522
000210 55 dc 3d be 3f be a6 3d 01 b8 ed bd 64 ff 36 3e
       -0.18541081 0.08141755 -0.116073616 0.17870861
000220 71 69 03 be 8d 8d cd bd f3 e2 47 bd f6 8f 75 3c
       -0.12833191 -0.10036764 -0.04880042 0.014987936
000230 d2 a0 57 bc 3a 17 3f 3d c1 89 ae bc 18 c5 a6 bb
       -0.013160901 0.04665301 -0.02130592 -0.0050894134
000240 fc db df 3b ca de 11 3e fe 13 0a be a3 8f 53 3d
       0.006831644 0.14245144 -0.13484189 0.051650655
000250 4a 0f bd 3d 7e a6 63 3d ae 8d dd 3d 26 76 99 bc
       0.09231432 0.0555787 0.10818039 -0.018733095
000260 7b 80 18 bd 79 61 1b 3d e0 f4 4f be 27 f7 7f be
       -0.037231904 0.037934754 -0.20308256 -0.24996625
000270 10 ab 11 3e e9 e8 93 3d cd bf 14 be 70 a6 85 3d
       0.14225411 0.072221585 -0.14526291 0.06525886
000280 4e 4f f5 3d ec 0b f9 bd d0 1f 37 3e a0 8a 7e 3c
       0.11978017 -0.12160477 0.1788323 0.01553598
000290 57 82 1e be 1f 0d 96 3c 7f a0 a5 be 9c d1 96 bb
       -0.15479408 0.018316804 -0.3234901 -0.004602624
0002a0 9d 5d ce bc 91 15 1c 3d 01 4a bd 3d 56 9e a4 3d
       -0.025191123 0.038106505 0.09242631 0.08038013
0002b0 b5 5f 30 3d 89 cb 4f 3e a7 7b 21 3e ee b7 8a 3d
       0.043060023 0.20292486 0.15769826 0.06773363
0002c0 35 e1 42 3d a5 45 4f 3e 2d fa c2 3d 17 54 4b bd
       0.047578055 0.20241411 0.095203735 -0.04964074
0002d0 26 92 0b bd 56 5c 09 3d 2c 0f 8b 3d 03 ad 4c bc
       -0.034074925 0.033535324 0.06790003 -0.012492421
0002e0 de 93 8b bd be 83 82 3d da db 8c bd d8 3a 34 3d
       -0.06815313 0.06372784 -0.06877871 0.04400143
0002f0 bb 41 89 3d a0 79 3e bd dc 50 52 3d f9 bd 6b bd
       0.0670199 -0.04650271 0.051346645 -0.05755422
000300 1d 86 c1 3d 84 4b d8 bd 18 ca 7c 3d a7 2d 18 be
       0.09449408 -0.105612785 0.06171617 -0.14861165
000310 1f f2 0b bd 96 d9 e9 3d bf 56 cd 3d 59 79 24 3d
       -0.03416645 0.11418454 0.10026311 0.04015479
000320 87 39 d0 bc f2 31 b6 3d b5 f3 95 bd 51 6d 95 bd
       -0.025418056 0.08896245 -0.07321874 -0.07296241
000330 62 c4 ea bd 03 81 8c bd af 74 bf bd 1a 39 9c bd
       -0.11463238 -0.068605445 -0.093484275 -0.07628079
000340 69 ed 56 bc 71 09 1a be 4c ab 94 bd d4 89 bb 3b
       -0.013118126 -0.15042664 -0.07259235 0.0057232175
000350 ec 16 17 3a b0 0f 2a 3e 46 c7 03 be 30 5a 89 bd
       0.00057636085 0.16607547 -0.12868986 -0.06706655
000360 28 df b4 3d 67 17 01 bc 11 68 91 bc 34 4d dd 3c
       0.08831626 -0.007879115 -0.017749818 0.027014352
000370 4e db 10 be c9 bc af bd 19 04 04 bd 14 db 9c 3d
       -0.14146158 -0.0858093 -0.03223047 0.07658973
000380 a6 c5 c9 bd 02 dd e0 bc 5a 47 2b bc ae c5 11 3e
       -0.098521516 -0.027449135 -0.010454023 0.14235565
000390 3e b1 bc bd 45 db 94 bd 1a d0 6e 3b 26 5f 8c bd
       -0.09213494 -0.07268385 0.0036439956 -0.068540856
0003a0 82 2e b7 bd 99 85 0d bd f0 f4 8f bd a7 84 59 bd
       -0.089444175 -0.034551237 -0.0702914 -0.053105023
0003b0 b8 d3 99 bd a1 5a 00 be af 52 98 3d 8a 30 bd bd
       -0.07511085 -0.12534572 0.07437646 -0.09237774
0003c0 5e 0e 41 be 39 b9 2b be d7 f1 bf bd 0e 6a 36 be
       -0.18853137 -0.16769876 -0.09372299 -0.17813894
0003d0 04 17 0c bd 32 77 a6 bd 1c 18 40 3e c7 6a 47 bd
       -0.034201637 -0.081282035 0.18759197 -0.048685815
0003e0 65 7b 20 bd 9b 39 b2 3d d1 ad aa 3d 05 65 4b 3d
       -0.03918018 0.087023936 0.08333934 0.049656887
0003f0 4f 32 d5 3c f8 99 d4 bd 3a 99 08 be 8c 6e 7c 3d
       0.026024966 -0.1038093 -0.13339701 0.061628863

rnn.bias_ih_l1 f4 [256]
000000 78 1a 56 3d 33 47 0f be a3 3d b2 3d 7e f0 d9 3d
       0.052271336 -0.13992004 0.087031625 0.10641573
000010 9c 85 14 bc f9 0b 74 bc a5 a1 9d bd 9e f1 a1 3d
       -0.009065058 -0.014895433 -0.07696847 0.07907413
000020 48 8c 19 bc 1c 2f 9d 3d ad 7a 66 bd 73 0f db 3d
       -0.009371825 0.07675001 -0.056269336 0.10696306
000030 41 aa ef 3c 3d e9 86 bd 42 f3 21 3d 9a 62 14 3e
       0.029255988 -0.065874554 0.03953863 0.14490739
000040 ec 66 d4 3d ab 01 f3 3c c7 19 b1 3d 7d 3e fb 3d
       0.10371193 0.029663881 0.08647495 0.12267778
000050 3d 87 05 3e 01 c4 3b bb 3d c2 e2 3c 85 dc 01 3e
       0.1303987 -0.0028650763 0.02768051 0.12681778
000060 86 cb b8 bd 9c 4f 03 3e a9 3b 37 bd 92 0f 25 3e
       -0.09023194 0.12823337 -0.04473463 0.16119221
000070 69 ef 2a 3e c9 05 14 3d 71 24 41 bd 4a f6 48 bd
       0.1669289 0.03613833 -0.047153894 -0.049063005
000080 1d 0b 14 bd 4d f3 e9 3d 36 6e a6 3e b6 5d 3b bd
       -0.03614341 0.11423359 0.3250596 -0.045743667
000090 b2 da f1 3d fc 8e 7c 3d 73 9b 17 bc 30 64 a4 3a
       0.11809291 0.061659798 -0.009253371 0.0012542065
0000a0 15 a8 8f 3d 22 39 2d 3e 6f 6f 94 3d 11 2a 08 3d
       0.07014481 0.16916326 0.07247817 0.033243243
0000b0 58 91 b9 3c 6f e3 de bc 18 5f 8b 3c 6a 0a b0 3d
       0.022652313 -0.027208058 0.017013118 0.08595736
0000c0 e3 c7 e4 bd fc e3 9d 3d 18 f8 cf 3c 90 fc 82 3e
       -0.11170938 0.077095 0.025386855 0.25583315
0000d0 c3 ed 62 3c 55 98 63 3c 0b 18 86 bc b6 27 5f bd
       0.013850632 0.013891299 -0.016368886 -0.05448123
0000e0 b8 10 48 3d b1 31 e8 bc e2 48 d7 bc 85 39 57 3e
       0.04884407 -0.028344007 -0.02627987 0.21018036
0000f0 c5 97 a0 bb b1 a5 aa bd 77 57 82 3c d1 7f 32 3e
       -0.004900905 -0.083323844 0.015910847 0.1743157
000100 b7 85 d5 bd 41 16 ad bd 0f ac a8 bd ed 02 43 bd
       -0.10425895 -0.0845151 -0.082359426 -0.047610212
000110 40 df 69 bd ee e3 f4 bd d9 06 a4 bd 22 f4 ab 3d
       -0.057097673 -0.11957537 -0.080091186 0.08396174
000120 37 ba 40 bd 9a ae e8 3d f5 76 5d 3d 57 32 b7 bd
       -0.04705259 0.113614276 0.054068524 -0.089451484
000130 d4 66 29 3d 81 4e 65 3d f2 70 31 bc 66 65 d6 3c
       0.04135783 0.05598307 -0.010830151 0.026171397
000140 fe 29 82 bd 61 68 70 bd fd 83 c4 bd b5 80 43 bd
       -0.063556656 -0.058693293 -0.09595487 -0.047730166
000150 92 f9 3d bd 8e 87 c6 3d b4 3d 61 3d 0c 46 17 3e
       -0.046380587 0.09693824 0.054990485 0.14772815
000160 8b 1e df bc 32 1c d2 3d ab c5 fc bd f7 16 3c bd
       -0.027236244 0.10259284 -0.1234239 -0.04592034
000170 f3 6f e9 3d f2 99 9c 3d 7d 72 00 bd 34 6c 1f 3d
       0.11398306 0.0764655 -0.031359185 0.03892155
000180 b2 f6 2f 3c a5 e0 e3 3d cb d9 52 3d ab 1b 90 bd
       0.010739969 0.11126832 0.051477235 -0.07036527
000190 9a 03 24 bd e5 55 6a bd 09 ac 11 3e ee c1 db bd
       -0.040042497 -0.05721082 0.14225782 -0.107303485
0001a0 b6 ff bb bd c6 be ae 3d 73 e5 2c bd 57 f7 aa bd
       -0.09179632 0.08532481 -0.042211007 -0.083479576
0001b0 04 61 9f 3d b0 55 76 bd b1 ca dc 3c 8c 8f 46 bd
       0.07782176 -0.06014031 0.02695212 -0.04847674
0001c0 41 fd f0 bd c8 7d 08 3e fd d8 fd 3c 83 dc 70 bc
       -0.11767054 0.13329232 0.030987257 -0.014701012
0001d0 55 f5 dc bd 79 30 bb bd 87 8c cd 3d b1 9d d0 bc
       -0.10788981 -0.09140105 0.10036569 -0.025465818
0001e0 c2 eb a9 3d d3 f0 43 ba 4b 68 8e bc a3 1e c8 3b
       0.0829692 -0.0007474545 -0.017383715 0.006107168
0001f0 f0 e2 33 3d 67 c6 c7 bb 55 4e ba 3c 4e a4 f2 3d
       0.043917596 -0.0060966494 0.02274243 0.11847745
000200 c7 8d fd bc f5 73 d7 bd f0 06 af 3c 01 46 96 bd
       -0.030951394 -0.10520164 0.021365613 -0.07337571
000210 ea 12 31 3d 29 d8 da bd f3 82 16 3e a9 26 c9 3c
       0.04323093 -0.106857605 0.1469839 0.024554567
000220 04 9b 80 3d 79 6c a2 3b 1d bf ab bd 36 19 9f bd
       0.06279567 0.0049567786 -0.08386061 -0.077684805
000230 ac d3 19 bd 22 cf 4c bd 35 28 d4 bd 2d 4d d0 bd
       -0.03755538 -0.050002225 -0.103592314 -0.1017097
000240 92 ef f8 bd 89 7a e6 3d 92 97 a1 bd 7c 89 82 3d
       -0.121550694 0.112538405 -0.07890238 0.06373879
000250 c9 59 1a 3d 24 46 72 3d 39 2d 12 3d 21 22 16 3d
       0.037683282 0.059148923 0.03568766 0.03665364
000260 0d da d9 bb c7 8b 89 bd 6d 03 0c bd 2d fc a5 3c
       -0.006648308 -0.067161135 -0.034182955 0.020261848
000270 10 04 37 bd 24 e5 71 bc a5 86 41 3d 51 9a 09 be
       -0.04468161 -0.014764104 0.047247548 -0.13437773
000280 48 5f cb 3d f6 eb 5d bd 40 47 96 bc 1c 8f ff bd
       0.09930283 -0.054180108 -0.018344522 -0.12478468
000290 0a e9 b0 3c 55 09 ff 3d f0 37 17 3c 89 54 b8 bd
       0.021595497 0.12452952 0.009229645 -0.09000499
0002a0 ab ba 76 3d 9c 57 5d 3c a1 68 df 3c bf 07 e7 bd
       0.060236614 0.013509657 0.02727157 -0.11280774
0002b0 eb 22 27 bc 43 8a 6e bd db d1 bb 3d 7b a0 9a 3c
       -0.010201196 -0.058237325 0.09170886 0.018875351
0002c0 37 e2 b0 3c 71 d0 b4 bd 2b 40 b2 bd 33 4c 27 be
       0.021592243 -0.088288195 -0.08703645 -0.16337661
0002d0 95 2d 85 3d ed 42 f2 bb 13 ba eb 3d ec 0c 97 bd
       0.06502835 -0.007393232 0.115101 -0.073755115
0002e0 99 ef dd bd e4 70 ac 3d bc 6b 9d bd d9 e5 0d be
       -0.10836715 0.0841997 -0.07686564 -0.13857211
0002f0 59 9b 85 bd b2 38 97 bd c3 89 4c bd 13 d0 b8 ba
       -0.06523771 -0.07383861 -0.049936067 -0.0014100097
000300 24 ed 57 3d e0 0c 14 bd 0c be 8b 3d 29 35 a8 3d
       0.05271639 -0.03614509 0.06823358 0.082132645
000310 e5 9b d6 3d 43 be 11 3d 9d eb 06 3e 9a e8 5a 3d
       0.10478953 0.03558184 0.13175817 0.053444482
000320 8b 9e fd bd 2c a7 6c bd 6c 8a b0 bc 6f 71 99 bd
       -0.12383755 -0.057776615 -0.02155038 -0.07492339
000330 36 29 8b bd 46 54 1d bc ac d6 cf bc fb 1b f7 3c
       -0.0679497 -0.009602612 -0.025370918 0.03016471
000340 af 34 67 3d 6e 2d 60 3d 9c b2 f8 3d e7 16 fc 3d
       0.056446727 0.054730825 0.12143442 0.12309056
000350 c7 2b 95 bc ad 1e db ba cb 92 2f 3e 7e 92 34 bd
       -0.018209351 -0.0016717516 0.17145841 -0.04408502
000360 e8 d3 60 3d 3e 8b fb 3d a2 46 ed bd 80 98 ac 3c
       0.05488959 0.12282418 -0.11585738 0.021068811
000370 59 46 55 3d 5a 10 e7 bd fc a9 b5 ba 96 2c 09 bd
       0.052069042 -0.11282416 -0.0013859863 -0.033489786
000380 8b 1c c7 3d 4b 2f bf 3c ab d4 1f 3e e2 40 fe 3d
       0.09722241 0.02333798 0.1560847 0.12414719
000390 14 71 0f 3e 7a 41 c2 3d 04 82 5b 3d f8 42 b0 3c
       0.1400798 0.09485145 0.05359079 0.021516308
0003a0 35 3f 5a bc 04 05 80 3c 8f e8 cc bc 55 a8 e5 3d
       -0.013320734 0.015627392 -0.025013236 0.112137474
0003b0 3d e7 80 3e c4 2d 13 bd 31 59 e2 3d 77 4f fe 3d
       0.2517642 -0.035932317 0.11052168 0.124175005
0003c0 49 e1 8b bd 8a f0 12 3e 14 8f a6 bd 0e db 7b 3e
       -0.06830079 0.14349571 -0.08132759 0.24595281
0003d0 0c 32 20 3e 96 fb 8f bd 6d c2 e6 3d 36 72 e5 3d
       0.15644091 -0.07030408 0.112675525 0.11203425
0003e0 cf ca 94 bc 96 d3 d5 bc 05 29 9d bd ef f2 08 3e
       -0.018163113 -0.026101869 -0.076738395 0.13373922
0003f0 d0 34 aa 3d b0 e7 fe 3c 04 4f 17 3e eb 25 30 bd
       0.083108544 0.031116337 0.14776236 -0.04300491
