何洪剑/week06/runs/best_5days_model.pth (torch, 205459 bytes, 10 tensors)

lstm.weight_ih_l0 f4 [256, 1]
0	0x3e0ca332	0.13734129
1	0x3da51cf6	0.080621645
2	0xbf3c8df3	-0.736541
3	0xbe07d504	-0.13264853
4	0xbfcfbad1	-1.6228887
5	0xbeffa720	-0.49932194
6	0x3e8571bc	0.26063335
7	0x3e7d067b	0.24709503
8	0xbe6cd545	-0.23128231
9	0xbf175be9	-0.5912462
10	0xbe4f6091	-0.20251681
11	0xbe72b96c	-0.23703545
12	0xbeeaa4fd	-0.45829
13	0xbeb98bb4	-0.36239398
14	0xbe247721	-0.16061069
15	0xbe05c3ec	-0.1306302
16	0xbf29606c	-0.66162753
17	0xbef8b634	-0.4857651
18	0xbf20460f	-0.626069
19	0xbf4185cc	-0.7559478
20	0xbe67da45	-0.22641857
21	0x3d1beab2	0.03806562
22	0xbe9538a1	-0.29144767
23	0xbe1d00e0	-0.15332365
24	0x3d559f98	0.052154154
25	0xbd4fe722	-0.050757535
26	0x3ea4ea57	0.32210037
27	0xbfc0d607	-1.5065316
28	0xbe60583c	-0.21908659
29	0xbfac6c1d	-1.3470494
30	0xbec69fdb	-0.38793835
31	0xbff27de1	-1.8944665
32	0xbef8a73e	-0.48565096
33	0xbdd9b784	-0.10630706
34	0xbfc919b9	-1.5710975
35	0xbebe3b0b	-0.3715442
36	0xbf7641aa	-0.96193945
37	0xbedb0169	-0.42774513
38	0xbf510efa	-0.8166348
39	0xc0055778	-2.0834637
40	0xbe303c84	-0.17210585
41	0xbc9c28d7	-0.019062443
42	0x3d23399b	0.03984986
43	0xbf39ec73	-0.7262642
44	0x3ea713e3	0.3263236
45	0xbde7919b	-0.11307069
46	0xbc78f3b4	-0.015194822
47	0x3def7450	0.11692107
48	0xbcf2865c	-0.029605083
49	0xbee0fd8e	-0.43943447
50	0xbd9c8662	-0.07642819
51	0xbed06b6d	-0.4070696
52	0xbf48e97a	-0.78481257
53	0xbfcdac8e	-1.6068285
54	0xbdf9b9b6	-0.12193625
55	0xbe510f95	-0.204161
56	0xbec10663	-0.37700185
57	0xbfe8b639	-1.818061
58	0xbc2f4a00	-0.010698795
59	0x3e1942fa	0.14966956
60	0xbe91417f	-0.28370282
61	0xbd3b5785	-0.045737762
62	0xbe816f74	-0.25280344
63	0xbee045e0	-0.4380331
64	0xbebcb9cc	-0.36860502
65	0x3e311a54	0.172952
66	0xbf2f9c04	-0.68597436
67	0x3f127dcf	0.5722322
68	0xbec61b66	-0.38692778
69	0xbf20e71c	-0.62852645
70	0xbe4f8a39	-0.20267572
71	0x3d99176e	0.07475172
72	0xbf4e5d53	-0.8061115
73	0xbf2c22ed	-0.6724079
74	0x3e0f0fa6	0.13970813
75	0xbcce3378	-0.025171027
76	0xbf359ec2	-0.7094537
77	0xbdeddd9b	-0.116145335
78	0xbe8ec0ee	-0.2788157
79	0xbf280e62	-0.65646946
80	0xbf08bd9a	-0.5341431
81	0xbf0d9b16	-0.5531477
82	0xbf61f034	-0.88257146
83	0x3ec4821b	0.38380513
84	0x3e65bcc0	0.22435284
85	0x3d405684	0.046957508
86	0xbef51d78	-0.47874045
87	0xbd76770a	-0.06017212
88	0xbdd906ee	-0.10597025
89	0xbebf4ddf	-0.37364098
90	0x3f5ccbd9	0.86248547
91	0xbe89d349	-0.2691901
92	0xbe7f375f	-0.24923466
93	0xbdcffe98	-0.10155982
94	0xbeef1205	-0.46693435
95	0xbf37b6f8	-0.71763563
96	0xbe697f2b	-0.22802417
97	0x3d91e53e	0.071238026
98	0xbf8ce564	-1.1007504
99	0xbe384934	-0.17996675
100	0xbef0e6aa	-0.47050983
101	0xbeba1b67	-0.3634903
102	0xbf46e975	-0.7769998
103	0xbf6a57df	-0.9154033
104	0x3ea335df	0.31877038
105	0x3d508a2e	0.05091303
106	0xbda1db75	-0.07903186
107	0x3e887f20	0.2665949
108	0xbe9f7036	-0.31140298
109	0x3e71f00d	0.23626728
110	0xbe98dc5f	-0.2985563
111	0xbe05a1d8	-0.1305002
112	0x3d5688da	0.052376606
113	0x3d2f6fb9	0.042831156
114	0xbe95359e	-0.2914247
115	0x3d90241b	0.070381366
116	0xbecb1e4c	-0.39671552
117	0xbf01abf8	-0.5065303
118	0x3e00892f	0.12552331
119	0x3dc41246	0.09573798
120	0x3e994df3	0.29942283
121	0xbf5793c8	-0.8420987
122	0x3e3eccc6	0.18632802
123	0xbeab1c0c	-0.33419836
124	0x3dcce331	0.10004271
125	0xbc9187ff	-0.017765043
126	0x3de2e780	0.11079311
127	0xbef14ad2	-0.47127396
128	0xbeace0e1	-0.3376532
129	0x3c735f29	0.014854231
130	0x3e637d2c	0.22215718
131	0xbeeb2efb	-0.4593428
132	0x3f12554e	0.57161415
133	0xbea4cc02	-0.32186896
134	0xbebc2937	-0.36750194
135	0x3ed276c0	0.41106224
136	0xbece35a0	-0.40275288
137	0x3eacb50e	0.33731884
138	0xbed17dfd	-0.40916434
139	0x3ed64db2	0.41856152
140	0xbe4ae7cd	-0.19814987
141	0x3e9f891e	0.311593
142	0x3e5f0f0f	0.21783088
143	0x3ebdbb78	0.3705709
144	0xbeb6a2a6	-0.35670966
145	0xbea61218	-0.3243568
146	0x3e490b7a	0.19633284
147	0x3ef64f93	0.48107585
148	0x3e8bcdbd	0.27305403
149	0x3ec3bc41	0.38229564
150	0x3e8e52e3	0.27797613
151	0xbe835d52	-0.25657135
152	0xbea67f55	-0.32519022
153	0xbe3ed3ab	-0.18635432
154	0x3ef829eb	0.4846948
155	0x3f002747	0.5005993
156	0x3df3ec8d	0.11910353
157	0xbef07cbf	-0.46970174
158	0xbea88aaa	-0.32918292
159	0xbeb9d66c	-0.36296403
160	0xbc2a5257	-0.010395608
161	0x3e54b522	0.20772222
162	0x3ec0d886	0.37665194
163	0x3e0d7b16	0.13816485
164	0xbee16d67	-0.4402878
165	0xbdb06b13	-0.08614173
166	0xbe9d1efc	-0.30687702
167	0xbe9f2376	-0.31081742
168	0xbee46af1	-0.4461284
169	0x3e8e0f7d	0.27746192
170	0x3d723f8c	0.059142634
171	0xbede1d08	-0.43381524
172	0xbec4943a	-0.38394338
173	0x3eb5634e	0.35427326
174	0x3ea153aa	0.31509143
175	0xbe00cd1b	-0.12578242
176	0x3ec03f89	0.37548473
177	0xbe9f3549	-0.3109534
178	0x3db94dcf	0.09048044
179	0xbeaf79f7	-0.3427274
180	0x3edbdedd	0.4294347
181	0x3ee76ac6	0.4519865
182	0x3e812426	0.25222892
183	0x3e56ed01	0.20988847
184	0xbe9f6497	-0.3113143
185	0xbe898ca1	-0.26865104
186	0x3ea01e22	0.3127299
187	0x3ebf3043	0.37341508
188	0x3ee11341	0.43960002
189	0xbcdd4853	-0.027012026
190	0xbd8e1da1	-0.06939245
191	0xbec793db	-0.38979992
192	0x3d714477	0.058903184
193	0x3e249d53	0.1607564
194	0xbf243955	-0.6414998
195	0x3db72a38	0.089435995
196	0xbf9018d0	-1.1257572
197	0xbee79aba	-0.45235234
198	0x3e7a5e45	0.24450023
199	0x3e1d8548	0.15382874
200	0xbe39d963	-0.18149333
201	0xbee14889	-0.44000652
202	0xbd7929f5	-0.06083103
203	0xbe2cd9a9	-0.16879906
204	0xbed056f2	-0.40691334
205	0xbeb892b8	-0.36049438
206	0x3dbc041b	0.091804706
207	0xbe344ce6	-0.1760746
208	0xbef27fa8	-0.4736302
209	0xbeeed950	-0.4665017
210	0xbf0d0638	-0.55087614
211	0xbc246369	-0.010033467
212	0xbe11af74	-0.14227086
213	0x3e4f7433	0.2025917
214	0xbe116dc8	-0.14202034
215	0xbddcfcfc	-0.107904404
216	0x3dacbc6d	0.08434377
217	0xbdefeabe	-0.117146954
218	0x3f19b439	0.6004062
219	0xbf78e902	-0.9723054
220	0xbe622ad9	-0.22086658
221	0xbf621931	-0.8831969
222	0xbe85b450	-0.2611413
223	0xbfcfa4e4	-1.6222196
224	0xbee135ab	-0.43986258
225	0x3e3ec6a0	0.18630457
226	0xbfced599	-1.6158935
227	0xbdf62ed9	-0.12020654
228	0xbf389119	-0.720964
229	0xbeb6e46f	-0.35721156
230	0xbf2adb9a	-0.66741335
231	0xbffa3c54	-1.9549661
232	0xbdf84dab	-0.12124189
233	0x3d78d1e2	0.060747035
234	0x3e44338a	0.19160286
235	0xbed311d5	-0.41224542
236	0x3e3137ae	0.17306396
237	0x3d75c699	0.06000385
238	0xbdf695c3	-0.120402835
239	0x3e157714	0.14596206
240	0x3e314485	0.17311294
241	0xbd97551c	-0.0738928
242	0xbe1d1dba	-0.15343371
243	0xbe90c3ce	-0.28274387
244	0xbf33d571	-0.7024756
245	0xbfbc8283	-1.4727329
246	0xbd963742	-0.07334758
247	0xbe01c9e6	-0.12674674
248	0xbe858deb	-0.26084837
249	0xbff738ca	-1.9314206
250	0x3e3323d6	0.17494139
251	0x3e7fb3b0	0.24970889
252	0xbd9e19cf	-0.07719766
253	0x3e07a5a0	0.13246775
254	0xbdc4ef60	-0.0961597
255	0xbf09fad3	-0.5389835

lstm.weight_hh_l0 f4 [256, 64]
0	0x3e12a65b	0.14321272
1	0xbd84e8f2	-0.06489743
2	0x3e4545a1	0.19264843
3	0xbeac4bab	-0.3365148
4	0x3e9f1692	0.31071907
5	0xbed61b95	-0.41817918
6	0x3e46291e	0.19351622
7	0x3ddffac4	0.109365016
8	0x3e373626	0.1789175
9	0x3e8679d0	0.2626481
10	0xbde19418	-0.11014575
11	0xbd71987e	-0.05898332
12	0xbe3e0815	-0.1855777
13	0xbe1712dc	-0.14753288
14	0x3e3fa18c	0.18713969
15	0xbd606f04	-0.054793373
16	0xbefd51f5	-0.4947659
17	0xbe9ed994	-0.31025374
18	0x3e7c3b69	0.24632038
19	0x3e2cb2d7	0.16865097
20	0xbeb843d7	-0.35989258
21	0x3e3fdf01	0.18737413
22	0x3e1d58d3	0.15365915
23	0xbe82a784	-0.2551843
24	0x3d842076	0.06451504
25	0xbe55733f	-0.20844744
26	0x3ef34555	0.47513834
27	0x3f2bd4ab	0.6712138
28	0xbe04c514	-0.12965804
29	0xbe4236a4	-0.18966156
30	0xbeab947c	-0.33511722
31	0xbdf9b1c8	-0.12192112
32	0x3e965223	0.2935954
33	0x3c0ce606	0.008599764
34	0x3ecb4987	0.39704534
35	0xbe00d50f	-0.12581275
36	0xbe776025	-0.2415777
37	0xbb37aa52	-0.0028025103
38	0xbce53153	-0.027977621
39	0xbd5017cc	-0.050803944
40	0x3dee7b2c	0.11644587
41	0x3d7a6de4	0.061139956
42	0x3cd958a8	0.026531532
43	0xbf5d4ac7	-0.86442226
44	0xbd2e3f53	-0.04254086
45	0x3c0c00ef	0.008545144
46	0x3cd4d6a6	0.025981259
47	0xbd9db186	-0.076998755
48	0x3e869625	0.26286426
49	0xbd27abee	-0.04093545
50	0x3bb4d881	0.0055189733
51	0xbd7b32b7	-0.061327662
52	0x3f21ed23	0.63252467
53	0xbc2a32e0	-0.010388106
54	0xbdd4adb2	-0.10384692
55	0x39c49652	0.0003749603
56	0x3eabf630	0.33586264
57	0x3d30c6ad	0.043158222
58	0x3d47803e	0.048706286
59	0xbe3c3e9b	-0.18383257
60	0x3e21e402	0.15809634
61	0x3bc09b67	0.0058779004
62	0x3ea52f41	0.32262614
63	0xbefbe082	-0.49194723
64	0xbd9fe646	-0.07807593
65	0xbbfdd029	-0.007745762
66	0x3ed5ca6c	0.41755998
67	0xbea55b0d	-0.3229603
68	0x3f0b52c4	0.54423165
69	0xbf0e23a6	-0.55523145
70	0xbd935df6	-0.07195656
71	0x3e910124	0.28321183
72	0xbeb96165	-0.3620712
73	0x3ed6512b	0.418588
74	0xbf02d9a2	-0.5111333
75	0x3ea9e37d	0.33181372
76	0xbe7fd2a9	-0.24982704
77	0x3dde657e	0.10859202
78	0x3d8bf85f	0.068344824
79	0x3eb41c40	0.35177803
80	0xbf2094cd	-0.6272705
81	0xbef632c3	-0.48085603
82	0x3dfb3ca6	0.12267427
83	0x3f3dba8a	0.7411276
84	0x3e8c566f	0.27409694
85	0x3ea259e5	0.3170921
86	0x3dd58755	0.10426203
87	0xbe2d5e5d	-0.16930528
88	0xbe94c053	-0.29052982
89	0xbe1e0ccf	-0.15434574
90	0x3dc0a25f	0.0940597
91	0x3e9cb24b	0.30604777
92	0x3e1dcdcd	0.15410538
93	0xbf2aeb1e	-0.6676501
94	0xbe8ab365	-0.27089992
95	0xbe17a5dd	-0.14809366
96	0x3e7eb25e	0.24872729
97	0x3dbb8806	0.09156804
98	0x3f0d5879	0.55213124
99	0x3daaeaeb	0.08345588
100	0xbf12b840	-0.57312393
101	0xbda9e029	-0.08294708
102	0xbe4e0546	-0.20119199
103	0xbd6c74b9	-0.057728503
104	0xbeca1b17	-0.39473793
105	0x3e56f5eb	0.20992248
106	0x3e207160	0.15668249
107	0xbf147098	-0.57984304
108	0xbe64b287	-0.22333728
109	0x3e41c182	0.18921474
110	0x3ea1c67a	0.31596738
111	0xbcafbadc	-0.021451406
112	0x3ea1680a	0.31524688
113	0xbea0d5f6	-0.3141324
114	0x3d2b711c	0.041855916
115	0xbe8471e1	-0.25868133
116	0x3f106bdc	0.5641458
117	0xbb3938f8	-0.0028262716
118	0xbe0f6ed3	-0.1400712
119	0x3d2c2d65	0.04203548
120	0xbcf657f0	-0.030071229
121	0xbca207ec	-0.019779168
122	0x3e03be6f	0.12865613
123	0x3c4829fe	0.012217043
124	0x3eab0bd7	0.3340747
125	0xbdcc3533	-0.099710844
126	0x3e9ee201	0.31031802
127	0xbefc5ea7	-0.49290964
128	0xbdd3fc75	-0.10350887
129	0x3d96ce5c	0.07363579
130	0x3e9df459	0.30850485
131	0xbd62b6af	-0.055350002
132	0xbceedc74	-0.029157855
133	0xbe8b396a	-0.2719224
134	0xbd0757ef	-0.033042844
135	0x3e628719	0.22121848
136	0x3e659b46	0.22422513
137	0x3e381e98	0.1798042
138	0x3e6274ef	0.22114919
139	0x3e2ac65d	0.16677232
140	0xbdc74cff	-0.09731483
141	0xbe93e870	-0.28888273
142	0x3d68bd29	0.056821022
143	0x3d0ddfa7	0.03463712
144	0xbd1bafed	-0.038009573
145	0xbe8cc129	-0.2749112
146	0x3e4ef7b3	0.20211677
147	0x3d7633e7	0.06010809
148	0xbeb1c212	-0.34718376
149	0x3e0251a3	0.12726454
150	0x3e4de331	0.20106198
151	0xbd92c91f	-0.07167267
152	0x3dab5e63	0.08367612
153	0xbe547303	-0.20746998
154	0xbdbdfd63	-0.09276845
155	0x3d981b4a	0.0742708
156	0xbe61240c	-0.21986407
157	0x3b663e4a	0.0035132342
158	0xbd3dc44e	-0.04632979
159	0xbdb931b2	-0.09042682
160	0x3eb42a07	0.35188314
161	0xbec3c2bd	-0.3823451
162	0x3e51dd58	0.20494592
163	0xbe74e62b	-0.23915927
164	0xbd9bd454	-0.07608858
165	0x3d0c939f	0.03432047
166	0xbdc58b9f	-0.09645771
167	0x3c2eda4f	0.010672166
168	0x3c5dadda	0.013530219
169	0x3cb26b89	0.021779792
170	0x3ea8d686	0.32976168
171	0x3de39ed1	0.11114276
172	0xbe1f01e5	-0.15528066
173	0xbe974c0b	-0.29550204
174	0x3d035f79	0.03207347
175	0xbe6cbc52	-0.23118713
176	0x3c0d1639	0.008611255
177	0x3e5e2c00	0.21696472
178	0x3e60ef73	0.21966343
179	0x3e84bf0a	0.25927
180	0x3e3b63ea	0.18299833
181	0x3dd3c8b6	0.10341017
182	0xbdc8644a	-0.097847536
183	0xbea93413	-0.33047542
184	0x3e42cdd0	0.19023824
185	0xbdd3f22f	-0.10348927
186	0xbea54022	-0.32275492
187	0x3dc74a02	0.09730913
188	0xbdbd7f22	-0.09252764
189	0xbe18c8c0	-0.1492033
190	0x3e9b4a5c	0.3033017
191	0xbd5818dd	-0.052758086
192	0xbd1294b9	-0.035786364
193	0xbe7f1efd	-0.24914165
194	0xbd5ba587	-0.053624656
195	0xbf2479e3	-0.64248484
196	0x3e920a95	0.28523698
197	0x3dc29f68	0.095030606
198	0x3ddc8983	0.10768416
199	0x3e1b01bd	0.15137382
200	0xbedaea20	-0.42756748
201	0x3d8e1084	0.06936744
202	0xbf119a22	-0.56875813
203	0x3eb01b87	0.34396002
204	0x3cfefaf7	0.031125529
205	0x3f04c067	0.5185608
206	0xbe60b067	-0.21942292
207	0x3d7801d4	0.06054862
208	0xbe8ab773	-0.27093086
209	0xbe8d46ce	-0.27593082
210	0x3da14426	0.078743264
211	0x3f143041	0.5788613
212	0x3ede155d	0.43375674
213	0x3e15bbb8	0.1462239
214	0xbe72040d	-0.23634358
215	0x3e07b3ea	0.13252226
216	0xbe29f65e	-0.16597888
217	0x3e04d4b5	0.12971766
218	0xbee4a087	-0.44653723
219	0x3db745e2	0.08948876
220	0x3edf7fc6	0.4365217
221	0xbf038909	-0.51380974
222	0xbe3ba415	-0.18324311
223	0x3db2282e	0.0869907
224	0xbe6cbcb9	-0.23118867
225	0x3ec81163	0.39075765
226	0xbc600279	-0.0136724645
227	0x3e99f09f	0.30066392
228	0xbeee8d3d	-0.4659213
229	0x3d53bed4	0.05169566
230	0xbd11610a	-0.035492934
231	0xbc3d699c	-0.011560824
232	0xbe1149b1	-0.14188267
233	0x3ea8954d	0.32926407
234	0xbe23422b	-0.1594321
235	0xbdc2fdee	-0.095210895
236	0x3e152d9a	0.14568177
237	0x3ef41fee	0.4768061
238	0x3e3497db	0.17636053
239	0x3e0d03ea	0.13771024
240	0x3eb98af9	0.3623884
241	0xbef5528e	-0.47914547
242	0xbe6b0caf	-0.22954057
243	0xbedb3ac0	-0.4281826
244	0x3e15ab40	0.14616108
245	0x3dad8b33	0.08473816
246	0x3ef5c115	0.47998872
247	0x3e856b23	0.260583
248	0xbeb84dde	-0.35996908
249	0xbc53a6cf	-0.012918188
250	0x3ead2cc3	0.33823213
251	0xbdc6d82a	-0.09709199
252	0x3f2c877b	0.67394227
253	0x3e5ae791	0.21377398
254	0xbe83deef	-0.25756022
255	0xbe7bf3ac	-0.24604672

lstm.bias_ih_l0 f4 [256]
0	0xbf2de719	-0.6793075
1	0xbf380bac	-0.7189281
2	0xbf74909e	-0.9553317
3	0xbeab257c	-0.33427036
4	0xbeb7a48f	-0.35867736
5	0xbf40f55c	-0.7537439
6	0xbf1510d8	-0.58228827
7	0xbec97217	-0.39344856
8	0xbf66da58	-0.90176916
9	0xbf70b56b	-0.9402682
10	0xbf0b095e	-0.5431117
11	0xbec514b7	-0.38492367
12	0xbf519760	-0.81871605
13	0xbf301ab6	-0.6879076
14	0xbf698e04	-0.91232324
15	0xbf511a83	-0.8168108
16	0xbf2a5e5e	-0.6655024
17	0xbf580c0b	-0.84393376
18	0xbf9752e8	-1.1822176
19	0xbe9dc9ac	-0.30817926
20	0xbf283420	-0.65704536
21	0xbf1759a1	-0.5912114
22	0xbf7bee3e	-0.98410404
23	0xbf7f1baf	-0.99651617
24	0xbf1a089f	-0.60169405
25	0xbf55c56f	-0.83504385
26	0x3e565988	0.20932591
27	0xbe9491d6	-0.29017514
28	0xbf59c56e	-0.8506688
29	0xbf22c52e	-0.6358212
30	0xbf40758e	-0.75179374
31	0xbf9f0e35	-1.2426211
32	0xbf76fb10	-0.9647684
33	0xbf18797f	-0.5956039
34	0xbf45851d	-0.7715624
35	0xbf5380e3	-0.8261854
36	0xbed7f3ef	-0.42178294
37	0xbf80a47f	-1.00502
38	0xbf825071	-1.0180799
39	0xbf3f847b	-0.74811524
40	0xbe717cb3	-0.23582725
41	0xbf2e8647	-0.6817364
42	0xbf38b1e5	-0.72146446
43	0xbebd93a5	-0.37026706
44	0xbf115144	-0.56764627
45	0xbf0e85aa	-0.55672705
46	0xbf613dc8	-0.87984896
47	0xbf431e6d	-0.762183
48	0xbf154e67	-0.5832276
49	0xbf3eb922	-0.7450124
50	0xbf62a04a	-0.8852583
51	0xbf4efe09	-0.80856377
52	0xbed5fddf	-0.4179525
53	0xbf6241db	-0.8838174
54	0xbf289364	-0.658499
55	0xbf12c2ee	-0.5732869
56	0xbf60f25d	-0.87869817
57	0xbfba1910	-1.4538898
58	0xbee0e474	-0.43924296
59	0xbf429f47	-0.7602429
60	0xbf038ab1	-0.513835
61	0xbf5a7a31	-0.853427
62	0xbf726371	-0.94682986
63	0xbf0646da	-0.5245186
64	0xbf5e1f82	-0.8676683
65	0xbeeaabd5	-0.45834222
66	0xbf6689d0	-0.90054035
67	0x3ebca553	0.36844882
68	0xbeaa7c8e	-0.33298153
69	0xbf47f86f	-0.78113455
70	0xbf5a685b	-0.85315484
71	0xbee4d11b	-0.44690785
72	0xbf894fc4	-1.0727468
73	0xbf51f42b	-0.82013196
74	0xbe52307e	-0.20526311
75	0xbe11243b	-0.14173977
76	0xbf7193a4	-0.94365907
77	0xbf07aa66	-0.5299438
78	0xbf7b16af	-0.9808149
79	0xbf82bf2e	-1.0214593
80	0xbef529bf	-0.47883412
81	0xbf6bddbe	-0.92135227
82	0xbf979dbc	-1.1845012
83	0x3e2cb4b0	0.16865802
84	0xbf2e8607	-0.6817326
85	0xbf11f449	-0.57013375
86	0xbf6fbb9b	-0.9364564
87	0xbf5815d0	-0.84408283
88	0xbf2fbcb4	-0.68647313
89	0xbf879f5e	-1.059551
90	0x3f1b3514	0.60627866
91	0xbd6963fe	-0.056980126
92	0xbf7ea6ac	-0.9947307
93	0xbe4f0661	-0.20217277
94	0xbf551f67	-0.8325104
95	0xbf5cd73a	-0.8626591
96	0xbf518cd8	-0.81855536
97	0xbe9d8094	-0.3076216
98	0xbf85b0bb	-1.0444559
99	0xbf5d1269	-0.86356217
100	0xbe8cbbc3	-0.27487
101	0xbf500bd7	-0.81268066
102	0xbf72766d	-0.94711953
103	0xbf2c8b6d	-0.67400247
104	0x3ce960a8	0.028488472
105	0xbef3abab	-0.4759191
106	0xbf237ef5	-0.63865596
107	0x3eab9c84	0.3351785
108	0xbf5d3a0f	-0.86416715
109	0xbeddf083	-0.43347558
110	0xbf7fc70a	-0.99913085
111	0xbf2c1aa4	-0.6722815
112	0xbeb1b072	-0.3470493
113	0xbf2c6d75	-0.6735452
114	0xbf81121e	-1.0083654
115	0xbf286b0a	-0.6578833
116	0xbe6feac1	-0.23429395
117	0xbf5626fb	-0.8365323
118	0xbea48e5c	-0.32139862
119	0xbf1239cd	-0.57119447
120	0xbee8c8b1	-0.45465615
121	0xbf51c224	-0.8193686
122	0xbeb66ca2	-0.35629755
123	0xbf42425b	-0.758825
124	0xbeb2d7ca	-0.3493026
125	0xbf3ae4cf	-0.73005384
126	0xbf50bdb2	-0.8153945
127	0xbf1aeddb	-0.6051919
128	0x3e5fb764	0.21847302
129	0x3d434c7d	0.047680367
130	0xbd69a3d3	-0.057041
131	0x3e2f40e7	0.17114602
132	0xbdc13b81	-0.094351776
133	0x3d8ae06c	0.06781086
134	0x3e0fe8b1	0.14053608
135	0xbe036442	-0.12831214
136	0x3dbb9dc2	0.09160949
137	0xbda19a61	-0.078907736
138	0x3e095aee	0.13413593
139	0xbe578fab	-0.21050899
140	0x3d246f01	0.040144924
141	0xbd2b4f43	-0.041823637
142	0xbb509d37	-0.0031831989
143	0xbd77fc3f	-0.060543295
144	0x3e5a858f	0.21340011
145	0x3e837dd0	0.25681925
146	0xbe250fcf	-0.16119312
147	0xbdfad473	-0.12247553
148	0xbdfe542b	-0.124183975
149	0xbe56d379	-0.20979108
150	0xbe4414d7	-0.19148575
151	0x3c22a662	0.009927364
152	0x3d8a9ce6	0.06768207
153	0x3e1530b2	0.14569357
154	0xbe5d24b5	-0.21596034
155	0xbdf1f221	-0.118137605
156	0x3da12214	0.07867828
157	0x3daf088c	0.08546552
158	0x3e08ab59	0.13346614
159	0x3ddefa6e	0.108876094
160	0xbdeb2541	-0.11481715
161	0xbdd08d65	-0.10183219
162	0xbe21cfcf	-0.15801929
163	0x3db109f8	0.086444795
164	0x3e5f9be7	0.21836816
165	0x3d54d29f	0.051958676
166	0x3df41dc7	0.11919742
167	0x3eb1ed69	0.34751442
168	0x3e16137d	0.14655872
169	0xbe1139c3	-0.1418219
170	0xb95d4854	-0.00021103147
171	0x3e475533	0.19466095
172	0x3e1620b6	0.14660916
173	0xbe06f835	-0.13180621
174	0xbdc50d19	-0.09621639
175	0x3e0c6955	0.13712056
176	0xbdd3a519	-0.10334224
177	0x3c4c7e44	0.012481276
178	0xbdc6bd66	-0.09704094
179	0x3e5540f5	0.2082556
180	0xbe3aadb5	-0.18230326
181	0xbdadd00b	-0.08486947
182	0xbd404b34	-0.04694672
183	0xbd78f56b	-0.060780924
184	0x3e1183d6	0.14210448
185	0x3e5e6fea	0.2172238
186	0xbdfa6e62	-0.12228085
187	0xbe1e874c	-0.15481299
188	0xbe189657	-0.149011
189	0xbcad9e25	-0.021193573
190	0x3bfa9c6c	0.0076480415
191	0x3e75a1d4	0.23987514
192	0xbf468413	-0.7754528
193	0xbf400fc7	-0.75024074
194	0xbf707ef5	-0.9394372
195	0xbe18aa8e	-0.14908811
196	0xbedd1706	-0.43181628
197	0xbf3696f0	-0.7132406
198	0xbf30977a	-0.68981135
199	0xbf16f01e	-0.5896014
200	0xbf68df2d	-0.9096554
201	0xbf4c38d0	-0.7977419
202	0xbecd795e	-0.40131658
203	0xbec35073	-0.38147315
204	0xbf66c03a	-0.90137064
205	0xbf3a8a95	-0.7286771
206	0xbf6d71bc	-0.9275167
207	0xbf49196d	-0.7855442
208	0xbf14d9bd	-0.5814474
209	0xbf3f168b	-0.7464377
210	0xbf907327	-1.1285142
211	0xbe46d3db	-0.19416754
212	0xbf1eaaa3	-0.6197912
213	0xbf208e58	-0.627172
214	0xbf4c101f	-0.797121
215	0xbf722a9a	-0.94596255
216	0xbf2a7619	-0.6658645
217	0xbf73fe02	-0.9530946
218	0x3e1e5c99	0.1546501
219	0xbee18ce7	-0.44052812
220	0xbf8294c9	-1.0201656
221	0xbeb7f05a	-0.3592556
222	0xbf72cfcd	-0.9484833
223	0xbf9c93df	-1.2232627
224	0xbf6f5778	-0.9349284
225	0xbf18b971	-0.5965796
226	0xbf3ef5a5	-0.74593574
227	0xbf566123	-0.8374197
228	0xbee79a63	-0.45234975
229	0xbf88a922	-1.0676615
230	0xbf67393e	-0.9032172
231	0xbf33b05b	-0.7019097
232	0xbee2145d	-0.4415616
233	0xbf165c8f	-0.58734983
234	0xbf340cdf	-0.7033214
235	0xbe454de4	-0.19267994
236	0xbf2616c5	-0.64878494
237	0xbf091799	-0.5355163
238	0xbf309d9b	-0.68990487
239	0xbf4d24b6	-0.8013414
240	0xbf0a4ec5	-0.5402644
241	0xbf591a80	-0.8480606
242	0xbf6573c1	-0.8962975
243	0xbf5f862c	-0.87314105
244	0xbeb7d01e	-0.35900968
245	0xbf7c44ea	-0.98542655
246	0xbf4c51dd	-0.79812413
247	0xbf2ef679	-0.6834484
248	0xbf809ddd	-1.0048176
249	0xbfb89500	-1.4420471
250	0xbf29317c	-0.6609113
251	0xbf2e2e5d	-0.68039495
252	0xbebd2b9c	-0.36947334
253	0xbf2684b9	-0.6504627
254	0xbf7bc78b	-0.98351353
255	0xbf2aeed6	-0.66770685

lstm.bias_hh_l0 f4 [256]
0	0xbf4e30e0	-0.8054333
1	0xbf3deb50	-0.74187183
2	0xbf6b70b5	-0.9196885
3	0xbeb11c75	-0.34592023
4	0xbeeea74f	-0.4661202
5	0xbf3e7688	-0.74399614
6	0xbf399623	-0.72494715
7	0xbefd5c50	-0.4948449
8	0xbf3ffb98	-0.74993277
9	0xbf3b2b27	-0.7311272
10	0xbf076db4	-0.5290177
11	0xbef41a2f	-0.47676226
12	0xbf51f2e2	-0.82011235
13	0xbf511330	-0.816699
14	0xbf474797	-0.7784361
15	0xbf4ed385	-0.80791503
16	0xbf2d3d0a	-0.67671263
17	0xbf52c190	-0.823266
18	0xbf86f2b5	-1.0542818
19	0xbe30f4a0	-0.17280817
20	0xbf5aeda7	-0.8551888
21	0xbf151061	-0.5822812
22	0xbf69cc5d	-0.9132746
23	0xbf55d84f	-0.83533186
24	0xbf15788f	-0.5838708
25	0xbf591f3b	-0.8481328
26	0x3ccf5fbd	0.025314206
27	0xbec6bad7	-0.38814422
28	0xbf5cc708	-0.862412
29	0xbf0824ea	-0.53181326
30	0xbf547e3e	-0.8300513
31	0xbf8e38e3	-1.111111
32	0xbf8a6c2e	-1.0814264
33	0xbf2535ce	-0.64535224
34	0xbf28ac1d	-0.65887624
35	0xbf6c6342	-0.92338955
36	0xbf03eebe	-0.51536167
37	0xbf70a7d4	-0.94006085
38	0xbf811705	-1.008515
39	0xbf5c200e	-0.8598641
40	0xbe8ab906	-0.27094287
41	0xbf2c3d77	-0.6728129
42	0xbf13829c	-0.5762117
43	0xbe303004	-0.17205817
44	0xbf230a57	-0.6368765
45	0xbf283421	-0.6570454
46	0xbf428a30	-0.7599211
47	0xbf4acacb	-0.7921569
48	0xbec242a5	-0.3794147
49	0xbf2dc628	-0.6788049
50	0xbf5fef70	-0.8747473
51	0xbf510dc5	-0.81661636
52	0xbec934a1	-0.39297965
53	0xbf7ea058	-0.99463415
54	0xbf366416	-0.7124647
55	0xbf4cdf0e	-0.80027854
56	0xbf51496b	-0.8175265
57	0xbfb16d3a	-1.3861458
58	0xbf16e1c8	-0.58938265
59	0xbf0bca9b	-0.54606026
60	0xbeebbc9b	-0.46042332
61	0xbf4c921f	-0.79910463
62	0xbf46ed97	-0.77706283
63	0xbeff8ba2	-0.4991122
64	0xbf477db6	-0.77926195
65	0xbf0c6ad8	-0.5485053
66	0xbf6218e8	-0.88319254
67	0x3ebdabea	0.37045223
68	0xbee44f2e	-0.4459166
69	0xbf2efb9c	-0.68352675
70	0xbf51f066	-0.82007444
71	0xbec53d3a	-0.38523275
72	0xbf7bdcc2	-0.98383725
73	0xbf3312a7	-0.69950336
74	0xbe9ad4d3	-0.30240497
75	0xbe2b8816	-0.16751131
76	0xbf6e0b80	-0.929863
77	0xbf3f1e75	-0.7465585
78	0xbf47c8fd	-0.7804106
79	0xbf53cf0b	-0.827378
80	0xbf2e4c1f	-0.680849
81	0xbf7c32fe	-0.9851531
82	0xbf9fffa5	-1.2499892
83	0x3e5535a7	0.20821248
84	0xbf1e731d	-0.618944
85	0xbee8e55e	-0.45487493
86	0xbf78a1db	-0.9712197
87	0xbf577084	-0.8415606
88	0xbf45957f	-0.7718124
89	0xbf6d29dc	-0.92642
90	0x3f056663	0.52109355
91	0xbd58240b	-0.05276875
92	0xbf6387f0	-0.888793
93	0xbe8caea9	-0.27477005
94	0xbf436be4	-0.76336503
95	0xbf7c40b9	-0.9853626
96	0xbf34cd61	-0.70625883
97	0xbea476e4	-0.32121956
98	0xbf82cef7	-1.0219411
99	0xbf4dfbdd	-0.8046244
100	0xbee2080f	-0.44146773
101	0xbf59d8ba	-0.85096323
102	0xbf56afe8	-0.8386216
103	0xbf1a407d	-0.6025465
104	0x3e140031	0.14453198
105	0xbf229fa2	-0.6352483
106	0xbee8fb88	-0.45504403
107	0x3f02b8a7	0.5106301
108	0xbf448ead	-0.76780206
109	0xbee16d5c	-0.44028747
110	0xbf7ba7dc	-0.9830301
111	0xbf328f98	-0.69750357
112	0xbedfe06a	-0.43725902
113	0xbf07a36c	-0.52983737
114	0xbf7e8955	-0.994283
115	0xbf49aa7b	-0.7877576
116	0xbdc41bca	-0.09575613
117	0xbf1bd77f	-0.60875696
118	0xbee23665	-0.44182125
119	0xbf14f0a5	-0.58179694
120	0xbf16e445	-0.5894206
121	0xbf5683c8	-0.8379483
122	0xbe979b32	-0.29610592
123	0xbf47e0e8	-0.78077555
124	0xbead9baf	-0.3390784
125	0xbf3f2ae3	-0.74674815
126	0xbf36eccf	-0.7145509
127	0xbf2bcfc7	-0.6711392
128	0x3df7dc07	0.12102514
129	0xbe049a54	-0.12949497
130	0xbdc01b91	-0.09380258
131	0x3de7e3ec	0.113227695
132	0xbe4e93f0	-0.20173621
133	0x3e0546b3	0.13015251
134	0x3de37e66	0.11108093
135	0xbe35b071	-0.17743088
136	0x3e4a1343	0.1973391
137	0xbde78a23	-0.11305644
138	0x3e1d594b	0.15366094
139	0xbdd6de68	-0.104916394
140	0x3e2bfef8	0.16796482
141	0xbe1aecfb	-0.15129463
142	0xbddd3a88	-0.108021796
143	0xbe3c898b	-0.18411843
144	0x3d1e03a8	0.038577706
145	0x3dc37b02	0.09544946
146	0x3afbd603	0.0019213561
147	0xbe3e64fc	-0.1859321
148	0xbe1ed2db	-0.15510122
149	0xbdfcac09	-0.123375006
150	0x3acc6e66	0.0015596866
151	0x3da7cec0	0.08193731
152	0x3e432712	0.19057873
153	0x3dbd71c2	0.09250213
154	0xbe01c647	-0.12673293
155	0xbdf99f7a	-0.12188621
156	0xbdf9168a	-0.12162502
157	0x3e5dd6cb	0.21663968
158	0x3ddb657b	0.10712715
159	0x3de76216	0.11298005
160	0x3d9e0559	0.07715864
161	0xbc708faf	-0.014682694
162	0xbe13a64b	-0.14418904
163	0xbdda1c97	-0.10649984
164	0x3da82641	0.08210421
165	0xbb1b6f46	-0.0023717447
166	0x3d8f2648	0.069897234
167	0x3eb3fdcc	0.3515457
168	0x3e267519	0.16255607
169	0xbd77a84c	-0.060463235
170	0xbdc3e8eb	-0.0956591
171	0x3d72bad4	0.059260204
172	0x3e05976f	0.13046049
173	0xbde18f4d	-0.110136606
174	0xbe376574	-0.17909795
175	0xbd3edde8	-0.046598345
176	0xbe79fdac	-0.24413174
177	0x3e4f7861	0.20260765
178	0x3b929fc4	0.004474612
179	0xbd1ef899	-0.0388113
180	0xbe049229	-0.1294638
181	0xbe43a4a2	-0.19105771
182	0xbe4a63c4	-0.1976462
183	0xbdc162f8	-0.09442705
184	0x3e036e84	0.12835127
185	0x3d53eef2	0.051741548
186	0xbdfdfca9	-0.12401707
187	0xbe009ff5	-0.12561019
188	0xbe0603fc	-0.13087457
189	0xbda5238a	-0.08063419
190	0x3d954505	0.07288555
191	0x3d2a1c9c	0.04153119
192	0xbf1b7dd9	-0.60738903
193	0xbf155e7f	-0.58347315
194	0xbf82dfc7	-1.0224541
195	0xbe3cd78a	-0.18441597
196	0xbe6b0667	-0.22951661
197	0xbf642412	-0.8911754
198	0xbefdba02	-0.49555975
199	0xbf13b025	-0.5769065
200	0xbf496c80	-0.7868118
201	0xbf68213e	-0.90675724
202	0xbee657d5	-0.44988886
203	0xbeaf3852	-0.34222656
204	0xbf672f69	-0.9030672
205	0xbf35359d	-0.7078493
206	0xbf60e52a	-0.87849677
207	0xbf4d190c	-0.80116343
208	0xbf3f60c3	-0.7475702
209	0xbf564492	-0.8369838
210	0xbf7db2e7	-0.9910111
211	0xbe87584d	-0.26434556
212	0xbf3be467	-0.7339539
213	0xbee9abfc	-0.45639026
214	0xbf7160c2	-0.94288266
215	0xbf82eaa8	-1.0227861
216	0xbf392a88	-0.7233052
217	0xbf50c9f3	-0.8155815
218	0x3e2efd9c	0.17088932
219	0xbedc2d11	-0.43003133
220	0xbf6d5b95	-0.9271787
221	0xbf0bf4cf	-0.54670423
222	0xbf5d402f	-0.8642606
223	0xbf82ad8d	-1.0209213
224	0xbf73154d	-0.9495438
225	0xbeddd9da	-0.4333027
226	0xbf478268	-0.7793336
227	0xbf809e25	-1.0048262
228	0xbeb13687	-0.34611914
229	0xbf8aa38a	-1.0831158
230	0xbf8bba44	-1.0916219
231	0xbf4cb36c	-0.79961276
232	0xbeedefa3	-0.4647189
233	0xbf3d6527	-0.7398247
234	0xbf2087f1	-0.6270743
235	0xbe8b0e0f	-0.27159163
236	0xbf1070b9	-0.56422
237	0xbf104495	-0.5635465
238	0xbf5a5ae1	-0.8529492
239	0xbf25df6d	-0.64794046
240	0xbf0019e5	-0.5003951
241	0xbf3f0625	-0.7461875
242	0xbf6b7f8c	-0.91991496
243	0xbf3a835f	-0.72856706
244	0xbeb4efb1	-0.3533912
245	0xbf6ef648	-0.93344545
246	0xbf4fb430	-0.8113432
247	0xbf4a1cf6	-0.7895044
248	0xbf5c7ab5	-0.86124736
249	0xbfad5e79	-1.3544456
250	0xbf20e821	-0.628542
251	0xbf15dc7d	-0.58539563
252	0xbeefa25a	-0.46803552
253	0xbf2226be	-0.63340366
254	0xbf70f857	-0.94128937
255	0xbf2a7bab	-0.6659495

lstm.weight_ih_l1 f4 [256, 64]
0	0xbda97546	-0.08274321
1	0xbbbfb429	-0.005850334
2	0x3d190148	0.037354738
3	0x3dadac2b	0.08480104
4	0xbdaad60f	-0.0834161
5	0x3d24990f	0.04018503
6	0xbcba2c93	-0.022726333
7	0xbc85ba45	-0.016324172
8	0xbe2bac3d	-0.16764922
9	0xbe43f828	-0.19137633
10	0x3d029822	0.031883366
11	0xbbfe842f	-0.0077672224
12	0x3ba3d0b1	0.004999243
13	0xbdbd3df5	-0.09240333
14	0xbc8aeb20	-0.01695782
15	0x3e1a7136	0.15082249
16	0x3e2e1c7f	0.17003058
17	0x3dcf06e0	0.10108733
18	0xbc520325	-0.0128181325
19	0xbdc0abd2	-0.09407772
20	0x3d9bbff3	0.07604971
21	0x3c8bbbac	0.017057262
22	0x3c35d94d	0.011099172
23	0xbcfc9499	-0.030832576
24	0xbe1e9e07	-0.1548997
25	0xbdea7da4	-0.11449745
26	0x3e847008	0.25866723
27	0x3d48bd79	0.04900882
28	0xbde7721f	-0.11301064
29	0xbc8a694e	-0.016895916
30	0xbc4e5a46	-0.012594765
31	0x3e2434ee	0.16035816
32	0xbd64a82e	-0.05582445
33	0x3b32a93d	0.0027261518
34	0xbc96a5fc	-0.018389694
35	0xbe2265c6	-0.15859136
36	0xbd144e4f	-0.036207493
37	0xbd4cf0c5	-0.050034303
38	0x3e0fdae4	0.14048344
39	0x3d92a5a3	0.07160499
40	0x3c628b28	0.013827123
41	0x3d63e11e	0.05563461
42	0x3d4d2f81	0.05009413
43	0x3b72b8aa	0.0037036338
44	0xbce40d97	-0.027838511
45	0xbcb5df39	-0.022201167
46	0xbdbb2a79	-0.091389604
47	0xbdf152ff	-0.117834084
48	0x3e00af42	0.12566856
49	0xbd84af3c	-0.06478736
50	0x3dc547f5	0.09632865
51	0x3d7f842f	0.06238192
52	0xbc6f76db	-0.01461574
53	0x3d4a0a02	0.04932595
54	0xbd57bebb	-0.05267213
55	0x3d785fbe	0.060638182
56	0x3d286ec2	0.041121252
57	0x3e2a3b34	0.16624147
58	0x3ca6dd3b	0.020369163
59	0x3c6ee7ae	0.014581604
60	0xbced4f6f	-0.028968541
61	0xbe0ba663	-0.1363769
62	0x3e2383c9	0.15968241
63	0x3df1b9f1	0.11803044
64	0x3de856cb	0.113446794
65	0xbe144e6b	-0.14483039
66	0x3e0f4359	0.13990535
67	0xbd84987b	-0.06474396
68	0xbdf5ce71	-0.12002266
69	0xbd487af6	-0.04894539
70	0x3d234ec5	0.039870042
71	0xbdd6a64f	-0.104809396
72	0xbd854533	-0.06507339
73	0xbdba69e4	-0.09102228
74	0xbdd75604	-0.10514453
75	0xbd03cba3	-0.032176625
76	0x3ce4ddfa	0.027937878
77	0x3cbf87f0	0.02338025
78	0xbd0bc27d	-0.034121025
79	0x3dab7c4f	0.08373319
80	0xbe2a4eb5	-0.16631587
81	0xbd626e65	-0.05528106
82	0x3e15c4e2	0.14625886
83	0xbcb3cbdb	-0.021947792
84	0x3d16e003	0.036834728
85	0xbe0e59e0	-0.13901472
86	0x3dd64666	0.10462646
87	0x3d04db3f	0.032435652
88	0x3dd6127f	0.104527466
89	0x3d79f3c5	0.061023492
90	0xbdae4029	-0.08508331
91	0xbcb5a9bd	-0.022175664
92	0x3dd24946	0.10267882
93	0x3c06f859	0.008237922
94	0xbd939492	-0.07206072
95	0xbde25ee9	-0.11053259
96	0x3d3715de	0.04469859
97	0x3d0013e1	0.031268958
98	0x3da69cff	0.081354134
99	0xbdb0f1f9	-0.086399026
100	0x3dde5e62	0.10857846
101	0xbca1c61f	-0.019747792
102	0xbd794ffc	-0.060867295
103	0xbdf7e775	-0.12104694
104	0x3e0f82f7	0.14014803
105	0xbd551a37	-0.052026954
106	0xbd672340	-0.0564301
107	0xbe633731	-0.22189023
108	0x3d5a95ea	0.053365625
109	0x3df3c8c7	0.119035296
110	0xbc55ca09	-0.013048657
111	0xbd78df8e	-0.060760073
112	0x3da824aa	0.08210118
113	0xbda7d2ec	-0.08194527
114	0xbd8553b5	-0.065101065
115	0xbdf60d5a	-0.12014265
116	0x3e58483c	0.21121305
117	0xbdc7dbcd	-0.097587205
118	0x3deaf579	0.114726014
119	0xbd606bfb	-0.05479048
120	0x3d003e85	0.031309623
121	0x3cbc28fa	0.022968758
122	0x3c7e330e	0.015515102
123	0xbd3d9ce0	-0.046292186
124	0x3c9ce0f5	0.019150237
125	0xbdded7ed	-0.10881028
126	0xbce98b19	-0.02850871
127	0x3d4c3df7	0.04986378
128	0x3e37783b	0.17916958
129	0xbd2337fd	-0.039848316
130	0xbd4c21dd	-0.049836982
131	0xbd0f0db9	-0.034925196
132	0x3ddd3686	0.10801415
133	0xbdef8af5	-0.11696426
134	0x3e39a0ea	0.1812779
135	0xbe437d62	-0.19090798
136	0x3e6fcba0	0.2341752
137	0x3bd1ccff	0.0064026113
138	0xbe159bf3	-0.14610271
139	0xbdd6b113	-0.10482993
140	0xbd1239cc	-0.03569965
141	0x3dba8f74	0.09109393
142	0xbe0aae4e	-0.13543054
143	0xbd9eccf7	-0.07753938
144	0xbdeb642b	-0.11493715
145	0xbe11f958	-0.14255273
146	0x3e49741d	0.196732
147	0xbdadc8b1	-0.084855445
148	0x3d184d81	0.03718329
149	0xbe2743b1	-0.16334416
150	0xbe43e39c	-0.19129795
151	0x3ddc822c	0.10767016
152	0x3e226009	0.15856947
153	0xbd319246	-0.043352388
154	0xbe3c0533	-0.18361358
155	0xbce580ef	-0.028015582
156	0x3d8ccf37	0.068754606
157	0xbd375179	-0.044755433
158	0xbdf48d6d	-0.11941037
159	0xbe5d2808	-0.21597302
160	0x3d766e05	0.060163517
161	0xbb49585b	-0.003072283
162	0x3bf3909e	0.007433011
163	0x3cdb9f83	0.02680946
164	0xbe036398	-0.12830961
165	0x3e10fc55	0.14158757
166	0xbe2a7df1	-0.16649605
167	0x3d2a774f	0.041617688
168	0x3d537efa	0.051634766
169	0x3c27e93c	0.0102484785
170	0x3d23e928	0.040017277
171	0xbd387265	-0.04503097
172	0x3ddfc924	0.109270364
173	0xbc73a5fb	-0.014871116
174	0x3d059cdd	0.0326203
175	0xbadd62ae	-0.0016890371
176	0xbdc5c4d8	-0.096566856
177	0xbe467ee9	-0.1938435
178	0xbded15ee	-0.115764484
179	0xba98022b	-0.0011597326
180	0x3db8f48e	0.0903102
181	0x3dff2148	0.1245752
182	0xbc55a0b5	-0.013038804
183	0x3dfc96af	0.12333428
184	0x3e2a6401	0.16639711
185	0xbe34824c	-0.1762783
186	0xbd8724a6	-0.06598787
187	0xbd59feaf	-0.0532214
188	0x3d43b929	0.047784004
189	0x3d37b052	0.044845887
190	0x3c1b358c	0.009473216
191	0x3cf9c070	0.03048727
192	0x3e80f5c8	0.25187516
193	0xbc4474bc	-0.011990722
194	0xbe103f56	-0.1408666
195	0xbe411223	-0.18854575
196	0xbe360165	-0.1777397
197	0x3c7a76aa	0.015287081
198	0x3da92d84	0.082606345
199	0xbe41954d	-0.1890461
200	0x3e35b67d	0.17745395
201	0xbc11c13f	-0.008896171
202	0xbdc3145b	-0.09525367
203	0xbe943f55	-0.28954569
204	0x3dda4d90	0.10659325
205	0x3def3bb6	0.11681311
206	0xbd0d0933	-0.0344326
207	0xbd1a731a	-0.037707426
208	0x3e92b2c3	0.2865201
209	0x3e26a823	0.16275077
210	0xbde7a29f	-0.113103144
211	0xbe87b49d	-0.26504984
212	0x3e7daa48	0.24771988
213	0xbd9bb818	-0.076034725
214	0xbca2cf24	-0.019874163
215	0x3d79ac73	0.060955476
216	0x3db674df	0.0890901
217	0x3d9ea9a0	0.07747197
218	0xbe187cd0	-0.14891362
219	0x3d1d1756	0.038352333
220	0x3c3d2c6f	0.011546238
221	0x3e26625b	0.16248457
222	0xbcc5df62	-0.024154369
223	0x3d1ea212	0.03872878
224	0x3c856ec6	0.016288172
225	0x3e21fb5e	0.15818545
226	0x3d34d74f	0.044150647
227	0xbd073999	-0.033013914
228	0x3e8a74cf	0.27042243
229	0x3dcb90a7	0.099396996
230	0xbd6b524e	-0.05745154
231	0x3dc6231b	0.096746646
232	0x3efd20ac	0.4943899
233	0x3c9ba5ae	0.0189999
234	0xbe800720	-0.25005436
235	0x3d109d8d	0.035306502
236	0x3e276311	0.16346385
237	0x3e1fab0e	0.15592596
238	0x3c854a42	0.01627076
239	0x3e5945bc	0.21218008
240	0xbe26b702	-0.1628075
241	0xbccbe7e9	-0.024890857
242	0xbdf6b390	-0.120459676
243	0xbc910928	-0.017704561
244	0xbe8cd087	-0.27502844
245	0xbc3cc066	-0.011520481
246	0x3d9937ca	0.07481344
247	0xbd9d99ec	-0.07695374
248	0x3e311479	0.17292966
249	0xbd8be388	-0.068305075
250	0xbd718da4	-0.05897297
251	0xbd81b0cb	-0.06332549
252	0x3de62557	0.11237591
253	0xbac13b49	-0.00147424
254	0xbe748ca6	-0.23881778
255	0x3df80fdf	0.12112402

lstm.weight_hh_l1 f4 [256, 64]
0	0x3ecbe9f3	0.39826927
1	0xbe17ee76	-0.1483706
2	0xbd8c78b4	-0.0685896
3	0xbc90fcd4	-0.017698683
4	0xbd802455	-0.0625693
5	0xbe7b93c6	-0.2456809
6	0x3e92463c	0.2856921
7	0xbd82a116	-0.06378381
8	0xbda1c635	-0.07899133
9	0xbeb4b013	-0.35290584
10	0x3ddc788f	0.10765182
11	0xbdf1c8a4	-0.11805847
12	0x3e08574b	0.1331455
13	0x3ccebabf	0.025235532
14	0xbeb77a4e	-0.358355
15	0xbd23aab0	-0.039957702
16	0x3de8339b	0.11337968
17	0x3ea081e4	0.313491
18	0xbe812d13	-0.252297
19	0x3e44d4a5	0.19221742
20	0xbcdf0602	-0.027224544
21	0xbc622cda	-0.013804639
22	0xbda7965f	-0.08182978
23	0x3d0f88ac	0.03504245
24	0x3ee55988	0.4479487
25	0xbe8b931c	-0.27260673
26	0xbcdfb1b4	-0.027306415
27	0xbe328316	-0.17432818
28	0xbe4872c8	-0.19575036
29	0xbda088b2	-0.078385726
30	0x3e73bd98	0.23802793
31	0xbd9c120d	-0.076206304
32	0x3c9d0b75	0.019170502
33	0xbdfbed00	-0.123010635
34	0x3df8ad0a	0.121423796
35	0x3cffd20e	0.031228092
36	0xbe285b49	-0.16441073
37	0xbd644867	-0.05573311
38	0xbdb21003	-0.0869446
39	0x3e3fb837	0.18722616
40	0x3e0031cf	0.12519
41	0xbd25937d	-0.04042386
42	0x3e8a1388	0.26968026
43	0xbdd18427	-0.10230284
44	0x3e589f3b	0.21154492
45	0x3e26c073	0.16284351
46	0x3e9a1826	0.3009655
47	0xbdea6779	-0.11445517
48	0xbde81237	-0.11331599
49	0xbdeb45f9	-0.114879556
50	0x3d029ab8	0.031885833
51	0x3c2868dc	0.010278907
52	0x3d5b722e	0.053575687
53	0x3dac8db6	0.08425467
54	0x3e19e897	0.15030132
55	0x3e4477ea	0.19186369
56	0x3d427512	0.04747493
57	0xbe802552	-0.25028473
58	0xbe02d783	-0.12777524
59	0xbe4798db	-0.19491903
60	0xbe942db5	-0.28941122
61	0xbe0c26d2	-0.13686684
62	0x3d3eac99	0.04655132
63	0x3e2451fb	0.16046898
64	0xbf30c1c5	-0.6904567
65	0x3dda5921	0.10661531
66	0xbd22dd7b	-0.039762
67	0x3e2e3e23	0.17015891
68	0xbdc5d31d	-0.09659407
69	0x3eada635	0.33915868
70	0xbf3ddc21	-0.74164015
71	0x3e3af826	0.18258724
72	0x3e120e73	0.14263324
73	0x3f661ffe	0.89892566
74	0xbe1ad457	-0.15120064
75	0x3dbc8d10	0.09206593
76	0xbe10fb60	-0.14158392
77	0x3d56b30f	0.052416857
78	0x3f10c443	0.5654947
79	0x3d84de5d	0.06487725
80	0x3dea1d15	0.11431328
81	0xbe7d95e2	-0.24764207
82	0x3f3cb660	0.7371578
83	0xbd6d9f04	-0.058012977
84	0xbbaaec0f	-0.0052161287
85	0x3d6a53c7	0.057208803
86	0xbd8c9e3d	-0.06866119
87	0x3d3af887	0.04564717
88	0xbf7497fc	-0.9554441
89	0x3f777797	0.96666855
90	0xbe3cc588	-0.18434727
91	0x3e922728	0.285455
92	0x3f376de4	0.71652055
93	0xbd115960	-0.035485625
94	0xbe03445a	-0.12819043
95	0x3db30891	0.08741868
96	0x3e67d974	0.22641546
97	0x3dd66196	0.10467832
98	0xbe005fd7	-0.1253656
99	0xbe50d8a1	-0.20395137
100	0x3f443efd	0.7665861
101	0x3e0adf2f	0.135617
102	0x3e1d73b6	0.15376171
103	0xbd158843	-0.036506902
104	0xbdf80d67	-0.12111931
105	0xbc30c3fb	-0.010788913
106	0xbefefcec	-0.4980234
107	0x3e0fea8c	0.14054316
108	0xbf0a1f1a	-0.5395371
109	0xbe2a88ee	-0.16653797
110	0xbecfb8ad	-0.40570584
111	0x3da3d4c0	0.07999563
112	0x3e6790ce	0.22613832
113	0xbd298e9b	-0.041395765
114	0xbc6c5cbf	-0.014426409
115	0x3deb7af4	0.11498061
116	0xbe32ab63	-0.17448191
117	0xbe21988f	-0.15780853
118	0xbea36cf7	-0.3191907
119	0xbdba5d5f	-0.090998404
120	0x3e2de83d	0.16983123
121	0x3e25a9cb	0.16178052
122	0x3da5c16e	0.080935344
123	0x3e09d79b	0.13461153
124	0x3f24e1f3	0.6440727
125	0x3eaef0ac	0.34167993
126	0xbbfad811	-0.0076551517
127	0xbd26cd7c	-0.04072331
128	0xbf26efca	-0.6520964
129	0x3e24833e	0.1606569
130	0x3c83d03e	0.016090509
131	0x3e39e354	0.18153125
132	0xbb9315cb	-0.004488682
133	0x3e654c64	0.22392422
134	0xbf14efef	-0.5817861
135	0xbd09ec09	-0.033672366
136	0x3d31109c	0.04322873
137	0x3f4e69b9	0.8063007
138	0x3d482a58	0.048868507
139	0x3d6fa03c	0.05850242
140	0xbd1a5bca	-0.037685193
141	0x3de36441	0.11103106
142	0x3f1af4df	0.60529894
143	0xbdf2a474	-0.11847773
144	0xbd0bbc0e	-0.03411489
145	0xbe9ddd32	-0.3083282
146	0x3f3fa483	0.748604
147	0xbd89a194	-0.06720272
148	0x3d818f1a	0.063261226
149	0x3b4bead5	0.0031115313
150	0x3bb8b868	0.0056372173
151	0xbe0a5f30	-0.13512874
152	0xbf7948fb	-0.97376984
153	0x3f594260	0.84866905
154	0xbe9944db	-0.29935345
155	0x3e252929	0.16128983
156	0x3f2a47b6	0.6651567
157	0xbe3c773b	-0.18404858
158	0xbe86848c	-0.26273
159	0x3d0124de	0.0315293
160	0x3e21a8be	0.15787026
161	0x3aacabe1	0.0013173782
162	0xbc589fe1	-0.013221712
163	0xbe898870	-0.26861906
164	0x3f2d57dd	0.67712194
165	0x3ec0b54a	0.37638313
166	0x3d313505	0.043263454
167	0xbe29c014	-0.16577178
168	0xbe1ea109	-0.15491118
169	0x3e260008	0.1621095
170	0xbea23a62	-0.31685168
171	0x3e42d408	0.19026196
172	0xbeec3500	-0.46134186
173	0xbe4814cb	-0.19539182
174	0xbe8adbf7	-0.27120945
175	0x3e4d30c7	0.20038138
176	0x3df4fea6	0.11962633
177	0xbd266c03	-0.04063035
178	0xbd342a9d	-0.04398595
179	0x3e073bfd	0.13206477
180	0xbe782955	-0.24234517
181	0xbde616fc	-0.11234853
182	0xbec1524d	-0.37758103
183	0xbdbaf75e	-0.09129213
184	0x3e517593	0.20455007
185	0x3e0601cb	0.13086621
186	0x3dd4447b	0.10364624
187	0x3dc954e5	0.098306455
188	0x3f4e9b54	0.8070576
189	0x3ed54756	0.41655988
190	0xbcfc00bb	-0.030762067
191	0xbe87d8ee	-0.26532692
192	0xbf76024c	-0.96097255
193	0x3dbc3857	0.091904335
194	0xbb6010af	-0.0034189632
195	0x3e34441e	0.1760411
196	0x3a97037a	0.0011521422
197	0x3ee47264	0.44618523
198	0xbf6f5433	-0.9348785
199	0xbd30c616	-0.04315766
200	0x3de38b33	0.111105345
201	0x3f573d56	0.84077966
202	0xbe5d9ac2	-0.21641067
203	0xbded4eca	-0.115872934
204	0x3d31fa44	0.043451563
205	0xbd69f5f4	-0.057119325
206	0x3f1cfd1b	0.6132371
207	0x3dad2a1c	0.08455297
208	0x3d7dfd43	0.062009107
209	0xbefff401	-0.49990848
210	0x3f48f3d3	0.78497046
211	0xbd83e8dd	-0.064408995
212	0x3e0ae917	0.13565479
213	0x3d9b89f9	0.075946756
214	0x3e169145	0.14703853
215	0x3c1cfdbf	0.009581982
216	0xbf638dc2	-0.8888818
217	0x3f8ac7df	1.0842246
218	0xbd4d7d6e	-0.050168447
219	0x3de00055	0.10937563
220	0x3f3aa28c	0.72904277
221	0xbb92e76c	-0.004483154
222	0xbdc12cf7	-0.094324045
223	0x3d1639c1	0.036676172
224	0x3e4f8b05	0.20267875
225	0x3db8ada5	0.09017495
226	0x3d31fb2d	0.04345243
227	0xbe8978f8	-0.26850104
228	0x3f4a8661	0.79111296
229	0x3ec18275	0.37794843
230	0xbd1469a4	-0.03623356
231	0xbc3c68d6	-0.011499604
232	0xbe11fc24	-0.1425634
233	0x3ddb4b65	0.1070774
234	0xbec42df1	-0.383163
235	0x3e8599b9	0.26093844
236	0xbf5036e0	-0.8133373
237	0xbda4c364	-0.0804508
238	0xbeeb9f7b	-0.4602011
239	0x3dd8f68b	0.10593899
240	0x3e108f91	0.14117266
241	0xbcef658a	-0.029223222
242	0x3d30fd71	0.04321045
243	0x3e37a1e8	0.17932856
244	0xbec5c6a2	-0.38628107
245	0xbd42195a	-0.04738746
246	0xbeef7f03	-0.4677659
247	0xbd3fd75a	-0.046836235
248	0x3ced65ab	0.028979143
249	0x3dbd672d	0.09248195
250	0x3db2805c	0.08715889
251	0x3e1bca5e	0.15213916
252	0x3f4f0eb9	0.8088184
253	0x3f084b22	0.53239644
254	0xbe202196	-0.15637812
255	0xbe15a248	-0.14612687

lstm.bias_ih_l1 f4 [256]
0	0x3eeaca84	0.45857632
1	0xbf6df252	-0.92947876
2	0xbf9ad61e	-1.2096593
3	0xbf643c6b	-0.8915469
4	0xbf81d3b6	-1.0142734
5	0xbf800713	-1.0002159
6	0xbcb33179	-0.021874176
7	0xbf6c2d6e	-0.9225682
8	0xbf5b9ac8	-0.8578305
9	0x3f01c25f	0.5068721
10	0xbf3b564b	-0.7317855
11	0xbf9d2783	-1.2277683
12	0xbf8b9d21	-1.0907327
13	0xbf0a2406	-0.5396122
14	0x3f0dd4a8	0.5540261
15	0xbfa37c3e	-1.2772291
16	0xbf326f79	-0.69701344
17	0xbf76fae9	-0.9647661
18	0x3ed6ee1f	0.41978547
19	0xbf88b95b	-1.0681566
20	0xbfad5529	-1.3541614
21	0xbf917cc0	-1.1366196
22	0xbf8d0b35	-1.1019045
23	0xbe967f49	-0.29393986
24	0x3eec267b	0.46123108
25	0x3e9d7443	0.30752763
26	0xbf796413	-0.97418326
27	0xbf72d021	-0.9484883
28	0x3f0d6fa6	0.55248487
29	0xbf90ee9b	-1.1322817
30	0xbf985ad6	-1.1902721
31	0xbf52b917	-0.82313675
32	0xbf4101a1	-0.7539311
33	0xbf91bb13	-1.1385216
34	0xbf977a07	-1.1834115
35	0xbf7772f2	-0.9665977
36	0xbe0ea21f	-0.13929032
37	0xbf8b8710	-1.0900593
38	0xbf94992c	-1.1609244
39	0xbfaa8867	-1.3322877
40	0xbf82c783	-1.0217136
41	0xbfa7d415	-1.3111597
42	0xbf816723	-1.01096
43	0xbed01073	-0.4063755
44	0xbc9b04a5	-0.018923113
45	0xbf826307	-1.0186471
46	0xbf77266c	-0.96543
47	0xbf5d8d93	-0.8654415
48	0xbf86a5d2	-1.0519354
49	0xbf8aa339	-1.0831062
50	0xbfa0bdd4	-1.2557931
51	0xbf8773a7	-1.0582169
52	0xbf6c5b82	-0.9232713
53	0xbf964db6	-1.1742465
54	0xbf2ffab0	-0.68741894
55	0xbfa345dd	-1.2755696
56	0xbf2b6f35	-0.66966563
57	0xbf885c8a	-1.0653241
58	0xbf95558d	-1.1666733
59	0xbf6319b4	-0.88711095
60	0x3e9e3c6d	0.30905476
61	0xbf661b5c	-0.898855
62	0xbf999f16	-1.2001674
63	0xbf17387d	-0.5907057
64	0x3f0dfe1e	0.5546588
65	0xbf206819	-0.6265884
66	0xbef54b23	-0.47908887
67	0xbf361633	-0.71127623
68	0xbec9cec8	-0.39415574
69	0xbea8ae03	-0.3294526
70	0x3df1c3f1	0.11804951
71	0xbf3e89f4	-0.7442925
72	0xbf266c99	-0.65009457
73	0x3ed6ed54	0.41977942
74	0xbf3b0399	-0.73052365
75	0xbf0543d6	-0.52056634
76	0xbf0a7dc4	-0.54098153
77	0xbf1f1060	-0.6213436
78	0x3f07e6e7	0.53086704
79	0xbef1203a	-0.470949
80	0xbef417dc	-0.47674453
81	0xbf03f2e5	-0.515425
82	0x3f0297c4	0.51012826
83	0xbf1486e1	-0.5801831
84	0xbee3b0e8	-0.44470906
85	0xbee1bf63	-0.4409133
86	0xbee765c6	-0.45194834
87	0xbe491afb	-0.19639198
88	0x3f1ed9f2	0.6205131
89	0x3e84bedd	0.25926867
90	0xbef68602	-0.48149115
91	0xbf16533d	-0.5872076
92	0x3e743450	0.2384808
93	0xbec1e9d3	-0.37873706
94	0xbec9c51c	-0.39408195
95	0xbf39c006	-0.7255863
96	0xbf39aaa7	-0.7252602
97	0xbf059105	-0.5217441
98	0xbec2736f	-0.37978694
99	0xbf265cf3	-0.6498558
100	0x3d0654c5	0.032795686
101	0xbeb91672	-0.36149937
102	0xbe71c717	-0.23611103
103	0xbebe8ded	-0.37217656
104	0xbf10204b	-0.56299275
105	0xbedc0a2c	-0.4297651
106	0xbf093438	-0.53595304
107	0xbeda4771	-0.4263263
108	0x3d2e2a10	0.042520583
109	0xbf0e3e75	-0.5556405
110	0xbef28004	-0.47363293
111	0xbf1cf9b6	-0.6131853
112	0xbf19270c	-0.59825206
113	0xbe9c78b2	-0.30560833
114	0xbf00ce3d	-0.50314695
115	0xbf3724e4	-0.71540666
116	0xbed1e162	-0.40992266
117	0xbf081714	-0.53160214
118	0xbe7193fc	-0.23591608
119	0xbed1b523	-0.4095851
120	0xbf1ddbce	-0.6166352
121	0xbefdf6b9	-0.49602297
122	0xbeddb11e	-0.43299192
123	0xbf1934be	-0.59846103
124	0x3e3fabcd	0.1871788
125	0xbecd4312	-0.40090233
126	0xbe962f07	-0.29332754
127	0xbf36143c	-0.71124625
128	0x3eeb1be1	0.45919707
129	0x3dad14f7	0.08451264
130	0x3d7b88c7	0.061409738
131	0xbcb68af8	-0.022283062
132	0x3dd66b3e	0.104696736
133	0xbb50bebb	-0.0031851965
134	0x3e70759d	0.23482366
135	0x3cfed066	0.031105231
136	0x3d3ccdaf	0.046094593
137	0xbed6c14b	-0.41944346
138	0x3c469486	0.012120372
139	0x3d05b3c6	0.03264215
140	0xbdc91299	-0.09818
141	0x3d754db1	0.059888545
142	0xbf04983d	-0.517948
143	0x3b9e0c0a	0.0048232125
144	0x3cf8777f	0.030330418
145	0x3c4dc1b7	0.012558392
146	0xbea09458	-0.31363177
147	0xbde1d1cf	-0.11026346
148	0xbd5b871f	-0.05359566
149	0xbdf01bd2	-0.11724056
150	0x3cd8770f	0.026423959
151	0xbc5c95c4	-0.013463441
152	0x3e8aadaa	0.2708562
153	0xbf2ee4dd	-0.6831797
154	0x3d851271	0.06497658
155	0xbd9dcc84	-0.07705024
156	0xbf0a7c9e	-0.540964
157	0x3d1341ea	0.035951532
158	0x3d2e19c5	0.042505044
159	0x3d3bcaa6	0.045847557
160	0x3dd88ce4	0.10573748
161	0x3c944e6a	0.018103797
162	0xbd93a63f	-0.07209443
163	0xbd066ee4	-0.032820597
164	0xbe903f82	-0.28173453
165	0xbd1505d3	-0.036382508
166	0x3d4bc7b1	0.049750987
167	0x3d6de7e8	0.05808249
168	0x3cedc4b9	0.029024469
169	0xbd20335a	-0.039111473
170	0x3d6eb9f3	0.058282804
171	0x3da7ab19	0.08186931
172	0x3e43f5ff	0.19136809
173	0xbd8bbdb1	-0.0682329
174	0x3db88693	0.09010043
175	0x3d9141c3	0.07092621
176	0xbce8efed	-0.028434718
177	0xbdef0cb3	-0.11672344
178	0x3d11ecf2	0.03562636
179	0xbd2a620b	-0.041597407
180	0xbc9550cd	-0.018227005
181	0xbd9652a8	-0.07339984
182	0x3d85a315	0.06525246
183	0x3d771370	0.06032127
184	0xbce44f4a	-0.02786984
185	0x3dbf3304	0.09335902
186	0xbd232e16	-0.039838873
187	0x3bde8477	0.0067906934
188	0xbef6af36	-0.4818055
189	0xbdc96848	-0.09834343
190	0xbd1721c8	-0.03689745
191	0x3d8a625d	0.067570426
192	0xbe9054fe	-0.28189844
193	0xbf77b454	-0.96759534
194	0xbfa82bc6	-1.3138359
195	0xbf84007a	-1.0312645
196	0xbf7c70a2	-0.98609364
197	0xbfa57fe0	-1.2929649
198	0xbe965de1	-0.293685
199	0xbf72e339	-0.94877964
200	0xbf43f3c4	-0.7654383
201	0xbe5b473b	-0.21413891
202	0xbf45600f	-0.770997
203	0xbfa02a9d	-1.2513005
204	0xbf87bd65	-1.0604674
205	0xbef3660d	-0.47538796
206	0xbf09f77c	-0.53893256
207	0xbf86f577	-1.054366
208	0xbf255471	-0.6458197
209	0xbf9c4910	-1.2209797
210	0xbd794edd	-0.060866226
211	0xbf6dcd9e	-0.9289187
212	0xbfa1fab7	-1.2654637
213	0xbf9611e6	-1.1724212
214	0xbf8cedd1	-1.1010076
215	0xbecf008b	-0.40430102
216	0x3d8ef01d	0.06979392
217	0xbe4acf53	-0.1980565
218	0xbf7f51a1	-0.9973393
219	0xbf80f145	-1.007363
220	0xbee716ff	-0.45134732
221	0xbfa7cd4f	-1.310953
222	0xbf97b0b6	-1.1850803
223	0xbf44970d	-0.76792985
224	0xbf7c0630	-0.9844694
225	0xbf9b6cf3	-1.2142624
226	0xbf823849	-1.0173427
227	0xbf6fdbea	-0.9369494
228	0xbed79d15	-0.42112032
229	0xbf8bae20	-1.0912514
230	0xbf827d55	-1.0194498
231	0xbf8c98bc	-1.0984111
232	0xbf820aae	-1.0159509
233	0xbf9bbb8a	-1.2166607
234	0xbf95b04b	-1.1694425
235	0xbed36780	-0.41289902
236	0xbea7eac0	-0.32796288
237	0xbf8e1b58	-1.1102095
238	0xbf830350	-1.0235386
239	0xbf6009f6	-0.875152
240	0xbf8418d6	-1.0320079
241	0xbf8e139a	-1.1099732
242	0xbfa2404d	-1.2675873
243	0xbf736768	-0.9507966
244	0xbf9bcaca	-1.2171261
245	0xbf8e9a5c	-1.1140857
246	0xbf85be2d	-1.0448662
247	0xbf9d3cf0	-1.2284222
248	0xbf37ab68	-0.7174592
249	0xbf9bd3ce	-1.2174013
250	0xbfa74b30	-1.306982
251	0xbf49d7b7	-0.7884478
252	0xbe9b78e1	-0.3036566
253	0xbf85ac22	-1.0443156
254	0xbfa0693e	-1.2532117
255	0xbf203f53	-0.62596625
