何洪剑/week06/runs/best_1day_model.pth (torch, 204428 bytes, 9 tensors)

lstm.weight_ih_l0 f4 [256, 1]
0.07400374 -0.4876228 -0.73239505 -1.5893048 -1.8364761 -0.1882027 -0.9111492 -0.55978644
-0.6466166 -0.13151973 -1.5787675 -0.4361011 -1.252869 0.30179754 0.0071330634 -0.057824206
-0.5725723 -1.4775375 0.24104506 -1.6973556 -0.4324694 0.07832376 -0.80795896 -0.28400895
-0.03822343 -0.6943218 -0.3586557 -1.0594857 -0.02783341 0.08848648 -1.9259123 -2.0791993
-0.72516495 -2.0122552 -0.95802784 -0.077941865 0.016070616 -1.001777 -0.15340532 -2.3261437
0.32217574 -0.13846032 -1.4114062 -0.5970962 -1.0073531 0.036538057 -0.40711087 -0.0995938
-1.0172685 -0.85624987 -0.04362836 -0.30271527 -0.1638069 -0.68944204 -1.2369039 -0.3048635
-0.722244 -0.75584966 0.080446586 -0.031547982 -1.6199578 -1.6990659 -0.47204936 -2.0591972
-0.3999492 -0.32268265 -0.856486 0.25169706 -0.62770087 -0.36008757 -0.29037446 -0.6129721
-0.4194932 -0.12152745 -0.898414 0.17818776 -0.499752 -0.22692837 -0.37127125 -0.3321062
-0.67798954 -1.146253 1.2210765 -0.3725838 -0.8088053 -0.24851829 -0.82471955 -0.43670583
-0.03300134 -0.19620582 -0.34882918 -0.42327446 -0.29570046 0.13892196 -1.0102143 -1.1048833
-0.5904004 -1.165155 -0.091818884 -0.4520428 -0.0840181 -1.2769896 -0.41273668 -1.006117
0.18755405 -0.26342803 -0.98929036 -0.50368065 -1.137067 -0.34599715 -0.29394308 0.11177205
-1.1837422 -0.46884328 -0.101186946 -0.69022894 0.03826019 -0.5425971 -0.0942801 -0.16028607
-0.112718955 0.17600232 -0.16273183 -0.2395024 -0.7305015 -0.83067054 -0.6452173 -1.1516162
-0.4778906 0.47962108 0.55444556 -0.6355185 0.602028 -0.33804804 -0.582098 -0.44773695
0.35368192 0.43907535 0.5410931 -0.5784329 0.55976075 -0.62026805 -0.012569064 -0.1855335
-0.2612058 -0.59401757 -0.6329486 0.55994767 -0.5445919 -0.5390736 0.58252907 0.016571207
-0.4359045 -0.31121737 -0.17911361 0.5938176 0.5238519 -0.5386395 -0.47618663 0.22516131
0.5778801 -0.34462857 0.6231273 0.49956793 0.05460404 0.46866924 0.20514674 0.3975806
-0.5384167 0.55067825 -0.1377007 -0.15302035 0.21647692 -0.30554458 -0.09594984 -0.049501557
-0.45768082 -0.55027366 -0.11842186 -0.59871566 -0.1316758 -0.39185396 -0.54471236 -0.011824844
0.28948277 0.62625724 -0.35916036 -0.3560184 0.55322164 0.34296578 0.5365915 0.4384495
0.16312304 -0.20127901 -0.6348909 -0.6957022 -1.4260803 -0.16407615 -0.5012793 -0.47741556
-0.48073325 0.14294948 -1.2829877 -0.101199836 -0.8865522 0.39447108 0.005671652 -0.05901299
-0.50492907 -1.3518142 0.66116625 -1.1934261 -0.24334869 0.060846794 -0.58652586 -0.14458698
0.047497958 -0.5149191 -0.2649812 -0.56205064 0.108168714 0.24052617 -1.812543 -2.0206895
-0.6232436 -1.895819 -0.71787703 0.11251033 0.16395037 -0.9756001 -0.1839031 -2.2264054
0.4441278 -0.19525045 -1.3551856 -0.49115896 -0.9684904 0.16647215 -0.12021855 0.085912056
-0.97143865 -0.5765377 0.011273469 -0.25670266 -0.043095857 -0.4790208 -0.5166576 -0.3007694
-0.72066903 -0.42051452 0.098755054 0.060182728 -1.5763958 -1.6228176 -0.33051533 -1.8927041
00000000: 468f 973d b2a9 f9be 3e7e 3bbf 576e cbbf
00000010: a611 ebbf 35b8 40be 1341 69bf 2a4e 0fbf
00000020: aa88 25bf 1cad 06be 0e15 cabf a548 dfbe
00000030: 035e a0bf 3585 9a3e 79bc e93b 13d9 6cbd
00000040: 1994 12bf f31f bdbf 84d4 763e f342 d9bf
00000050: a16c ddbe 3568 a03d 66d6 4ebf 9f69 91be
00000060: 2c90 1cbd 13bf 31bf b8a1 b7be 3a9d 87bf
00000070: e402 e4bc 6638 b53d 4b84 f6bf 9a11 05c0
00000080: 69a4 39bf cac8 00c0 5041 75bf fc9f 9fbd
00000090: 86a6 833c 3b3a 80bf 4916 1dbe 8adf 14c0
000000a0: 38f4 a43e 8bc8 0dbe f5a8 b4bf 4cdb 18bf
000000b0: f2f0 80bf eea8 153d d670 d0be d6f7 cbbd
000000c0: db35 82bf 3133 5bbf a7b3 32bd 7ffd 9abe
000000d0: ffbc 27be 467f 30bf de52 9ebf 1217 9cbe
000000e0: fce4 38bf 5d7f 41bf 2ec1 a43d 7538 01bd
000000f0: c75a cfbf fe7a d9bf 74b0 f1be e3c9 03c0
00000100: 24c6 ccbe a936 a5be ab42 5bbf 70de 803e
00000110: 01b1 20bf 665d b8be f6ab 94be bdeb 1cbf
00000120: d0c7 d6be 62e3 f8bd 76fe 65bf da76 363e
00000130: 7fdf ffbe e95f 68be 4417 bebe d309 aabe
00000140: b990 2dbf 6bb8 92bf 3c4c 9c3f 4ec3 bebe
00000150: dd0d 4fbf 947b 7ebe d220 53bf e897 dfbe
00000160: 6a2c 07bd 2eea 48be bd99 b2be 6eb7 d8be
00000170: 0d66 97be 8f41 0e3e b44e 81bf d16c 8dbf
00000180: 7b24 17bf cd23 95bf 8a0b bcbd 2772 e7be
00000190: ae11 acbd 6574 a3bf 3952 d3be 71c8 80bf
000001a0: 2b0e 403e 0ae0 86be 2242 7dbf 37f1 00bf
000001b0: 698b 91bf 8a26 b1be b57f 96be bfe8 e43d
000001c0: dd84 97bf 3a0c f0be 1a3b cfbd d8b2 30bf
000001d0: b8b6 1c3d a5e7 0abf ed15 c1bd 0822 24be
000001e0: 32d9 e6bd f439 343e 2ca3 26be 1e40 75be
000001f0: 2502 3bbf d3a6 54bf f62c 25bf 2968 93bf
00000200: 14ae f4be e590 f53e 25f0 0d3f 57b1 22bf
00000210: 821e 1a3f a214 adbe 6004 15bf c73d e5be
00000220: cc15 b53e 7cce e03e 1485 0a3f 2e14 14bf
00000230: 7b4c 0f3f e3c9 1ebf 7aee 4dbc 7efc 3dbe
00000240: c4bc 85be 8911 18bf eb08 22bf bb58 0f3f
00000250: 606a 0bbf ba00 0abf a020 153f 57c0 873c
00000260: e02e dfbe e257 9fbe 8f69 37be 6e04 183f
00000270: 281b 063f 47e4 09bf bcce f3be b090 663e
00000280: f3ef 133f 2873 b0be 4585 1f3f 5ec7 ff3e
00000290: 7ca8 5f3d 6af5 ef3e fd11 523e af8f cb3e
000002a0: add5 09bf 40f9 0c3f 6a01 0dbe 5eb1 1cbe
000002b0: 20ac 5d3e 5770 9cbe 5a81 c4bd 25c2 4abd
000002c0: 2455 eabe bcde 0cbf 2987 f2bd 6e45 19bf
000002d0: 05d6 06be 15a1 c8be 4572 0bbf febc 41bc
000002e0: 1637 943e 6552 203f dee3 b7be 0b48 b6be
000002f0: ef9f 0d3f 3699 af3e 0f5e 093f 747c e03e
00000300: ba09 273e 161c 4ebe 3688 22bf 8a19 32bf
00000310: cd89 b6bf 9403 28be d753 00bf d06f f4be
00000320: ab22 f6be 5961 123e f138 a4bf dc41 cfbd
00000330: 16f5 62bf 1df8 c93e 44d9 b93b 9bb7 71bd
00000340: 0843 01bf 3f08 adbf 3142 293f 30c2 98bf
00000350: 6630 79be 7d3a 793d 8f26 16bf 9c0e 14be
00000360: 388d 423d bdd1 03bf 9eab 87be 8de2 0fbf
00000370: 8f87 dd3d 7e4c 763e 6901 e8bf fa52 01c0
00000380: e48c 1fbf 32aa f2bf cac6 37bf d16b e63d
00000390: 9be2 273e eec0 79bf 1851 3cbe 6d7d 0ec0
000003a0: b864 e33e bcef 47be b976 adbf 3079 fbbe
000003b0: fdee 77bf ad77 2a3e 2535 f6bd a9f2 af3d
000003c0: 34b0 78bf fa97 13bf 5bb4 383c 886e 83be
000003d0: 4885 30bd 3742 f5be ac43 04bf 72fe 99be
000003e0: c47d 38bf ae4d d7be 1740 ca3d 2a82 763d
000003f0: 56c7 c9bf 7db8 cfbf 4e39 a9be 2144 f2bf

lstm.weight_hh_l0 f4 [256, 64]
0.06273084 -0.43014452 0.2441681 -1.1047455 0.4084558 -0.010054907 0.15419593 -0.52555394
-0.15445367 0.13131817 -0.08818662 0.36628118 0.38780764 0.062470026 -0.16891037 -0.40457964
0.39438844 -0.43746188 -0.6135672 0.81452185 0.039009277 0.061592385 0.000971136 -0.63347775
-0.25712034 -0.49899742 -0.32083666 0.11575828 -0.05101845 -0.1343265 -0.25870755 0.40147528
0.004963633 -0.20196648 -0.46569696 -0.1875562 -0.5307995 0.18113291 0.0041351705 0.1362122
-0.19572654 -0.057847545 -0.4751587 -0.2332123 0.49268126 -0.31441534 -0.38058397 -0.39965644
0.1849192 -0.21084556 -0.273289 0.47029594 0.44027868 0.3450138 -0.5516785 -0.40677464
-0.3080262 0.30357227 -0.20184076 -0.14371745 -0.12641595 -0.021863312 0.014067014 0.21161652
-0.0549196 0.5512667 0.88991374 -0.39876223 0.55788976 -0.01954031 -0.6574541 -0.025003549
0.3697382 0.07800777 0.2452701 -0.63340116 0.34396398 -0.14270428 0.104841575 0.21505405
-0.28300822 -0.64576375 0.64024115 0.25700453 -0.23060109 0.01972295 0.9566196 0.15432465
-0.01855344 -0.09917781 0.1451712 0.30657947 -0.0639287 -0.17469008 -0.62604403 0.116602615
0.43296552 -0.27435994 0.01793426 -0.04472085 0.42015293 0.3789923 0.03565578 -0.009766578
0.04568573 0.24017595 -0.15614356 0.04097578 0.20107628 0.20973393 0.22800346 0.34354267
-0.3422814 -0.11595838 0.2382449 -0.10660745 -0.08842574 -0.28863764 0.049613602 0.09064592
-0.069874994 0.72053957 0.10289564 -0.04597492 0.013382039 0.17545897 0.20140734 0.5501742
0.8838045 0.83699214 0.16082573 0.05036571 -0.17694077 0.86029524 -0.5424984 0.55581695
0.5352004 -0.995585 -0.29817477 -0.9721221 -0.70587033 0.6760313 0.92483485 0.90096635
-0.51323414 0.09320359 1.2679361 -0.11986969 0.48352265 1.1652563 0.31539077 0.8586024
1.0440012 0.5138035 0.9063421 -0.9215397 -1.0864503 0.8505945 0.5242908 -0.20794445
-0.738353 0.48177373 -0.51436496 -1.147787 1.0573467 0.68230265 -0.8152542 -0.0060177175
1.1630046 -0.82762706 0.39163923 0.5305307 -0.33730897 1.0070119 0.9762407 0.84764785
-0.25651693 0.82791334 0.8654029 0.5755158 -1.1110666 -0.84053 0.5177937 0.79413015
-0.054614343 0.7891028 0.9876967 1.189328 0.0037049234 -0.24638803 -0.5883583 -0.72775203
-0.18207365 1.218519 1.0347631 0.18286856 0.20268653 0.16005374 -1.1398302 -0.23895258
0.8248472 0.39462662 0.43377283 -1.2370209 0.25886738 -0.70698696 0.29991186 0.046159614
-0.5307557 -0.5650537 0.6216454 0.13780664 -0.3483162 -0.44163752 0.86771405 0.3449634
-0.20775856 -0.09211937 0.25369346 0.4729427 0.42128816 -0.5548298 -0.65840495 0.3332997
0.65993017 -0.21955626 0.56356514 0.7633732 0.71754044 0.56477827 -0.020317232 0.40462384
-0.18883608 0.3699794 0.039587818 -0.19394855 0.2641029 0.08923068 0.22537242 0.2829106
-0.7632275 -0.3886298 0.15450442 -0.6957584 -0.6891312 -0.5237953 -0.12565443 0.4953884
0.26491234 0.7788474 0.033290442 0.008537644 -0.017707575 0.32848862 0.47336653 0.6684525
00000000: 0779 803d e73b dcbe 3407 7a3e 4d68 8dbf
00000010: 1e21 d13e 56bd 24bc 8ae5 1d3e b48a 06bf
00000020: 1a29 1ebe 4578 063e 309b b4bd 3589 bb3e
00000030: b98e c63e 92e0 7f3d d7f6 2cbe 1025 cfbe
00000040: 48ed c93e 01fb dfbe bd12 1dbf 8184 503f
00000050: 31c8 1f3d 4c48 7c3d d593 7e3a 992b 22bf
00000060: 47a5 83be 977c ffbe b444 a4be ad12 ed3d
00000070: b9f8 50bd e38c 09be 5175 84be 2b8e cd3e
00000080: f9a5 a23b 4dd0 4ebe d56f eebe bc0e 40be
00000090: 7ae2 07bf e87a 393e 5380 873b 367b 0b3e
000000a0: 8a6c 48be 8cf1 6cbd 0048 f3be 35cf 6ebe
000000b0: b840 fc3e 0cfb a0be e7db c2be c59f ccbe
000000c0: 755b 3d3e e6e7 57be 89ec 8bbe a1ca f03e
000000d0: 356c e13e a6a5 b03e cd3a 0dbf c444 d0be
000000e0: 9cb5 9dbe d36d 9b3e 58af 4ebe ab2a 13be
000000f0: 2f73 01be b01a b3bc 5579 663c 00b2 583e
00000100: 60f3 60bd d01f 0d3f 63d1 633f 902a ccbe
00000110: ddd1 0e3f 0013 a0bc e94e 28bf 3ed4 ccbc
00000120: 534e bd3e 8ac2 9f3d 1628 7b3e 9426 22bf
00000130: 0c1c b03e 1221 12be 2eb7 d63d 2137 5c3e
00000140: 74e6 90be c650 25bf d8e6 233f 1996 833e
00000150: b122 6cbe 0692 a13c 06e5 743f 4807 1e3e
00000160: 62fd 97bc bc1d cbbd c2a7 143e fcf7 9c3e
00000170: 0ded 82bd f5e1 32be 6c44 20bf 5acd ee3d
00000180: a8ad dd3e e878 8cbe dfea 923c 362d 37bd
00000190: 491e d73e 470b c23e cc0b 123d ff03 20bc
000001a0: f620 3b3d aff0 753e 19e4 1fbe 38d6 273d
000001b0: f1e6 4d3e 7ec4 563e bd79 693e d3e4 af3e
000001c0: 823f afbe 967b edbd 79f6 733e 0255 dabd
000001d0: 8e18 b5bd 50c8 93be a237 4b3d 91a4 b93d
000001e0: 9f1a 8fbd 4875 383f f3ba d23d 3350 3cbd
000001f0: 5740 5b3c 84ab 333e ba3d 4e3e 37d8 0c3f
00000200: 0341 623f 1e45 563f 80af 243e 464c 4e3d
00000210: f62f 35be 4f3c 5c3f 2de1 0abf 054a 0e3f
00000220: e502 093f a9de 7ebf 5daa 98be fedc 78bf
00000230: ebb3 34bf 6310 2d3f fac1 6c3f bba5 663f
00000240: 5063 03bf 86e1 be3d bb4b a23f 3d7e f5bd
00000250: 4890 f73e 1e27 953f e67a a13e 5ecd 5b3f
00000260: d5a1 853f a088 033f 0906 683f 07ea 6bbf
00000270: ce10 8bbf 90c0 593f ec37 063f 64ef 54be
00000280: b404 3dbf 0cab f63e 6cad 03bf afea 92bf
00000290: 2357 873f 63ab 2e3f 80b4 50bf 4630 c5bb
000002a0: 56dd 943f 5edf 53bf f084 c83e dcd0 073f
000002b0: c3b3 acbe c4e5 803f e9ea 793f 73ff 583f
000002c0: 3056 83be 21f2 533f 0b8b 5d3f 0155 133f
000002d0: 6e37 8ebf f92c 57bf 218e 043f 1d4c 4b3f
000002e0: 4ab3 5fbd a402 4a3f b1d9 7c3f e63b 983f
000002f0: 4dce 723b 254d 7cbe a69e 16bf f54d 3abf
00000300: 8471 3abe 6ef8 9b3f 1e73 843f e541 3b3e
00000310: 0f8d 4f3e 21e5 233e f5e5 91bf fcaf 74be
00000320: 3029 533f 800c ca3e 7917 de3e b356 9ebf
00000330: 448a 843e 19fd 34bf 0c8e 993e dd11 3d3d
00000340: 9bdf 07bf 5ca7 10bf 2724 1f3f 2f1d 0d3e
00000350: 8056 b2be 501e e2be 8222 5e3f 0b9f b03e
00000360: a9be 54be 15a9 bcbd 1ce4 813e 8c25 f23e
00000370: 15b3 d73e 5309 0ebf 3a8d 28bf 42a6 aa3e
00000380: 2ff1 283f 5bd3 60be ce45 103f 6d6c 433f
00000390: bbb0 373f 4f95 103f 5370 a6bc db2a cf3e
000003a0: 3f5e 41be f16d bd3e d626 223d 739a 46be
000003b0: 7f38 873e 93be b63d 07c8 663e a8d9 903e
000003c0: e162 43bf 7cfa c6be 6836 1e3e 391d 32bf
000003d0: e76a 30bf 7317 06bf 8eab 00be 8ca3 fd3e
000003e0: 97a2 873e 8b62 473f 8f5b 083d 79e1 0b3c
000003f0: 7a0f 91bc a92f a83e 195d f23e b41f 2b3f

lstm.bias_ih_l0 f4 [256]
-0.73485994 -0.82566 -0.42592424 -0.08824222 -0.63992345 -1.0214942 -0.6848102 -0.86231965
-0.89109254 -0.5973309 -1.0063369 -0.4729077 -0.54487604 -0.34705332 -0.8598986 -0.9677233
-1.2235415 -0.6272661 -0.10745938 -0.50742674 -0.58989555 -0.7021248 -0.63672465 -1.0026408
-0.8371356 -0.96707344 -1.1105464 -0.69471365 -0.66902906 -0.69221824 -0.43447655 -1.314511
-0.5543592 -0.6912636 -0.6908467 -0.6252525 -0.8349125 -0.80534387 -1.1864501 -1.5586408
-0.4442845 -0.85816306 -1.4419385 -1.1007558 -1.3056321 -0.7785618 -0.8317225 -0.7673346
-1.1253214 -0.67742944 -0.82445884 -0.70819974 -0.9188737 -0.8994498 -0.8242587 -0.9799362
-0.9638864 -0.15844208 -0.7347915 -0.8347523 -1.6344256 -1.3282076 -0.56467974 -0.3554773
-0.89256763 -1.1037471 -0.80535054 0.60561097 -0.62528795 -1.0956048 -0.9325985 -0.7640051
-0.94730306 -0.58355117 -0.9617808 -0.31307095 -0.27230132 -0.56087404 -0.83309555 -1.1062787
-1.3778954 -0.9228899 0.57278 -0.1343864 -0.74011904 -1.0635118 -1.0524713 -1.3577331
-0.52677274 -0.69141984 -0.97211504 -0.5323396 -0.799138 -0.6462649 -0.6350189 -1.3208809
-0.45312032 -0.7372265 -0.3806012 -0.9815452 -0.64226043 -1.1140751 -1.1652141 -1.0056132
-0.3969631 -0.6909 -1.4535987 -1.0349952 -1.2787738 -0.85708773 -0.94664943 -0.6264713
-1.3727068 -0.54525626 -0.66574717 -1.0065073 -0.7530571 -1.025146 -0.25961614 -1.0788022
-0.9164121 0.094422214 -0.6995777 -0.8761822 -0.69959366 -0.8771568 -0.8151977 -1.212256
0.106748946 -0.17049274 -0.24057546 0.2407423 -0.27489537 0.05458021 0.19016941 0.20299457
-0.14079516 -0.23847237 -0.18143566 0.1823776 -0.19857223 0.26010063 0.1536764 0.16417103
0.04205909 0.24499165 0.22276576 -0.14027506 0.24348837 0.124440625 -0.11723166 0.07887302
0.18286638 0.21387474 0.011721918 -0.14930308 -0.29834557 0.19837198 0.47803012 -0.1583657
-0.24228573 0.49787775 -0.20716532 -0.22142892 -0.035540774 -0.11215709 -0.21857691 -0.15962668
0.3138373 -0.27018267 0.07767738 0.021107119 -0.12767431 0.15776782 0.07438144 0.06208441
0.2487462 0.29724625 0.13198724 0.15221086 0.06755295 0.14284748 0.25674254 -0.03233903
-0.22224553 -0.29904106 0.13557217 0.17038152 0.055942237 -0.17919223 -0.21780491 -0.48665598
-0.79979813 -0.67608964 -0.611322 -0.02309921 -0.75622743 -0.95595723 -0.6824863 -0.8570976
-0.91515064 -0.72718054 -0.8466456 -0.49868917 -0.48267373 -0.39851508 -0.76995426 -0.94598484
-1.1853384 -0.6750773 0.101276174 -0.52757686 -0.712948 -0.672448 -0.4481399 -0.9815637
-0.6751168 -1.078005 -0.95717084 -0.57186496 -0.64702255 -0.6193239 -0.44611093 -1.2386754
-0.6844491 -0.73846453 -0.6355901 -0.658727 -0.64366436 -0.90403044 -1.150291 -1.493952
-0.41627115 -0.76571566 -1.4949212 -1.1003469 -1.2168349 -0.8469345 -0.9668949 -0.6669339
-0.97162753 -0.84067965 -0.8203069 -0.7287345 -0.8909847 -0.96414834 -0.62024355 -1.0384449
-1.1250008 -0.14143565 -0.62099046 -0.82554024 -1.4754328 -1.212297 -0.5602605 -0.47987068
00000000: c81f 3cbf 745e 53bf be12 dabe 56b8 b4bd
00000010: 06d2 23bf 52c0 82bf b94f 2fbf fbc0 5cbf
00000020: a41e 64bf aeea 18bf a6cf 80bf f520 f2be
00000030: ff7c 0bbf f9b0 b1be 5122 5cbf b7bc 77bf
00000040: 029d 9cbf 8394 20bf aa13 dcbd b8e6 01bf
00000050: 6503 17bf 73be 33bf 6300 23bf 8956 80bf
00000060: 854e 56bf 2092 77bf 6226 8ebf c1d8 31bf
00000070: 7d45 2bbf 3735 31bf b673 debe e541 a8bf
00000080: 7cea 0dbf a7f6 30bf 54db 30bf 8c10 20bf
00000090: d3bc 55bf 042b 4ebf 99dd 97bf 8b81 c7bf
000000a0: 4279 e3be 93b0 5bbf 7191 b8bf 91e5 8cbf
000000b0: f41e a7bf d34f 47bf c4eb 54bf 0a70 44bf
000000c0: 880a 90bf 046c 2dbf bc0f 53bf 944c 35bf
000000d0: 4f3b 6bbf 5842 66bf 9e02 53bf 19dd 7abf
000000e0: 42c1 76bf a43e 22be 4c1b 3cbf 54b2 55bf
000000f0: dc34 d1bf b502 aabf da8e 10bf 1f01 b6be
00000100: 507f 64bf 9647 8dbf 742b 4ebf 5209 1b3f
00000110: df12 20bf c73c 8cbf c6be 6ebf d795 43bf
00000120: 7482 72bf 9c63 15bf 4437 76bf d64a a0be
00000130: 146b 8bbe 7195 0fbf c045 55bf 8a9a 8dbf
00000140: e05e b0bf 8342 6cbf b6a1 123f 979c 09be
00000150: 7178 3dbf 2821 88bf 61b7 86bf 33ca adbf
00000160: 94da 06bf e400 31bf 88dc 78bf 6847 08bf
00000170: 4f94 4cbf 9e71 25bf 9990 22bf a012 a9bf
00000180: 63ff e7be e0ba 3cbf 29de c2be 8c46 7bbf
00000190: 2e6b 24bf 039a 8ebf bc25 95bf efb7 80bf
000001a0: bf3e cbbe d3de 30bf 860f babf b97a 84bf
000001b0: dcae a3bf 1a6a 5bbf 9e57 72bf 6c60 20bf
000001c0: dbb4 afbf ea95 0bbf 686e 2abf 3bd5 80bf
000001d0: 5ac8 40bf fc37 83bf 68ec 84be 3116 8abf
000001e0: fc99 6abf 6f60 c13d 8617 33bf 7a4d 60bf
000001f0: 9218 33bf 598d 60bf ccb0 50bf 342b 9bbf
00000200: 319f da3d a695 2ebe 6a59 76be 2685 763e
00000210: 16bf 8cbe 808f 5f3d c5bb 423e cfdd 4f3e
00000220: 9b2c 10be 1a32 74be 45ca 39be 32c1 3a3e
00000230: 8556 4bbe e92b 853e 595d 1d3e 731c 283e
00000240: 2746 2c3d 17df 7a3e b51c 643e 44a4 0fbe
00000250: 0455 793e bada fe3d 2717 f0bd 2e88 a13d
00000260: 5341 3b3e fb01 5b3e 4a0d 403c e8e2 18be
00000270: c0c0 98be 0622 4b3e 5dc0 f43e 9e2a 22be
00000280: c019 78be d5e9 fe3e 2523 54be 43be 62be
00000290: 3493 11bd 9eb2 e5bd a0d2 5fbe 2d75 23be
000002a0: 48af a03e 6255 8abe 5115 9f3d d6e8 ac3c
000002b0: 0ebd 02be e38d 213e 4c55 983d 394c 7e3d
000002c0: 53b7 7e3e a930 983e aa27 073e 2add 1b3e
000002d0: 3359 8a3d 9c46 123e c273 833e ee75 04bd
000002e0: 5594 63be e91b 99be 6ed3 0a3e 7e78 2e3e
000002f0: b023 653d 2b7e 37be 4008 5fbe f92a f9be
00000300: 92bf 4cbf 3614 2dbf 997f 1cbf 8e3a bdbc
00000310: 1f98 41bf 9db9 74bf 6cb7 2ebf c06a 5bbf
00000320: 5047 6abf 8128 3abf c4bd 58bf 3054 ffbe
00000330: 0321 f7be 2b0a ccbe b91b 45bf 102c 72bf
00000340: 2bb9 97bf ded1 2cbf e269 cf3d 470f 07bf
00000350: c383 36bf 8d25 2cbf 9872 e5be c247 7bbf
00000360: 74d4 2cbf 11fc 89bf 2609 75bf be65 12bf
00000370: 45a3 25bf 038c 1ebf a768 e4be ea8c 9ebf
00000380: 0e38 2fbf 030c 3dbf 08b6 22bf 55a2 28bf
00000390: 30c7 24bf 8a6e 67bf bc3c 93bf d239 bfbf
000003a0: 7e21 d5be f105 44bf 9459 bfbf 2bd8 8cbf
000003b0: 3fc1 9bbf b3d0 58bf 6d86 77bf 2ebc 2abf
000003c0: 95bc 78bf c836 57bf a2ff 51bf 588e 3abf
000003d0: 9317 64bf 6dd2 76bf 48c8 1ebf c3eb 84bf
000003e0: 0700 90bf 82d4 10be 3bf9 1ebf 9b56 53bf
000003f0: fbda bcbf 8c2c 9bbf 3b6d 0fbf 9cb1 f5be

lstm.bias_hh_l0 f4 [256]
-0.7865661 -0.8156817 -0.55311936 -0.31012672 -0.5996504 -0.8928605 -0.5731064 -0.82448673
-0.88324475 -0.5939041 -0.89346 -0.4467308 -0.47814408 -0.4047179 -0.8767592 -0.93865967
-1.1293322 -0.71011174 -0.14795527 -0.37921917 -0.5668065 -0.71176314 -0.42412996 -1.0957519
-0.82375085 -0.97000176 -1.057815 -0.6045655 -0.63215685 -0.6544621 -0.48144192 -1.3713526
-0.61007845 -0.7130338 -0.6067097 -0.742777 -0.69325167 -0.9447989 -1.1710645 -1.5656555
-0.51962376 -0.79630494 -1.5617377 -0.9651572 -1.2590076 -0.8375107 -0.92214847 -0.8389651
-1.1651131 -0.6096792 -0.9379698 -0.8669649 -0.8192164 -1.0103974 -0.8464488 -1.0594057
-1.1470913 -0.3355361 -0.5593869 -0.61806077 -1.4426844 -1.3027351 -0.6283106 -0.3603541
-1.1024462 -1.0896463 -0.93452 0.6954949 -0.6463294 -1.2259994 -0.83900857 -0.7770638
-0.93458974 -0.6870956 -0.9823762 -0.3082117 -0.33769357 -0.6719898 -0.764201 -0.9875836
-1.2395395 -0.852691 0.7773614 0.043834016 -0.7236915 -0.88048714 -1.1418177 -1.3091574
-0.6934777 -0.5639656 -0.9659041 -0.42695364 -1.0120542 -0.7061678 -0.7691891 -1.172643
-0.62958866 -0.88406956 -0.33362514 -1.0035548 -0.85856247 -1.112325 -0.99592924 -1.1385833
-0.38346228 -0.73914546 -1.2285182 -0.9946813 -1.1983991 -1.0143644 -0.9349957 -0.5817957
-1.3426801 -0.44074506 -0.78407 -1.1985028 -0.6567736 -1.0545195 -0.14915241 -0.87497056
-0.75767136 0.10835463 -0.9209983 -0.75448126 -0.73138064 -0.7489058 -0.6691701 -1.2819567
0.26868066 -0.15432994 -0.15251456 0.20619123 -0.14767328 0.10821473 0.22590326 0.17451878
-0.14428028 -0.2433631 -0.18620713 0.18179852 -0.27170327 0.17265433 -0.057518013 0.05201088
0.12065915 0.21013579 0.21198428 -0.20396546 0.16828567 0.17774902 -0.256865 -0.06767883
0.23817943 0.15118177 0.193005 -0.23569602 -0.15698247 0.22018181 0.34726542 -0.11727996
-0.21687675 0.48721024 -0.2168029 -0.2045466 0.06883834 -0.18364489 -0.112785295 -0.20708533
0.14755672 -0.059432477 0.08361061 0.039548986 -0.15058196 0.07010634 0.044542953 0.012055057
0.18160364 0.15669075 0.02193564 0.22974187 0.020980263 0.08640785 0.15700522 0.12676892
-0.21118863 -0.14435722 0.1526317 0.18533103 0.12610953 -0.35942823 -0.21465743 -0.41874975
-0.71508753 -0.78318065 -0.64874345 -0.17031114 -0.6294846 -0.97316426 -0.47339597 -0.8395118
-0.97236705 -0.7133408 -0.971597 -0.38198134 -0.49867648 -0.28786057 -0.8076902 -1.0454491
-1.1179928 -0.6526908 -0.05460806 -0.3884068 -0.5590268 -0.7944639 -0.57349503 -1.1383657
-0.68128204 -1.0139447 -1.1893789 -0.60786927 -0.7687147 -0.5579125 -0.4481803 -1.3411295
-0.6327638 -0.5235183 -0.6493765 -0.76255417 -0.7114657 -0.77083856 -0.9640949 -1.5062691
-0.5377246 -0.6592017 -1.4074706 -1.0165013 -1.3315113 -0.81177276 -0.9484452 -0.7041213
-1.152522 -0.84644896 -0.90303487 -0.788493 -0.8428225 -0.9246121 -0.60472745 -1.0664965
-0.9015986 -0.11246627 -0.81167287 -0.7830778 -1.524615 -1.3728247 -0.7659896 -0.31849852
00000000: 655c 49bf 84d0 50bf 3b99 0dbf eec8 9ebe
00000010: b082 19bf 8192 64bf 1ab7 12bf 9011 53bf
00000020: 541c 62bf 190a 18bf cbb9 64bf e6b9 e4be
00000030: 4dcf f4be 2f37 cfbe 4a73 60bf 004c 70bf
00000040: f58d 90bf e2c9 35bf 9681 17be 0429 c2be
00000050: 3b1a 11bf 1c36 36bf 9027 d9be 9941 8cbf
00000060: 56e1 52bf 0952 78bf 7b66 87bf cec4 1abf
00000070: 08d5 21bf d48a 27bf 8e7f f6be 7b88 afbf
00000080: 1a2e 1cbf 6289 36bf 5451 1bbf a226 3ebf
00000090: f178 31bf 57de 71bf 71e5 95bf 6667 c8bf
000000a0: 1006 05bf a4da 4bbf 05e7 c7bf 8b14 77bf
000000b0: 2927 a1bf 1a67 56bf ec11 6cbf 6bc6 56bf
000000c0: 6d22 95bf f013 1cbf ca1e 70bf 69f1 5dbf
000000d0: 2ab8 51bf b454 81bf deb0 58bf 9b9a 87bf
000000e0: e3d3 92bf 63cb abbe fb33 0fbf 3b39 1ebf
000000f0: e2a9 b8bf 06c0 a6bf f7d8 20bf 5580 b8be
00000100: f51c 8dbf 8879 8bbf b43c 6fbf f40b 323f
00000110: d875 25bf 8ced 9cbf 44c9 56bf a7ed 46bf
00000120: 4641 6fbf 7fe5 2fbf 027d 7bbf edcd 9dbe
00000130: 2ce6 acbe 8607 2cbf ada2 43bf 47d2 7cbf
00000140: 3ba9 9ebf f549 5abf 2801 473f 4c8b 333d
00000150: d943 39bf 9b67 61bf 1527 92bf 7892 a7bf
00000160: c187 31bf 0d60 10bf 7e45 77bf ab99 dabe
00000170: fe8a 81bf 6ac7 34bf 94e9 44bf 2a19 96bf
00000180: b92c 21bf 6252 62bf ead0 aabe 7c74 80bf
00000190: c0ca 5bbf aa60 8ebf 38f5 7ebf 19bd 91bf
000001a0: 2b55 c4be a338 3dbf 1640 9dbf 6fa3 7ebf
000001b0: 2465 99bf b1d6 81bf e15b 6fbf 90f0 14bf
000001c0: f1dc abbf 56a9 e1be d0b8 48bf 8a68 99bf
000001d0: 5122 28bf 7ffa 86bf 69bb 18be 12fe 5fbf
000001e0: c0f6 41bf 08e9 dd3d 8bc6 6bbf af25 41bf
000001f0: c33b 3bbf 4ab8 3fbf bb4e 2bbf 2817 a4bf
00000200: 8390 893e ab08 1ebe c72c 1cbe cb23 533e
00000210: aa37 17be af9f dd3d 2f53 673e 0db5 323e
00000220: 36be 13be 2d34 79be 15ad 3ebe 6429 3a3e
00000230: b11c 8bbe 4ccc 303e 0298 6bbd 5c09 553d
00000240: 251c f73d d62d 573e 6812 593e 52dc 50be
00000250: 1453 2c3e d703 363e cf83 83be 339b 8abd
00000260: 4fe5 733e 65cf 1a3e 1aa3 453e 4c5a 71be
00000270: 03c0 20be 5777 613e c6cc b13e 7a30 f0bd
00000280: f014 5ebe 9f73 f93e 9401 5ebe aa74 51be
00000290: 1efb 8c3d 680d 3cbe fafb e6bd 2d0e 54be
000002a0: 1c19 173e 786f 73bd 0a3c ab3d 1efe 213d
000002b0: 2832 1abe ea93 8f3d ac72 363d 9382 453c
000002c0: 4ef6 393e 8a73 203e 5fb2 b33c 7441 6b3e
000002d0: cdde ab3c 99f6 b03d fac5 203e b6cf 013e
000002e0: d541 58be 61d2 13be 7c4b 1c3e 6bc7 3d3e
000002f0: db22 013e fa06 b8be 28cf 5bbe 5e66 d6be
00000300: fa0f 37bf 877e 48bf 0d14 26bf 0b66 2ebe
00000310: e725 21bf 4b21 79bf f560 f2be 3fea 56bf
00000320: 0ced 78bf 819d 36bf 95ba 78bf 0f93 c3be
00000330: 8652 ffbe 7662 93be c9c4 4ebf 47d1 85bf
00000340: 631a 8fbf bf16 27bf b3ac 5fbd 42dd c6be
00000350: 611c 0fbf fc61 4bbf 92d0 12bf f8b5 91bf
00000360: 8068 2ebf f1c8 81bf 913d 98bf 529d 1bbf
00000370: 7dca 44bf 5bd3 0ebf e377 e5be 22aa abbf
00000380: cffc 21bf 4c05 06bf 8a3d 26bf c036 43bf
00000390: 9e22 36bf ad55 45bf ecce 76bf 6dcd c0bf
000003a0: 52a8 09bf 71c1 28bf ff27 b4bf b71c 82bf
000003b0: f66e aabf 57d0 4fbf 4ecd 72bf 4b41 34bf
000003c0: d785 93bf e1b0 58bf 4b2d 67bf adda 49bf
000003d0: 37c3 57bf 61b3 6cbf 6bcf 1abf f582 88bf
000003e0: 2acf 66bf b754 e6bd cbc9 4fbf c977 48bf
000003f0: 9626 c3bf b8b8 afbf e517 44bf 3d12 a3be

lstm.weight_ih_l1 f4 [256, 64]
-0.196076 -0.21915966 -0.07305728 -0.12691441 -0.25287443 -0.23495863 -0.032444388 -0.040248282
-0.18686157 0.237929 -0.008214447 0.17805158 0.21360536 -0.2284697 -0.07840861 -0.049656734
0.17710169 0.24520992 -0.1264551 -0.22039665 -0.19643697 -0.02162428 -0.27188686 -0.25566977
-0.05244303 -0.122367375 -0.17987125 0.21816367 0.16786543 -0.13834998 0.24061136 0.045858387
0.14051011 -0.0056083687 0.095036596 0.3009646 -0.105280206 -0.26263687 0.23912568 -0.1871604
-0.28059724 0.12006969 0.052328862 -0.1708119 -0.050063152 -0.21452682 -0.22121757 0.04934091
0.20807448 -0.09340299 -0.20407173 -0.27075642 0.11784596 0.16834137 -0.034289777 -0.25653267
-0.01604895 -0.30049634 -0.3612081 -0.19907033 -0.0034840996 0.05047664 0.09543132 -0.028233489
0.17597905 0.034776457 -0.060783528 0.11131177 0.052059066 0.159592 -0.22498544 0.0027218752
-0.06367927 -0.21692753 0.01715929 -0.16622928 -0.0072366153 0.073071584 0.057840385 -0.010559399
-0.044642635 0.11523772 -0.065659605 0.03511747 -0.060172874 0.03194414 -0.039543465 0.055492282
0.19581173 0.0004774069 0.011126211 0.052886873 -0.14200039 -0.05568698 -0.042467963 0.042572185
0.0061263037 -0.09709404 -0.13059594 0.018137384 -0.08814857 -0.11975503 -0.099442266 0.033892214
0.19004773 -0.11034297 -0.2505783 -0.06769294 -0.0066673397 0.105889104 0.020282397 0.01724874
-0.096347205 -0.07099414 -0.054339234 0.111280985 -0.0038600506 0.021176688 0.071473405 0.19758531
-0.007827542 -0.0072058425 0.11304867 -0.0010395584 -0.01762547 0.052210614 0.103671946 0.14781629
0.19661643 -0.024750391 0.07476727 -0.0974747 -0.03544071 0.0044630943 -0.015781969 -0.13837165
0.13508065 0.035435323 -0.14702632 -0.058444623 0.0140795745 0.18262498 0.17259184 -0.12014967
-0.09080788 -0.051129002 0.17100418 0.03991825 0.11145332 0.032736026 0.0830385 0.08947774
0.28044766 0.038728986 0.062457725 -0.032826874 0.002973804 0.11877212 0.076709546 0.13471119
0.010665665 -0.090066515 -0.097676925 -0.13270922 -0.037543774 0.02789612 -0.012743268 -0.084448576
0.27059484 -0.23795645 0.011134218 -0.027325517 0.027953625 0.099363156 0.0029053984 -0.023951838
-0.04594383 0.12642543 -0.030940827 0.04242344 -0.020243635 0.006297644 0.03237143 0.06005396
-0.19102728 0.107965246 0.11349292 -0.060060147 -0.014351452 -0.034087382 0.113528855 0.07300176
-0.1266587 -0.14672562 -0.020794574 0.18999642 -0.12556653 -0.17139588 0.1735645 0.1862438
0.020525454 0.023750024 0.039875437 0.113989584 -0.20702094 -0.050767895 -0.15342508 0.1400207
0.0026390392 0.19046284 -0.14146684 -0.26253608 0.1844364 -0.049673706 -0.18299343 0.011482116
-0.090049945 0.07260099 0.04349294 -0.06162145 0.027688367 0.013777579 0.09374977 -0.21709327
-0.2912767 -0.006885599 -0.10865611 0.17111693 -0.07288666 -0.17591862 0.15244219 -0.17160214
-0.19661108 0.10221459 0.2523396 0.0061327857 -0.21722306 -0.0710434 -0.12258266 -0.046026267
0.048435647 -0.005510354 -0.08723949 -0.04890984 0.002518357 -0.18049961 0.02466057 0.020915374
0.04809791 -0.08490633 0.0098676365 -0.07750643 0.103740826 0.08882551 -0.24113166 -0.18817705
00000000: 26c8 48be 646b 60be 0e9f 95bd daf5 01be
00000010: c278 81be ff98 70be 68e4 04bd 62db 24bd
00000020: a458 3fbe a9a3 733e e395 06bc 2753 363e
00000030: 5dbb 5a3e f6f3 69be b194 a0bd dc64 4bbd
00000040: 255a 353e 4f18 7b3e 727d 01be a9af 61be
00000050: c626 49be 6725 b1bc c134 8bbe 26e7 82be
00000060: 81ce 56bd bf9b fabd 2b30 38be 4c66 5f3e
00000070: eae4 2b3e 9eab 0dbe d362 763e 01d6 3b3d
00000080: e2e1 0f3e 68c6 b7bb 8ca2 c23d 0818 9a3e
00000090: 269d d7bd 5778 86be 5ddd 743e faa6 3fbe
000000a0: 71aa 8fbe 19e7 f53d ca56 563d 51e9 2ebe
000000b0: 050f 4dbd ebac 5bbe dc86 62be b219 4a3d
000000c0: 7a11 553e 114a bfbd 2ef8 50be 96a0 8abe
000000d0: 3959 f13d ae61 2c3e 7073 0cbd 4058 83be
000000e0: 1679 83bc a8da 99be 45f0 b8be 18d9 4bbe
000000f0: 7e55 64bb 98c0 4e3d 7f71 c33d eb49 e7bc
00000100: da33 343e c271 0e3d 26f8 78bd 6df7 e33d
00000110: e33b 553d 166c 233e 9562 66be 7d61 323b
00000120: 476a 82bd 4022 5ebe a491 8c3c 0238 2abe
00000130: 2121 edbb 8ea6 953d 0aea 6c3d 5401 2dbc
00000140: 32db 36bd c101 ec3d 8b78 86bd 56d7 0f3d
00000150: d577 76bd dcd7 023d 54f8 21bd e04b 633d
00000160: df82 483e 784c fa39 b64a 363c e89f 583d
00000170: 8d68 11be 0818 64bd e3f2 2dbd 2c60 2e3d
00000180: 29bf c83b 3dd9 c6bd f1ba 05be da94 943c
00000190: 3d87 b4bd 2042 f5bd 63a8 cbbd 90d2 0a3d
000001a0: df9b 423e 7ffb e1bd cd4b 80be 99a2 8abd
000001b0: b379 dabb 63dc d83d 4527 a63c 3b4d 8d3c
000001c0: af51 c5bd 6065 91bd d192 5ebd 49e7 e33d
000001d0: e7f8 7cbb bc7a ad3c a660 923d ce53 4a3e
000001e0: 173f 00bc fd1e ecbb 1086 e73d cb41 88ba
000001f0: 4a63 90bc ccda 553d f551 d43d 275d 173e
00000200: d155 493e 55c1 cabc 951f 993d d1a0 c7bd
00000210: 472a 11bd 263f 923b 3049 81bc 4cb1 0dbe
00000220: 9552 0a3e a124 113d 118e 16be a163 6fbd
00000230: 04ae 663c 0b02 3b3e eabb 303e 0811 f6bd
00000240: 7bf9 b9bd a56c 51bd b81b 2f3e 5281 233d
00000250: a341 e43d 3616 063d 1710 aa3d 1b40 b73d
00000260: d696 8f3e 49a2 1e3d acd3 7f3d 7975 06bd
00000270: 27e4 423b cc3e f33d e519 9d3d bbf1 093e
00000280: 0bbf 2e3c cb74 b8bd d70a c8bd ede4 07be
00000290: 80c7 19bd 6786 e43c 24c9 50bc 60f3 acbd
000002a0: 688b 8a3e dbaa 73be 4c6c 363c c3d9 dfbc
000002b0: 00ff e43c e97e cb3d 7f68 3e3b a536 c4bc
000002c0: 992f 3cbd ab75 013e 9e77 fdbc 33c4 2d3d
000002d0: fbd5 a5bc 785c ce3b e897 043d 24fb 753d
000002e0: a89c 43be e21c dd3d fa6e e83d a101 76bd
000002f0: 5a22 6bbc 369f 0bbd d181 e83d f281 953d
00000300: d1b2 01be 3e3f 16be 6259 aabc 6c8e 423e
00000310: 8394 00be 6782 2fbe e4ba 313e b2b6 3e3e
00000320: ff24 a83c 698f c23c 6d54 233d 5f73 e93d
00000330: 4cfd 53be fff1 4fbd 771b 1dbe 9661 0f3e
00000340: bbf3 2c3b b108 433e afdc 10be 216b 86be
00000350: e5dc 3c3e a876 4bbd a162 3bbe 7c1f 3c3c
00000360: 1b6c b8bd d4af 943d a725 323d c666 7cbd
00000370: b7d2 e23c 5bbb 613c e1ff bf3d b34d 5ebe
00000380: 3822 95be 97a0 e1bb 1887 debd 4739 2f3e
00000390: 9a45 95bd 0324 34be ce19 1c3e 79b8 2fbe
000003a0: 6a54 49be e255 d13d a832 813e 89f5 c83b
000003b0: b96f 5ebe 347f 91bd 9e0c fbbd 0a86 3cbd
000003c0: 7564 463d 3390 b4bb 9eaa b2bd af55 48bd
000003d0: 050b 253b e4d4 38be f704 ca3c b856 ab3c
000003e0: 5002 453d 5fe3 adbd deab 213c b1bb 9ebd
000003f0: 1276 d43d 26ea b53d 38eb 76be 7cb1 40be

lstm.weight_hh_l1 f4 [256, 64]
0.15354322 0.13292101 -0.09051906 -0.82316184 0.13037695 0.31392142 -0.19505413 -0.14010043
-0.0993405 -0.017694812 0.08614709 0.17950276 -0.048517454 -0.07475806 -0.21694653 0.07656633
-0.00482434 -0.11040613 -0.07836027 0.36939082 -0.12956233 -0.078615054 0.11613109 0.6224862
-0.035965703 -0.85124266 0.7910566 0.26082167 0.1590794 -0.05183104 -0.055456858 -0.039603956
-0.17759214 0.94609636 0.18169338 0.28173536 0.076221235 0.03217825 -0.058917694 0.041851934
0.34635204 0.33582285 0.25289765 0.09247355 -0.22769456 0.8137057 0.09547789 1.15566
0.7430621 -0.1731548 1.0841429 0.16099225 -0.25919357 0.11245392 0.35298276 -0.972074
0.03767027 -0.27549148 -0.06826513 -0.2207957 0.18130285 0.14487234 0.16382617 -0.36956933
0.6120043 0.11198871 0.012312658 -0.8332046 0.023859471 0.18776973 -4.0416242e-05 0.12075992
-0.027656741 -0.14315958 0.14944103 0.019946553 -0.00996467 0.06620858 -0.2902203 0.19590306
-0.08406089 0.015742743 -0.057919275 0.39718142 -0.22441128 -0.1258865 0.14748867 0.7439649
-0.023564903 -1.2191556 0.95333135 0.078765474 -0.0055133766 -0.15601553 -0.09474923 0.08680101
-0.329241 1.2258818 -0.0334713 0.27381614 0.09492103 0.043177437 0.046914797 -0.036326483
0.4376178 0.2572847 0.08881784 0.04143313 -0.04970505 0.85684335 0.2282341 1.1062021
0.7235206 -0.17465828 1.2511309 0.17369911 -0.03785161 0.18805653 0.3156805 -1.0639982
0.1261278 -0.24479462 -0.081268385 -0.25446194 0.14633715 0.17416823 0.07488275 -0.19182965
0.44969943 0.22104216 0.024076669 -0.854033 -0.040107153 0.27581403 0.016478766 0.13955913
-0.086289 -0.19901569 0.057078395 0.022306511 0.08070187 0.069368936 -0.044506166 0.39655945
-0.13831094 0.07887463 0.05842206 0.17001101 -0.26683706 0.045626607 0.010828005 0.64806473
0.060003016 -1.140469 1.0572654 0.18155155 -0.02505055 -0.08886683 -0.051106885 0.11952064
-0.27999762 1.2325969 0.09537576 0.17602436 0.16831341 0.03222768 0.10316626 -0.027275214
0.4544086 0.1726596 0.12854075 0.08256735 -0.042581733 0.87434614 0.14820686 1.1926447
0.886996 0.0014261947 1.0502359 -0.04188953 -0.14090398 0.11407007 0.23055784 -1.0047055
0.10063717 -0.0007954713 0.08105463 -0.07688355 0.14851646 0.05782549 0.10630391 -0.23365305
-0.10176 -0.116338946 -0.043575313 0.31586355 0.017666126 0.008537548 -0.062089603 0.042488527
0.17464599 0.2018164 -0.11751167 0.06785192 0.013252624 -0.09921561 -0.06157165 -0.0687179
-0.052912578 0.089194335 -0.037149426 -0.11404917 0.18273628 0.1356122 0.00044311577 -0.22789559
0.010676204 0.2925886 -0.45604545 -0.10105191 -0.049573805 0.004706955 0.14298701 -0.016810881
0.02556244 -0.27137184 -0.16581777 -0.23554249 -0.07947863 -0.06104097 -0.027909981 -0.05929486
-0.13075714 -0.0343929 -0.19694674 0.068502285 -0.04086583 -0.42393443 -0.08518387 -0.36735374
-0.34231955 -0.07036367 -0.34360534 -0.0125099225 0.07965814 -0.20711191 0.011243434 0.33979854
-0.06540921 -0.0025704524 0.045453887 0.22275002 -0.0811906 0.01615869 -0.0068115024 0.053625192
00000000: 6f3a 1d3e 721c 083e 0f62 b9bd bcba 52bf
00000010: 8981 053e 4fba a03e 45bc 47be 7d76 0fbe
00000020: 0873 cbbd b6f4 90bc e36d b03d 92cf 373e
00000030: 3dba 46bd c11a 99bd 3b27 5ebe cfce 9c3d
00000040: 7f15 9ebb 9c1c e2bd 597b a0bd cb20 bd3e
00000050: fdab 04be ee00 a1bd 23d6 ed3d 415b 1f3f
00000060: c650 13bd 0aeb 59bf af82 4a3f 6b8a 853e
00000070: b6e5 223e c94c 54bd bb26 63bd c237 22bd
00000080: b7da 35be 5f33 723f d40d 3a3e 9e3f 903e
00000090: e119 9c3d 57cd 033d ae53 71bd ef6c 2b3d
000000a0: 0e55 b13e f9f0 ab3e cd7b 813e c662 bd3d
000000b0: c328 69be 044f 503f e989 c33d abec 933f
000000c0: 5139 3e3f 7e4f 31be 32c5 8a3f 27db 243e
000000d0: 05b5 84be 3e4e e63d 28ba b43e d7d9 78bf
000000e0: 244c 1a3d 380d 8dbe 97ce 8bbd 4518 62be
000000f0: 74a7 393e 6a59 143e 0cc2 273e 3138 bdbe
00000100: 50ac 1c3f 565a e53d 08bb 493c e64c 55bf
00000110: f074 c33c b546 403e 9c84 29b8 fa50 f73d
00000120: 6490 e2bc 6d98 12be 1207 193e f466 a33c
00000130: db42 23bc 5d98 873d c197 94be d09a 483e
00000140: 1e28 acbd edf6 803c c33c 6dbd 5d5b cb3e
00000150: 12cc 65be 64e8 00be 4507 173e 7c74 3e3f
00000160: 2f0b c1bc 4a0d 9cbf 860d 743f cb4f a13d
00000170: 8ea9 b4bb 89c2 1fbe e20b c2bd bac4 b13d
00000180: 4792 a8be b2e9 9c3f 3419 09bd a131 8c3e
00000190: f565 c23d d3da 303d bb29 403d 14cb 14bd
000001a0: 710f e03e d2ba 833e 21e6 b53d c9b5 293d
000001b0: 8697 4bbd 165a 5b3f 33b6 693e 0898 8d3f
000001c0: a538 393f 9fd9 32be 0f25 a03f 2ede 313e
000001d0: 4a0a 1bbd e491 403e e0a0 a13e 1831 88bf
000001e0: a527 013e 71ab 7abe 0a70 a6bd d648 82be
000001f0: 68d9 153e 2859 323e 215c 993d fe6e 44be
00000200: 013f e63e e058 623e 6f3c c53c e8a1 5abf
00000210: 6647 24bd 7f37 8d3e 7afe 863c 97e8 0e3e
00000220: 4ab8 b0bd c5ca 4bbe 09cb 693d 25bc b63c
00000230: 0647 a53d 4d11 8e3d 194c 36bd d709 cb3e
00000240: 62a1 0dbe 0689 a13d f84b 6f3d 5e17 2e3e
00000250: de9e 88be f7e2 3a3d f267 313c 92e7 253f
00000260: b9c5 753d e3fa 91bf 7954 873f a6e8 393e
00000270: d036 cdbc d0ff b5bd 7455 51bd 3dc7 f43d
00000280: d95b 8fbe bcc5 9d3f 5e54 c33d bb3f 343e
00000290: 5a5a 2c3e 2c01 043d d548 d33d 4570 dfbc
000002a0: 3ea8 e83e aecd 303e 30a0 033e 1219 a93d
000002b0: 2f6a 2ebd 26d5 5f3f 8ac3 173e 95a8 983f
000002c0: 2b12 633f 27ef ba3a 216e 863f 5b94 2bbd
000002d0: 2249 10be 929d e93d 5b17 6c3e 319a 80bf
000002e0: dc1a ce3d 2d87 50ba f8ff a53d 1f75 9dbd
000002f0: b314 183e 6cda 6c3d ddb5 d93d bf42 6fbe
00000300: 8c67 d0bd 1d43 eebd 077c 32bd deb8 a13e
00000310: 8db8 903c 12e1 0b3c ab51 7ebd 7308 2e3d
00000320: 66d6 323e f5a8 4e3e f5a9 f0bd f3f5 8a3d
00000330: 8921 593c 8e31 cbbd 8e32 7cbd f8bb 8cbd
00000340: dcba 58bd 85ab b63d ff29 18bd 9c92 e9bd
00000350: 381f 3b3e eddd 0a3e fe51 e839 765d 69be
00000360: 3feb 2e3c 2cce 953e ca7e e9be 4ef4 cebd
00000370: e70d 4bbd cd3c 9a3b 306b 123e f9b6 89bc
00000380: 5268 d13c 40f1 8abe 22cc 29be 0d32 71be
00000390: b1c5 a2bd 1906 7abd 79a3 e4bc 2bdf 72bd
000003a0: 33e5 05be 92df 0cbd 68ac 49be ed4a 8c3d
000003b0: ee62 27bd ef0d d9be e174 aebd ca15 bcbe
000003c0: 8244 afbe d41a 90bd 0aed afbe 6bf6 4cbc
000003d0: cf23 a33d 2515 54be 6136 383c 13fa ad3e
000003e0: 44f5 85bd 0975 28bb db2d 3a3d 9518 643e
000003f0: 4247 a6bd 3b5f 843c 0633 dfbb 17a6 5b3d

lstm.bias_ih_l1 f4 [256]
-1.2487758 -1.2167883 -1.4196436 0.5203083 -1.3986994 -0.64242125 -1.4770138 -1.1758672
-1.1449538 -0.87774456 -0.99041367 -1.5034361 -1.4557599 -1.472435 -1.2343234 -1.3436203
-1.2168931 -1.4299167 -1.4982384 -0.22273068 -1.1916151 -1.261347 -1.4619203 -1.1890869
-1.4739022 0.6029899 0.48666808 -1.1730999 -1.3834745 -1.2358212 -1.4252287 -1.3909799
-1.1334131 0.29770505 -1.4244424 -0.979628 -1.2075427 -1.3703066 -1.3866986 -1.2262344
-1.151059 -0.95693207 -1.3133371 -1.2052563 -1.2182896 0.30126518 -0.8779648 0.5354836
-0.25429362 -1.3960352 0.62539506 -1.0214548 -0.9838002 -1.1213458 -0.9830973 0.43801105
-1.3759549 -1.0737835 -1.1537762 -0.74559927 -1.1734889 -1.4064226 -1.3556056 -0.7316278
-0.40626675 -0.42105052 -0.5144783 0.5521759 -0.5084041 -0.52125454 -0.32464403 -0.5954075
-0.58385605 -0.758207 -0.5759377 -0.4609255 -0.41148877 -0.46020034 -0.5434119 -0.40956628
-0.4710427 -0.47461325 -0.433574 -0.29608533 -0.47194043 -0.52330744 -0.39983326 -0.632875
-0.31159407 0.3485359 0.4276701 -0.4204546 -0.4035999 -0.5965973 -0.58470005 -0.4939285
-0.49216557 0.18441689 -0.575433 -0.5260007 -0.5213226 -0.53623796 -0.41685402 -0.38689482
-0.48906863 -0.520325 -0.4728653 -0.41673225 -0.45942456 0.39935246 -0.6278676 0.6537607
0.23926674 -0.3693558 0.59573865 -0.5854368 -0.5305309 -0.644778 -0.3832947 0.6036748
-0.5263511 -0.5178026 -0.5859165 -0.3258685 -0.58629805 -0.5253976 -0.46558046 -0.5292846
-0.04287318 -0.016716978 -0.008080083 0.4775447 0.13217938 0.20501447 -0.0914924 0.170361
-0.0064988188 -0.032768756 0.06625805 0.07926424 -0.059071336 0.0051705563 -0.008769906 -0.041278604
0.08000297 -0.036204003 0.10066346 0.1389528 -0.13055867 -0.13311231 0.03298272 -0.078462705
0.038787037 0.88538516 -0.81997544 0.14539936 0.01409145 -0.01885681 -0.071232006 -0.0799601
-0.049308512 -0.6448517 0.10853262 0.03326882 -0.031109912 0.04755947 -0.05600424 -0.09226442
0.05349986 0.14401779 -0.033324298 0.15176594 -0.043662373 -0.79538506 0.03457092 -0.48863187
-0.21165971 -0.089421056 -0.61474824 0.14956959 -0.197471 0.052488107 -0.03786611 0.43339944
0.10783941 -0.018191686 0.17677666 -0.060061667 -0.0006446346 0.16649616 0.020391772 0.022736497
-1.3708773 -1.350116 -1.247411 -0.68152505 -1.345809 -0.6715354 -1.3081576 -1.164431
-1.24784 -0.8871783 -0.81402105 -1.4364371 -1.4767448 -1.5561403 -1.3967296 -1.3190693
-1.3113378 -1.3323916 -1.3755237 -0.15280965 -1.1319027 -1.2991072 -1.4214529 -1.5250839
-1.427818 -0.263476 -0.46082163 -1.2080508 -1.5484108 -1.1450864 -1.3429793 -1.3598831
-1.3314438 -0.19165254 -1.2808374 -0.95518637 -1.3562275 -1.4713353 -1.3632947 -1.1444565
-1.2150869 -1.0562088 -1.2351371 -1.1787835 -1.2336252 -0.5968651 -0.76548135 -0.11451474
-0.24875031 -1.3250262 -0.14404325 -1.0306317 -1.0084467 -1.0371095 -0.86603945 -0.17683186
-1.3692183 -0.97459155 -1.2377402 -0.7446767 -1.1236532 -1.338413 -1.2795384 -0.61308205
00000000: e3d7 9fbf b8bf 9bbf e2b6 b5bf ed32 053f
00000010: 9508 b3bf b875 24bf ca0e bdbf d182 96bf
00000020: d98d 92bf deb3 60bf c08b 7dbf 9870 c0bf
00000030: 5756 babf c078 bcbf 4ffe 9dbf c0fb abbf
00000040: 27c3 9bbf 8307 b7bf 47c6 bfbf 8313 64be
00000050: d886 98bf d273 a1bf 3420 bbbf 0034 98bf
00000060: d4a8 bcbf 8c5d 1a3f 8f2c f93e 2328 96bf
00000070: b115 b1bf 642f 9ebf e56d b6bf a10b b2bf
00000080: ae13 91bf cc6c 983e 2154 b6bf e7c8 7abf
00000090: c290 9abf 3566 afbf 577f b1bf 40f5 9cbf
000000a0: e755 93bf 80f9 74bf 6e1b a8bf d745 9abf
000000b0: eaf0 9bbf 6e3f 9a3e 4dc2 60bf 7415 093f
000000c0: c632 82be 48b1 b2bf e419 203f 08bf 82bf
000000d0: 54da 7bbf 4288 8fbf 44ac 7bbf fc42 e03e
000000e0: 4a1f b0bf bd71 89bf f0ae 93bf 98df 3ebf
000000f0: e234 96bf a805 b4bf 7c84 adbf f64b 3bbf
00000100: 3202 d0be ef93 d7be dab4 03bf 665b 0d3f
00000110: c526 02bf f070 05bf be37 a6be a06c 18bf
00000120: 9777 15bf db19 42bf a770 13bf 6dfe ebbe
00000130: a8ae d2be 619f ebbe 0b1d 0bbf acb2 d1be
00000140: 822c f1be 8200 f3be 69fd ddbe 7f98 97be
00000150: 2da2 f1be 7af7 05bf f2b6 ccbe 1904 22bf
00000160: 4289 9fbe 4c73 b23e 93f7 da3e d345 d7be
00000170: a5a4 cebe 9aba 18bf e7ae 15bf 32e4 fcbe
00000180: 20fd fbbe c8d7 3c3e 944f 13bf fba7 06bf
00000190: 6675 05bf e446 09bf e46d d5be 1417 c6be
000001a0: 3467 fabe 0534 05bf 671b f2be ee5d d5be
000001b0: b239 ebbe ed77 cc3e eebb 20bf dc5c 273f
000001c0: 5702 753e 341c bdbe 5482 183f 30df 15bf
000001d0: e0d0 07bf 2c10 25bf 343f c4be 6f8a 1a3f
000001e0: f2be 06bf b68e 04bf a0fe 15bf 3cd8 a6be
000001f0: a117 16bf 7580 06bf 9060 eebe 327f 07bf
00000200: ca9b 2fbd 0bf2 88bc 5362 04bc bd80 f43e
00000210: 085a 073e 50ef 513e 5e60 bbbd 1d73 2e3e
00000220: 0bf4 d4bb 8838 06bd 4db2 873d 4a55 a23d
00000230: c9f4 71bd c56d a93b a7af 0fbc c113 29bd
00000240: 99d8 a33d a64a 14bd a528 ce3d a549 0e3e
00000250: 2cb1 05be 984e 08be e318 073d 0eb1 a0bd
00000260: 28df 1e3d 9aa8 623f e9e9 51bf 92e3 143e
00000270: d3df 663c 9979 9abc 16e2 91bd 1fc2 a3bd
00000280: b9f7 49bd 0015 25bf 5a46 de3d e344 083d
00000290: 37da febc b8cd 423d b464 65bd 21f5 bcbd
000002a0: ab22 5b3d 6679 133e 0f7f 08bd 8868 1b3e
000002b0: 51d7 32bd 5b9e 4bbf 3d9a 0d3d f52d fabe
000002c0: 53bd 58be 6322 b7bd 2460 1dbf c528 193e
000002d0: d635 4abe c5fd 563d 7f19 1bbd 88e6 dd3e
000002e0: e9da dc3d bb06 95bc f104 353e 3903 76bd
000002f0: b2fc 28ba f87d 2a3e a50c a73c e441 ba3c
00000300: e878 afbf 9ad0 acbf 2aab 9fbf 6d78 2ebf
00000310: 7843 acbf bee9 2bbf b571 a7bf 130c 95bf
00000320: 39b9 9fbf 1e1e 63bf af63 50bf 2cdd b7bf
00000330: f905 bdbf 9b2f c7bf 09c8 b2bf 43d7 a8bf
00000340: ebd9 a7bf cf8b aabf 2911 b0bf 227a 1cbe
00000350: 30e2 90bf 2549 a6bf 2bf2 b5bf f335 c3bf
00000360: bdc2 b6bf 54e6 86be d0f0 ebbe 69a1 9abf
00000370: 5332 c6bf 3192 92bf bfe6 abbf a610 aebf
00000380: c06c aabf 9040 44be 7bf2 a3bf 1887 74bf
00000390: dd98 adbf b754 bcbf 7180 aebf 8d7d 92bf
000003a0: f887 9bbf da31 87bf f918 9ebf 61e2 96bf
000003b0: 6ee7 9dbf 27cc 18bf 96f6 43bf b486 eabd
000003c0: 67b8 7ebe 759a a9bf 1380 13be bdeb 83bf
000003d0: c814 81bf 01c0 84bf c3b4 5dbf 6913 35be
000003e0: 8c42 afbf d57e 79bf 456e 9ebf 22a3 3ebf
000003f0: ded3 8fbf 1e51 abbf eac7 a3bf f2f2 1cbf

lstm.bias_hh_l1 f4 [256]
-1.3575497 -1.3403872 -1.2795912 0.55942047 -1.1929715 -0.68807703 -1.4303404 -1.1746689
-1.1323609 -1.0620443 -0.94121945 -1.464494 -1.2818491 -1.4036679 -1.3575637 -1.4262491
-1.18995 -1.3180853 -1.4894016 -0.33878884 -1.0574032 -1.4050492 -1.4125065 -1.0666941
-1.3677342 0.52653277 0.46156433 -1.1318631 -1.5084119 -1.0499995 -1.4431416 -1.5364982
-1.3272427 0.27775192 -1.4675987 -1.1540008 -1.2419243 -1.4935677 -1.4369621 -1.0783763
-1.1555862 -1.0791355 -1.2715896 -1.2295625 -1.3356315 0.32973123 -0.86934966 0.48737526
-0.21992955 -1.386158 0.61037356 -1.0054258 -1.2126259 -1.0559393 -0.9814246 0.62094516
-1.4871111 -1.1023209 -1.2669008 -0.75822496 -1.109004 -1.3933542 -1.2063972 -0.64609134
-0.44050655 -0.4956185 -0.5904538 0.5133918 -0.43573937 -0.5299136 -0.52613056 -0.49751288
-0.72766024 -0.6128173 -0.4610681 -0.4942577 -0.4222559 -0.4442352 -0.4487992 -0.45853359
-0.5873888 -0.3002789 -0.372286 -0.25545233 -0.55576795 -0.43903896 -0.47889107 -0.69978625
-0.5003994 0.46366343 0.29694194 -0.6029207 -0.5423493 -0.63573086 -0.4734789 -0.3186292
-0.38742384 0.35696992 -0.46442938 -0.55932 -0.48595998 -0.42887655 -0.56340945 -0.57154846
-0.5114991 -0.5949852 -0.52550846 -0.40297183 -0.42845374 0.4106676 -0.68430585 0.6543777
0.2859048 -0.40904918 0.5126008 -0.44096994 -0.4320728 -0.61389005 -0.44162056 0.60806036
-0.36402044 -0.5723175 -0.42878416 -0.50540143 -0.37391898 -0.5687401 -0.3421815 -0.35346806
0.02209053 -0.014602149 -0.10332424 0.5614642 0.030021893 -0.01058873 0.0104433065 0.030544085
0.009177574 -0.07379457 0.09594893 0.023417793 -0.027182076 -0.052668057 -0.10686052 -0.023229083
-0.11954063 -0.11932878 -0.021441298 -0.036511283 -0.023771808 -0.081632406 0.039017413 0.010557825
-0.05485491 0.8153112 -0.86083305 0.05256487 -0.06333325 -0.15263866 0.06425956 -0.08143874
0.019545984 -0.77771735 0.0378292 0.036579486 0.16493544 -0.07083526 0.07417466 -0.11467176
-0.08580364 -0.036561538 -0.027848704 0.08313581 -0.13458888 -0.67328304 0.15979786 -0.5282694
-0.21542038 -0.07259648 -0.6651471 0.11385644 -0.06112962 0.033253435 0.120240286 0.6026796
0.056409825 -0.13642184 0.1522218 -0.05310074 0.06277909 -0.035657935 0.10620201 -0.1416919
-1.3676747 -1.2608044 -1.4358135 -0.5830989 -1.2623104 -0.8751757 -1.4390248 -1.0590881
-1.1219447 -1.0116457 -0.92217547 -1.2895665 -1.451856 -1.3955543 -1.3898376 -1.312956
-1.1656516 -1.4002 -1.4028081 -0.06802165 -1.2333537 -1.2464839 -1.3514398 -1.4073094
-1.4640243 -0.19853134 -0.41654658 -1.2835897 -1.5343335 -1.274797 -1.2909834 -1.473122
-1.3029193 -0.022786325 -1.489178 -1.057556 -1.3465997 -1.4920137 -1.57534 -1.0944495
-1.3570634 -1.1845385 -1.1980876 -1.1374742 -1.2048017 -0.58289254 -0.826553 -0.09230339
-0.23062237 -1.2718947 0.015334969 -0.9569026 -1.2256091 -1.0849465 -0.7613207 -0.21713807
-1.4960302 -1.0843071 -1.1075795 -0.7671862 -1.2219111 -1.4292177 -1.2576759 -0.55663854
00000000: 30c4 adbf cf91 abbf a5c9 a3bf 2e36 0f3f
00000010: 4ab3 98bf d125 30bf 6515 b7bf 8d5b 96bf
00000020: 34f1 90bf 11f1 87bf c2f3 70bf 8a74 bbbf
00000030: a213 a4bf 64ab b3bf a6c4 adbf 558f b6bf
00000040: 4850 98bf 05b7 a8bf b6a4 bebf bb75 adbe
00000050: fd58 87bf a7d8 b3bf 03cd b4bf 6f89 88bf
00000060: ea11 afbf daca 063f 2952 ec3e e4e0 90bf
00000070: a413 c1bf 6266 86bf ddb8 b8bf f9ab c4bf
00000080: 17e3 a9bf 8035 8e3e 46da bbbf 4cb6 93bf
00000090: 60f7 9ebf 3a2d bfbf 60ee b7bf 3c08 8abf
000000a0: 40ea 93bf 1d21 8abf 73c3 a2bf 4e62 9dbf
000000b0: f9f5 aabf 88d2 a83e b38d 5ebf 4089 f93e
000000c0: 3635 61be a06d b1bf 7141 1c3f cbb1 80bf
000000d0: 5337 9bbf 0529 87bf a53e 7bbf 43f6 1e3f
000000e0: a859 bebf da18 8dbf ce29 a2bf 081b 42bf
000000f0: d8f3 8dbf 6e59 b2bf 396b 9abf 3e66 25bf
00000100: 138a e1be b5c1 fdbe fb27 17bf a56d 033f
00000110: 3b19 dfbe 6ba8 07bf 7eb0 06bf 02ba febe
00000120: f147 3abf 98e1 1cbf 1e11 ecbe 580f fdbe
00000130: ed31 d8be cc72 e3be 02c9 e5be eac4 eabe
00000140: 1d5f 16bf 28be 99be 459c bebe a6ca 82be
00000150: cf46 0ebf b7c9 e0be 3631 f5be 3125 33bf
00000160: 2d1a 00bf 4b65 ed3e c608 983e 0359 1abf
00000170: 67d7 0abf 42bf 22bf d46b f2be 5e23 a3be
00000180: 6b5c c6be c3c4 b63e b0c9 edbe 982f 0fbf
00000190: bfcf f8be b595 dbbe 9a3b 10bf 0051 12bf
000001a0: 9bf1 02bf f350 18bf b987 06bf 5352 cebe
000001b0: 4a5e dbbe 0643 d23e ab2e 2fbf 4c85 273f
000001c0: 1d62 923e e56e d1be ce39 033f d0c6 e1be
000001d0: a538 ddbe e627 1dbf 171c e2be d8a9 1b3f
000001e0: e360 babe 6683 12bf 9989 dbbe fd61 01bf
000001f0: 4f72 bfbe f498 11bf 6a32 afbe c4f9 b4be
00000200: 33f7 b43c da3d 6fbc a99b d3bd 1ebc 0f3f
00000210: 79f0 f53c 5a7c 2dbc 671a 2b3c 9737 fa3c
00000220: 895d 163c 9c21 97bd df80 c43d acd6 bf3c
00000230: f2ac debc 76ba 57bd b0d9 dabd eb4a bebc
00000240: b8d1 f4bd a662 f4bd a9a5 afbc db8c 15bd
00000250: 18bd c2bc e42e a7bd b9d0 1f3d bafa 2c3c
00000260: 8baf 60bd 3cb8 503f 8e5f 5cbf 434e 573d
00000270: ddb4 81bd 4f4d 1cbe 849a 833d 5bc9 a6bd
00000280: e61e a03c 7c18 47bf cbf2 1a3d 5fd4 153d
00000290: d6e4 283e 1412 91bd e2e8 973d 07d9 eabd
000002a0: d2b9 afbd 8dc1 15bd f722 e4bc 1c43 aa3d
000002b0: abd1 09be 475c 2cbf 0da2 233e aa3c 07bf
000002c0: 2997 5cbe 77ad 94bd 1547 2abf 912d e93d
000002d0: 0d63 7abd c134 083d 8a40 f63d 3649 1a3f
000002e0: fd0d 673d 2bb2 0bbe 08e0 1b3e 2980 59bd
000002f0: 5392 803d 0e0e 12bd 7080 d93d ae17 11be
00000300: f70f afbf 0a62 a1bf bdc8 b7bf f845 15bf
00000310: 6393 a1bf 840b 60bf f731 b8bf 3390 87bf
00000320: e29b 8fbf 9b7d 81bf b113 6cbf 8410 a5bf
00000330: 6bd6 b9bf 86a1 b2bf 33e6 b1bf f10e a8bf
00000340: 1234 95bf c139 b3bf 378f b3bf ef4e 8bbd
00000350: 89de 9dbf c98c 9fbf fbfb acbf b722 b4bf
00000360: 2665 bbbf cd4b 4bbe 9845 d5be ab4c a4bf
00000370: 0a65 c4bf 8c2c a3bf f23e a5bf 438f bcbf
00000380: 0fc6 a6bf 63aa babc 629d bebf ff5d 87bf
00000390: 615d acbf 4efa bebf bea4 c9bf ec16 8cbf
000003a0: 41b4 adbf f59e 97bf ef5a 99bf c198 91bf
000003b0: f136 9abf 7238 15bf fa98 53bf 8f09 bdbd
000003c0: 4528 6cbe 72cd a2bf 863f 7b3c 92f7 74bf
000003d0: c2e0 9cbf 87df 8abf eae5 42bf 7159 5ebe
000003e0: eb7d bfbf 93ca 8abf 2ac5 8dbf 5166 44bf
000003f0: 9567 9cbf 9bf0 b6bf 86fb a0bf dd7f 0ebf
