李伟超/week06/rnn_model_params.pth (torch, 389006 bytes, 14 tensors)

rnn.weight_ih_l0 f4 [128, 64]
000000 24 df 01 3e 73 85 de 3d 48 f9 98 bd 1f aa b9 3d
       0.12682778 0.10865297 -0.074694216 0.09065651
000010 73 6a 99 3d 5f 1d d0 3d a4 67 9b 3d 23 28 ab bd
       0.07491007 0.10161852 0.07588127 -0.08357265
000020 e6 73 8f 3d a5 a1 dc 3c 2c 62 2b ba 71 18 85 bd
       0.07004528 0.026932547 -0.0006537761 -0.064988025
000030 78 46 94 bd d4 df 41 3d 36 39 d1 3c 36 86 15 3d
       -0.07240003 0.0473326 0.025539976 0.036504947
000040 c9 3b 9b bc c0 2f c3 3d c0 05 dd 3c 66 7d 8b ba
       -0.018949406 0.09530592 0.02698028 -0.001064223
000050 86 99 96 3b 18 b9 05 bd 39 19 5b 3d ba 2a 63 3c
       0.004595938 -0.032647222 0.05349085 0.013865167
000060 bb 5b a6 3d 80 40 ad bc 51 b6 22 3d a6 94 b5 3d
       0.08122965 -0.02114892 0.03972465 0.08866243
000070 68 97 16 bd 80 07 2d bd 38 2a 54 bd ec f7 19 bd
       -0.036765486 -0.04224348 -0.051798075 -0.037589952
000080 cd 22 9d 3c 9d dc 96 bd 04 be 3d bd c4 46 05 bc
       0.019181633 -0.073662974 -0.04632379 -0.008134548
000090 ba 8b ac 3d 95 5e 8d 3a 11 de bd bc 51 b6 f3 bc
       0.08425088 0.0010785634 -0.023177179 -0.029750021
0000a0 79 49 96 bd ea fe 29 3b a2 4d 6b 3d 7b 39 42 bd
       -0.073382325 0.0025939294 0.057447083 -0.0474181
0000b0 42 44 c3 bd 86 84 32 bd 49 18 28 3d f4 cd 13 bd
       -0.095345035 -0.043583415 0.041038785 -0.036085084
0000c0 2b af 8a bc bc 7d a5 3d 6b 9b ad bd 61 3e 44 bd
       -0.01692923 0.080806226 -0.08476909 -0.04791105
0000d0 43 8b df bc fa 93 2b bd 24 e1 84 bc c0 ea 13 bc
       -0.027288085 -0.04188917 -0.016220637 -0.009028137
0000e0 33 3b 39 bc 8b be 53 bd c5 5c 9b bc 82 76 b3 3c
       -0.011305618 -0.051695388 -0.018965134 0.021907095
0000f0 79 f1 67 3d 1d 03 ce bc 1b 3a 26 3c 1f 90 88 bc
       0.05662677 -0.025147969 0.010145689 -0.016670285
000100 0b 31 07 3d 05 90 8d 3d 20 de 91 bc 05 f8 9c bd
       0.033005755 0.06912235 -0.017806113 -0.076644935
000110 00 c4 bc bb 9c be 98 bc 36 58 59 3d 32 5e 78 3d
       -0.0057606697 -0.018645577 0.05306264 0.060636707
000120 88 70 80 bc 3c 42 99 bc 8b c2 63 3c 9a 07 2d bd
       -0.01567866 -0.01870834 0.013901363 -0.042243578
000130 70 1e d3 bd f9 2a dd bb 56 bf 05 bd 54 e7 26 3c
       -0.1030854 -0.0067495075 -0.032653175 0.010186989
000140 19 58 8a bc 5e 55 de bd 4b 0a df bd 6f eb 12 bd
       -0.016887711 -0.10856126 -0.10890635 -0.03586906
000150 9a cb d7 bc 53 f2 8b bd 2d d6 f9 3c db f1 3c bd
       -0.026342202 -0.06833329 0.030497635 -0.04612909
000160 a0 d3 12 3d d4 dc 69 3d bb 2f 3c bd 9a b2 99 bc
       0.035846353 0.057095364 -0.045943957 -0.018761922
000170 e5 f7 aa 3d b7 88 9f 3d ca b3 80 3d 51 e0 e5 3c
       0.083480634 0.07789748 0.06284292 0.028061064
000180 19 07 1d bd 22 98 12 bd 7c 39 c2 3d ac ef 29 3c
       -0.038336847 -0.035789616 0.094836205 0.010372084
000190 ce c0 66 bd a9 53 f3 bc c7 67 10 3d 31 31 2d bc
       -0.056336217 -0.029702978 0.03525522 -0.01057081
0001a0 5e 2e be bd 56 c3 95 bd 0c 52 54 3d a7 86 93 bd
       -0.092861876 -0.07312648 0.05183606 -0.07203417
0001b0 4d 12 2e bd 59 67 13 bd e7 e5 1b 3d 05 91 46 bd
       -0.04249792 -0.035987232 0.03806105 -0.048478145
0001c0 94 f7 60 3d f9 28 3b bd 57 8b c5 3c 9c 0b 95 3d
       0.05492361 -0.04569337 0.024114294 0.07277605
0001d0 f8 41 4b 3d 98 4f 3d 3d 3c 09 8c b8 a2 45 56 3c
       0.04962346 0.046218485 -6.67744e-05 0.013078125
0001e0 9a d2 55 bd 17 f6 fe bd b2 8a bd bd 7b 2e 32 3b
       -0.0522028 -0.12449282 -0.0925497 0.002718835
0001f0 2a 44 da 3c 74 ae 1f 3d 2a 45 76 bd 19 2b a1 3d
       0.026643831 0.03898473 -0.060124554 0.07869548
000200 9a f9 a1 bd 4c 54 d4 3c fd 28 e8 3c 9e 95 cc 3d
       -0.07908936 0.025919102 0.028339857 0.09989475
000210 27 b6 b2 3d 82 ce a7 3d 8e c3 7c 3d 78 47 1a bd
       0.08726149 0.08193685 0.061709933 -0.037665814
000220 d1 c3 16 bd 13 90 14 bd 73 a0 e2 bc 51 18 c0 bc
       -0.03680784 -0.036270212 -0.027664399 -0.023449095
000230 d7 10 55 bd c7 70 10 3d 54 9e d0 bd 67 dd 33 bd
       -0.052018013 0.035263803 -0.10186449 -0.043912318
000240 cc f4 35 3d a9 cb 80 bd 84 9b 80 3d d2 9e 1f bd
       0.04442291 -0.06288845 0.06279662 -0.038969822
000250 dd 2d 9a 3d 2f 76 c2 bb 43 31 8b 3d 41 37 d2 bd
       0.07528279 -0.0059344987 0.06796505 -0.10264445
000260 c9 59 88 bd e0 81 bd bc b3 1b 82 bd 82 5b 9d bd
       -0.0665775 -0.023133218 -0.063529395 -0.07683469
000270 39 c8 ce bd fb 8d 09 3c c3 10 6d 3d 8b 6c 87 bd
       -0.10096783 0.008395667 0.057877313 -0.066125
000280 ca 9f 22 bb 2b ff 2c 3d a7 01 6b bd 22 a4 66 bd
       -0.002481448 0.042235535 -0.057374623 -0.056308873
000290 0e 34 6e bb 6a ea 5b 3d 13 c5 16 3d 98 a4 ce 3c
       -0.0036346945 0.05369035 0.03680904 0.025224969
0002a0 e1 ab 3a 3d f8 18 89 bd 84 14 66 bd 54 51 f8 bc
       0.045574073 -0.066942155 -0.05617191 -0.030312218
0002b0 ff 61 57 bd 4f 58 86 bc 2e 0f db 3b 7c ac 97 3d
       -0.05258369 -0.01639953 0.006685159 0.07405946
0002c0 e9 a5 72 bd 93 54 2b 3d 6d 59 45 3d 81 3f c9 3d
       -0.059240256 0.041828703 0.048180986 0.098265655
0002d0 6b d5 ba 3d 2d 0c d2 bc 42 6e 8a 3d b4 3c 1f bd
       0.091227375 -0.025640571 0.06759311 -0.03887625
0002e0 85 f6 60 3d 50 ea 20 bd b4 68 c2 bd c4 5b 0a bb
       0.0549226 -0.039285958 -0.09492627 -0.0021111825
0002f0 39 c0 b6 bd eb 5f 89 bd d4 f2 df bd 58 2a 22 3d
       -0.08923382 -0.06707748 -0.10934988 0.039591163
000300 51 37 c3 3d 9e b1 97 3d e8 ea 93 3c 03 2d 3f 39
       0.09532035 0.07406925 0.018056348 0.00018231948
000310 f2 8e 72 3c 3b ba 5c 3d db d2 af 3d a2 99 1a bd
       0.014804589 0.05388854 0.08585139 -0.037744172
000320 17 2e b7 bd 60 16 b6 3c a6 8f bc 3c 3d 9a f2 bc
       -0.08944338 0.022227466 0.023017716 -0.029614562
000330 60 42 56 bd 64 2f 20 bb 11 f4 77 bd 2b b4 a0 bb
       -0.052309394 -0.002444231 -0.060535494 -0.00490429
000340 07 df 05 bd 42 06 2f 3d a1 45 f7 3c e0 82 a4 bd
       -0.0326834 0.042730577 0.030184569 -0.08032775
000350 01 fc 4f 3d 70 e0 08 3d 4d cc cc bb 2d 1f 52 3d
       0.05077744 0.033417165 -0.0062499405 0.051299263
000360 62 54 5b bd 59 68 b0 3d 46 1c b0 3c 34 8e bb 3b
       -0.05354727 0.08613653 0.021497857 0.005723739
000370 7a d8 a3 bd a7 39 88 3d 2e 1a 53 bd 38 5b df 3c
       -0.08000274 0.06651621 -0.05153864 0.027265176
000380 b4 23 79 bd 97 3f d2 3c 73 82 8a bc d7 44 46 3d
       -0.060825065 0.025665088 -0.016907906 0.048405495
000390 39 83 2a bd 18 61 ce 3b 37 81 02 bb 7b 07 58 3d
       -0.04162905 0.0062981956 -0.0019913444 0.05274151
0003a0 f0 a3 90 3c 40 4b 72 3d 0a 5f c9 bb 47 c8 89 3c
       0.017656296 0.059153795 -0.0061453627 0.016819132
0003b0 2b cf 4c 3b 9b e2 9f 3d 99 a3 2a 3d 20 32 0a bd
       0.0031251411 0.078068934 0.041659925 -0.03373921
0003c0 90 d7 86 3d 1c ff 54 3d 12 3f c1 bd c5 cc a0 bd
       0.06584084 0.052001104 -0.09435858 -0.07851557
0003d0 75 a2 94 bd 1f 14 c6 bd ba 95 4c bd 36 eb b3 bc
       -0.07257549 -0.096718065 -0.049947478 -0.021962743
0003e0 b6 0d 1d bd 80 7c df bd db 12 85 3d 26 3d a9 3c
       -0.038343154 -0.10912418 0.06497737 0.02065904
0003f0 0f f7 81 3d 12 50 c5 bb 2a 28 2f bd 61 db 5f bd
       0.06345951 -0.006021508 -0.042762913 -0.054652575

rnn.weight_hh_l0 f4 [128, 128]
000000 eb c9 5a bd cf eb 21 3d 25 1a 8d bd a7 f6 9a bc
       -0.05341522 0.039531525 -0.06889752 -0.018916441
000010 e3 69 9f 3d d9 96 2d 3d ad ba 8d bd 75 4a 17 3d
       0.07783868 0.042380188 -0.06920371 0.036936242
000020 a3 a6 c4 3c 25 69 16 bb ce 2b 11 bc e6 14 de 3c
       0.02400524 -0.0022950855 -0.0088605415 0.027109575
000030 06 1c d9 bc 0c 34 bc 3c 1c 00 8f bc c2 90 8a bd
       -0.02650262 0.022974037 -0.017456107 -0.067658916
000040 73 e8 49 bd 34 87 8d bc aa af 31 3d 41 c7 62 bc
       -0.049293946 -0.017276384 0.043380417 -0.013841451
000050 b1 d2 a1 3d a2 a4 19 ba 6d 99 14 3d eb 1c 5f 3d
       0.07901514 -0.0005861019 0.03627913 0.054470938
000060 8c 88 66 bc 78 a4 4b bd 1e d3 6e 3c 7e 1a 15 3d
       -0.014070641 -0.049717396 0.014576701 0.036402218
000070 ef 22 a9 3c 7d 1a eb 3c ed cb 45 3c 47 8f 9f 3d
       0.02064654 0.028699154 0.0120725455 0.07791
000080 e4 63 91 bd 95 39 31 3d b8 0f f5 3b 1e 1f 4e bd
       -0.07099131 0.043267805 0.0074786805 -0.050322644
000090 80 70 9c bd 83 7a 53 3c 57 ef 34 3b 7c af b7 3c
       -0.07638645 0.012907627 0.0027608478 0.022422545
0000a0 83 01 41 3c 59 aa a5 3d a4 40 df bc aa 15 03 bd
       0.011780146 0.08089132 -0.027252503 -0.032003082
0000b0 33 64 9b bc ae 5d 3a bc df 09 76 bd 4d a3 74 bc
       -0.018968677 -0.011374874 -0.060068008 -0.014931512
0000c0 27 e1 86 bd 28 76 35 3d ac 6b 53 bd 9a cd ed 3c
       -0.06585913 0.044302136 -0.051616356 0.029028703
0000d0 cd 12 b7 bd 37 93 74 bd a2 b7 8a 3d 7c 35 72 bd
       -0.08939133 -0.059710708 0.067733064 -0.059133038
0000e0 7a ec 99 bd db c8 59 3d ca 14 7a bd 6a 9e a1 bd
       -0.075158074 0.053170066 -0.061054982 -0.07891543
0000f0 06 10 08 bd dc e4 65 3c 4e ea a4 bd 3f 83 09 3d
       -0.033218406 0.014031615 -0.080525026 0.03357243
000100 af a7 28 bc b0 8c 4d bd 56 47 a3 bc 53 21 d2 bd
       -0.010293885 -0.050183 -0.019931477 -0.10260262
000110 05 31 a4 bd da cd d5 bd 12 f1 2e 3b e2 16 53 3d
       -0.08017162 -0.10439654 0.0026693982 0.051535495
000120 1a b4 40 3d b1 82 d4 bb ee 0f ae bc 9f dd 95 3d
       0.04704676 -0.006485306 -0.02124783 0.073176615
000130 7c d6 b6 bb 51 94 a3 bd bb bf 30 3d 7f d1 ae 3d
       -0.0055797677 -0.079872735 0.0431516 0.08536052
000140 93 eb ae bc 9d a9 b0 3b 66 17 4d 3b 8b f8 8e bc
       -0.021352565 0.005391313 0.0031294464 -0.017452499
000150 97 2e 70 bc d8 b2 9e 3d b9 06 2e bd 5d 78 51 3d
       -0.014659545 0.077489555 -0.04248688 0.051140178
000160 25 e4 6a 3d d2 6b 94 3d cb 53 9a 3c a7 df 00 3d
       0.05734648 0.072471276 0.018838784 0.03146329
000170 25 d9 a1 bb 36 a4 80 3d bd 9f a0 bc 12 59 fe bc
       -0.0049392157 0.06281321 -0.01960742 -0.031048331
000180 3f 86 88 bc ea cc 57 bc e3 36 ce bd c9 8f 67 bd
       -0.016665576 -0.013171414 -0.100690626 -0.05653361
000190 88 8b de 3a 63 f1 53 bd 9b b8 21 bd 8a 8a 84 bd
       0.0016978839 -0.051743876 -0.039482694 -0.06471737
0001a0 1d 27 92 3c 99 70 ea bd dd 90 97 3d 13 9e 09 bd
       0.017840916 -0.114472575 0.07400677 -0.033598017
0001b0 34 2d 13 bd ee 26 6e 3d 05 8d d7 3d 42 58 46 3d
       -0.03593178 0.058142595 0.10524944 0.048424013
0001c0 40 a6 6c 3d a6 32 89 3c 7d 93 ea 3c 67 b5 41 bd
       0.057775736 0.016747784 0.028634781 -0.04729214
0001d0 c9 66 f2 bc 0e e4 63 bc 0c d0 96 bd b2 db 59 3d
       -0.029590027 -0.013909353 -0.073639005 0.053188033
0001e0 dd 7c 83 3d 21 be af 3b 43 22 06 bd 87 a0 0d 3e
       0.064203 0.0053632413 -0.03274752 0.13830768
0001f0 6b 87 99 bc 29 36 14 3d ad f0 ce 3d 82 de 8c bd
       -0.01874133 0.036184464 0.10104499 -0.068783775
000200 fd 36 74 3d 19 09 47 bd 88 15 cf bc b9 6a 0d bc
       0.059622753 -0.04859266 -0.025278822 -0.008631402
000210 4e 67 05 bd 08 57 01 bc 17 ee bf 3c ed c3 73 bd
       -0.032569222 -0.007894285 0.02342896 -0.05951302
000220 89 58 b0 bd 43 47 ad 3d d3 dc 91 bd 71 57 e5 3b
       -0.08610637 0.08460858 -0.07122197 0.006998949
000230 11 db 5c 3d bf f5 b5 3b b3 3e c8 b9 30 43 2d bc
       0.053919856 0.005552977 -0.00038193687 -0.010575101
000240 1e 0d 00 bd fc e7 78 bc a7 6c 56 3d f5 07 90 bb
       -0.03126251 -0.015192028 0.052349713 -0.00439548
000250 5c c1 93 3d c9 14 d9 3c 5c be 77 3d 85 50 8f 3d
       0.07214615 0.026499169 0.060484275 0.0699778
000260 c4 dd 40 3d 96 a6 80 bd 7f 91 8f 3c 4e 16 b7 bc
       0.047086492 -0.06281774 0.017525433 -0.022349503
000270 d5 d5 d9 3c 8e 9f f0 3b e4 ff 08 bd 51 1a 0a bd
       0.02659122 0.007343239 -0.03344716 -0.033716504
000280 35 6b bf bd 6c a6 ff 3c 2c 9d 7d 3d db f6 cf bd
       -0.0934662 0.031207286 0.06191747 -0.10154506
000290 0a 69 5d bc d8 28 00 bd b6 71 20 bd 15 37 36 b8
       -0.013513813 -0.03128895 -0.039170943 -4.344348e-05
0002a0 11 f0 32 bd 72 cb 7b bb 0f 03 77 3d 5b 73 5a bd
       -0.043685976 -0.0038420823 0.06030565 -0.053332668
0002b0 12 64 c0 3d 0b 1c b4 bd c1 bd 9b bd 86 66 9e 3d
       0.09394087 -0.08794411 -0.07604552 0.077343985
0002c0 aa 22 8d 3d 72 3e 55 3d 85 5a 0f bd 96 17 ea 3c
       0.06891377 0.052061506 -0.034998436 0.0285757
0002d0 b1 79 c7 bc b2 05 ff 3c a1 4b ea 3c 67 2c 23 3d
       -0.02435002 0.031130645 0.028600516 0.039837267
0002e0 30 20 bb 3c d8 8a ca bb 51 1c 5c bc 3b 8c 89 3d
       0.022842497 -0.0061811022 -0.0134344855 0.067162
0002f0 87 ad 8d 3c 0f a1 5e 3d e2 ac 15 bc db 79 23 3d
       0.017294658 0.054352816 -0.009135457 0.039911132
000300 38 45 35 bd be 62 78 bc fe de 50 bd 07 9f ad bd
       -0.044255465 -0.015160261 -0.050993912 -0.08477598
000310 68 fd 42 bd 68 e2 81 3d f0 d6 4a bb a0 dd 74 3c
       -0.04760495 0.06342012 -0.0030950867 0.014945418
000320 44 1e b6 bd b1 2d b4 bc 42 1d 98 3d d8 91 10 3d
       -0.088924915 -0.021994444 0.074274555 0.035295337
000330 94 21 89 3d 9d c8 43 3d 30 80 4e 3d 80 6d 33 bd
       0.06695858 0.04779874 0.050415218 -0.0438056
000340 8c b1 45 bd c1 fb 3a bd 7b 68 69 bc 47 91 bf bd
       -0.048265025 -0.045650247 -0.0142461015 -0.09353881
000350 60 8c bf 3d 99 ec 01 bd e1 7a f0 ba f6 93 57 3d
       0.09352946 -0.031719778 -0.0018347168 0.05263134
000360 f0 7e 4b bd bc 57 ae bd 8e 6c b5 3d 1a a7 aa 3c
       -0.049681604 -0.08512828 0.08858596 0.020831633
000370 2b 80 82 bd e6 50 b8 3b 24 c1 6b 3d 70 6f f8 bc
       -0.06372102 0.005624878 0.05755724 -0.030326575
000380 53 99 58 bd 6c 46 9c 3c 55 db 15 3a 7e 86 85 3d
       -0.052880596 0.019076549 0.0005716582 0.06519793
000390 3c 58 ee bb 22 dd 90 bd 65 24 9a 3c 1a 67 a6 bd
       -0.007273702 -0.07073428 0.018816182 -0.08125134
0003a0 17 fb 74 bd 9e 08 ab bd bc 2d 7b bc e0 45 26 bd
       -0.05980977 -0.08351253 -0.015330728 -0.04059398
0003b0 8a a8 9e bd 73 ae 11 bd 20 bd bc 3c ab 8a 7f bd
       -0.0774699 -0.03556676 0.0230394 -0.062388103
0003c0 99 5b 8c 3d 30 c5 3a 3d f0 60 f8 3c bb 74 70 bd
       0.06853408 0.04559821 0.03031966 -0.058705073
0003d0 f0 47 85 3c ee eb 3c bc 32 b0 9b 3d 6e 3e 9c 3d
       0.016269654 -0.011530859 0.07601966 0.07629095
0003e0 74 13 dd bd 5c 09 9c bd 14 cf 9d 3c ea 80 26 bd
       -0.10794726 -0.07618973 0.019263782 -0.040650286
0003f0 06 b0 99 3d 43 66 5a 3d d6 21 52 3d f0 0a 21 bd
       0.07504277 0.05332018 0.0513018 -0.03931707

rnn.bias_ih_l0 f4 [128]
000000 ac 3a 5e bd d6 23 c2 3d 0d ea c7 3c 1d dd 2b bd
       -0.054255173 0.094794914 0.024403596 -0.041958917
000010 e2 50 a5 bd c4 25 86 3d 86 2f f2 bc a7 ea b4 bc
       -0.08072068 0.06550172 -0.029563677 -0.022084547
000020 7b 54 92 bc 44 2e 3a 3d 00 e8 87 bc 12 8f 47 3d
       -0.017862549 0.04545428 -0.016590118 0.048720427
000030 49 3a 5f bd 1a 1c d8 bd ed b8 0a 3d e6 e5 ef 3d
       -0.054498944 -0.10552235 0.033867765 0.117137715
000040 07 82 8c bc 43 b0 69 3d 15 c3 58 bc 17 03 9b bd
       -0.017151846 0.057052862 -0.013230105 -0.07568949
000050 a9 1b 18 bb b5 41 d9 3b ff d1 a3 bd e9 21 b4 3c
       -0.0023209846 0.0066301473 -0.07999038 0.021988826
000060 7d bb 4d bd 2e 13 ac 3d 5d 5e 9a bd 99 ec e2 bc
       -0.05022763 0.08402096 -0.075375296 -0.02770071
000070 a8 3b da 3a 9e 3d e5 3c 11 7c a3 bd 24 e7 17 bd
       0.0016649859 0.027983483 -0.07982648 -0.037085667
000080 48 c2 61 3d f8 10 41 3d c6 53 96 3b 34 17 88 bd
       0.05511692 0.047135323 0.0045876233 -0.06645051
000090 4b f5 95 bd 2e fb 3e bd c9 31 7b 3d eb de 3f bd
       -0.073221765 -0.046626262 0.061326776 -0.04684345
0000a0 fd 3d 92 3d 49 28 19 bd 26 f7 4c 3d 68 00 ce 3c
       0.071407296 -0.037391935 0.050040387 0.025146678
0000b0 30 25 6c 3d 22 9f a3 3c 63 f5 b5 3d b8 1e 01 3d
       0.057652652 0.019973341 0.088846944 0.031523436
0000c0 1e fa a5 bd c5 f1 b0 bd 00 2d af 3d a7 ce 4c 3d
       -0.08104347 -0.08639864 0.08553505 0.050001767
0000d0 23 30 67 3d 22 1f a1 3d 76 8c 84 bd d1 42 9b bd
       0.05644239 0.07867266 -0.06472103 -0.075811036
0000e0 40 c2 53 3d d0 d9 96 3d 54 45 9a 3d 84 4b 92 ba
       0.051698923 0.07365763 0.075327545 -0.0011161421
0000f0 9f 79 9f bd 72 92 b1 bc 11 87 86 3d dc 5b d5 bd
       -0.07786869 -0.021676276 0.065687306 -0.104179114
000100 15 7e cd bd 0d dc b6 3d b4 3c 83 bc 89 43 51 bc
       -0.10033814 0.0892869 -0.016020156 -0.012772449
000110 16 6f 9c bd 00 b7 c9 3d 31 64 a7 bd 80 97 23 3d
       -0.076383755 0.098493576 -0.08173407 0.039939404
000120 1b d1 41 3d 5e 97 65 3d b6 91 3c bd 83 62 95 3c
       0.04731856 0.056052558 -0.0460374 0.01823545
000130 de e1 9a bc 7c 2c 9b ba 46 6d 8f bd 9b 2b 47 bd
       -0.01890653 -0.0011838819 -0.07003264 -0.04862557
000140 d0 cc b7 bc 2c a4 29 3d ff 9a 57 3c f8 c4 70 bc
       -0.02243653 0.041416332 0.013159513 -0.0146953985
000150 8c 22 bd 3b 78 49 2c bc 6c 82 9e 3c 1c 3b 18 bd
       0.0057719406 -0.010515563 0.0193493 -0.037165746
000160 c5 81 b0 3d 6e 02 4f 3d ad d7 83 bd 5f ef 85 3d
       0.086185016 0.050539427 -0.06437621 0.06539797
000170 5f 8c 6e 3d c9 d5 11 bc 6e 7b 34 3d 5c c6 3b bc
       0.058239337 -0.008901068 0.044063024 -0.011460867
000180 ce 6f 88 bd 99 fd 64 3d be 5f 16 3c 20 e9 8a 3d
       -0.0666195 0.055905912 0.0091781 0.06782746
000190 4f 2d 4b bd 3a 16 f4 bd eb 93 86 3d 6a e4 ca bc
       -0.049603757 -0.11918302 0.06571182 -0.02476712
0001a0 87 c9 52 bd e4 2f a1 3d 10 76 3b bd 0e b8 35 3c
       -0.051461723 0.078704625 -0.04576689 0.011091245
0001b0 82 34 af 3a 94 3c 45 bd b4 8b 37 bd 70 56 0a bd
       0.0013367089 -0.048153475 -0.044810966 -0.03377384
0001c0 30 ee 61 bc 08 ed b6 bd 67 5f 83 bb 08 b5 8b bd
       -0.0137896985 -0.08931929 -0.0040091756 -0.06821638
0001d0 cb ed 33 bd 43 30 25 bb 77 52 d8 ba d4 c4 a3 bc
       -0.04392795 -0.0025205768 -0.0016504069 -0.019991316
0001e0 b8 c2 9a bd 20 01 91 3c 42 22 82 bd 24 0d ce bd
       -0.07556671 0.017700732 -0.063541904 -0.100611
0001f0 13 b7 97 bd f7 06 f2 3c b9 f4 b7 bd 7c 3f ca 3c
       -0.074079655 0.029544337 -0.08982224 0.024688475

rnn.bias_hh_l0 f4 [128]
000000 56 6d 8b bd a7 df a3 3d a4 77 00 bd bd f0 7d bd
       -0.068079636 0.08001643 -0.0313641 -0.061997164
000010 1c 5e e5 bd 92 42 9a 3d ac ab 96 3d 15 58 9c bc
       -0.111995906 0.075322285 0.073569626 -0.01908497
000020 a4 a0 03 bd 8a 96 9b bd ee 6e 8e bd f8 67 84 3d
       -0.03213562 -0.075970724 -0.06954752 0.06465143
000030 8f 35 a4 bd 1a 9a d8 bc ad 51 9b bd 39 16 2a bc
       -0.08018028 -0.026440669 -0.07583938 -0.010381275
000040 50 00 b9 3c 96 d2 73 3d 86 79 73 3d 2b 8a 86 bd
       0.022583157 0.059527002 0.059442066 -0.06569322
000050 ab d8 8c bc 8e c0 b5 bd 1d 86 15 3d a0 f6 8a bd
       -0.01719316 -0.088746175 0.036504854 -0.06785321
000060 d8 a2 82 bd 6f 7d d2 3c 0d 3c ae 3d 9a a9 45 3d
       -0.06378716 0.025694577 0.085075475 0.048257448
000070 f8 20 ae 3d c3 d6 61 bc 76 cf 72 bd a5 6f 1f bc
       0.08502382 -0.013784113 -0.05927988 -0.009731208
000080 0d ff 0f bd 98 06 b8 bd 83 6c 44 bc ca 03 5b 3d
       -0.035155345 -0.08985633 -0.011988762 0.05347041
000090 65 eb 13 3d e8 ca 36 3c 1f 8c 67 3d 07 0a eb bc
       0.03611316 0.011156775 0.056530114 -0.028691305
0000a0 ca 19 7a bd cb 59 95 bd 9b 53 86 bc 19 21 c4 bd
       -0.06105975 -0.07292517 -0.016397288 -0.095766254
0000b0 55 2b de 3c 0f 59 ca bd cd a8 33 3d 59 b9 d7 3d
       0.027120272 -0.09880268 0.043862153 0.10533399
0000c0 8f a6 a2 bd 1d da a7 bd dd aa bc 3c 92 1f 89 bc
       -0.07941925 -0.08195899 0.023030693 -0.016738687
0000d0 8a 97 2c 3d 92 2d 87 bc ff be ca 3d 02 40 83 3d
       0.042136706 -0.016501222 0.09899711 0.06408693
0000e0 5e d4 89 3c 00 65 8b bd 9f 6b a0 3d 72 bd 8c 3d
       0.016824897 -0.068063736 0.07833027 0.06872071
0000f0 9e cd 2b 3b 84 91 a5 bd 8e 7a 52 bd 5c 43 81 3c
       0.0026215087 -0.080843955 -0.05138641 0.01577919
000100 99 8e 02 bd 66 f2 90 bb ed 4e db bd 21 31 f3 3d
       -0.031874273 -0.0044234274 -0.10708413 0.11874605
000110 1a 34 cb 3d 1d d6 9b 3d 13 dd 0e 3d 6d 10 93 3d
       0.09922047 0.07609198 0.0348788 0.07180867
000120 d5 71 20 bd 7b 74 b0 bd 84 11 b0 bd bd 8a a7 bd
       -0.03917106 -0.08615967 -0.08597091 -0.08180759
000130 9d 58 a5 bd 37 29 49 bd f7 45 7c bd 38 94 c0 bc
       -0.08073542 -0.04911157 -0.06159016 -0.023508176
000140 ae 4b 1d bd d6 95 14 bd 13 da 62 bd 54 3c 8b 3d
       -0.038402252 -0.036275707 -0.055383753 0.06798616
000150 ae 82 b8 3d 33 0f d1 3c 9d bf 18 3d 6d b2 de 3d
       0.090093 0.025519943 0.03729211 0.10873876
000160 70 3d 3e 3d b5 af a4 bd e3 0f e4 3d 13 16 24 bd
       0.04644531 -0.08041326 0.11135843 -0.040060114
000170 26 3b 14 3d 7e 7a 8a bd 2b 8c 36 bc 16 fb a3 3d
       0.03618922 -0.06761645 -0.011141817 0.08006875
000180 56 e6 80 bd 67 2c a4 3d 54 09 d4 3d 7c d2 1d bd
       -0.06293933 0.080162816 0.10353342 -0.03853081
000190 f9 66 81 3c 14 9f 9f bd bf ab cc 3c 3b 4b 9f bd
       0.015796172 -0.077940136 0.024984239 -0.07778021
0001a0 fe 31 8f bd 49 ff 0d bc d7 13 8b 3d 35 ea a6 3d
       -0.06991957 -0.008666822 0.067908935 0.0815014
0001b0 19 f8 5f bb 87 9f 2c bd 4a ed af bd 89 5f a3 3d
       -0.0034174977 -0.042144325 -0.08590181 0.07977206
0001c0 e1 7f 37 3d 92 e9 6e 3d c9 4a 7f 3b 9d b4 98 3d
       0.04479969 0.05832822 0.0038954488 0.07456324
0001d0 01 bb 8a bc 4c 32 bd bd 2a f5 18 3d 97 fa b2 bd
       -0.016934874 -0.09238109 0.03734318 -0.087392025
0001e0 44 ec ec 3a 3c d2 c6 3c 49 c1 68 3d b9 ae c1 bd
       0.0018075784 0.02427017 0.056824956 -0.09457154
0001f0 ae b9 a8 3d aa ca 3e bd 42 5f db bd f1 76 dd bc
       0.082385406 -0.046579994 -0.10711528 -0.027034255

rnn.weight_ih_l1 f4 [128, 128]
000000 bc 0b bc bb 99 c6 f1 bb f0 80 c6 3c 0c 33 86 3d
       -0.0057387035 -0.007378411 0.024231404 0.06552705
000010 ed 17 65 bc 21 f7 85 3d aa 4f 81 3d ea b3 3d 3d
       -0.013982755 0.06541277 0.06314023 0.046314158
000020 b0 a5 92 bd d7 ef 6c 3b 77 33 db bb f7 b0 ae bc
       -0.07160509 0.0036153698 -0.0066894847 -0.021324618
000030 af 61 bc 3d cc 96 23 3d 2f f8 68 3d fe e8 c6 3d
       0.09198319 0.039938733 0.05687731 0.097124085
000040 87 6e 18 3d 87 00 11 be 59 a4 36 bd 01 a5 1d 3d
       0.037214782 -0.14160357 -0.044590328 0.038487438
000050 be 03 af bc 80 da 2f 3c cd 8b e4 bc 16 9b 30 3d
       -0.02136409 0.010733247 -0.027898693 0.04311665
000060 fe cd 83 3b c4 c0 4f 3c 9d 97 3e bb 65 72 47 bb
       0.004022359 0.012680236 -0.0029082068 -0.0030433175
000070 aa a0 cc bc fe 3d 9b 3c 49 0d 57 bd e0 f1 d0 bc
       -0.024978954 0.018950459 -0.052502904 -0.02550596
000080 da 19 9a 3d 7e 0c 92 bc f5 22 4f 3a 64 8e 43 3d
       0.07524462 -0.017828222 0.00079016323 0.047743216
000090 cb d8 3d 3b fe d8 9e bc 8c 27 a5 bc 9f c7 01 bd
       0.002896833 -0.01939058 -0.020160459 -0.031684514
0000a0 5f 30 73 bd 2a 89 8a bd 32 ef 81 3c 49 7d af 3c
       -0.059372302 -0.06764443 0.015861128 0.021422045
0000b0 de b0 f5 3d 06 08 37 3d ee 26 b0 3d 9f ea e3 bc
       0.11996625 0.044685386 0.08601175 -0.027821837
0000c0 38 e9 9e bc 00 c4 4f bd a5 02 b9 3d d6 41 5d bd
       -0.019398317 -0.05072403 0.090337075 -0.054017864
0000d0 a6 68 9f 3d 81 ef 92 3c 1e 98 ac 3c 7e 20 76 bd
       0.07783632 0.01793647 0.021068629 -0.06008958
0000e0 91 24 6c 3d dd 14 42 3d 22 37 ad bd 57 23 37 bd
       0.05765206 0.047383178 -0.084577814 -0.044711437
0000f0 f9 fd 6f bd f1 28 93 bd 1f 97 fd 3d 30 d2 b2 3c
       -0.058591817 -0.07185543 0.1238234 0.02182874
000100 3f fd 2f 3d 2f 9b 57 3d 0b 02 95 bd 20 99 39 3d
       0.042966124 0.05263823 -0.0727578 0.045312047
000110 db 2f 0b bc 2a aa ae bd af 55 86 3b 5b b5 c3 bd
       -0.008495296 -0.0852855 0.0040995697 -0.09556075
000120 26 f9 4e 3d 89 18 41 bd b0 2c 4e 3c 99 6b f8 3d
       0.050530575 -0.04714254 0.0125838965 0.121298976
000130 bb cc 6a bd 2b c2 b0 bd fc 4b 14 bd f0 bc 7f bd
       -0.057324152 -0.086307846 -0.036205277 -0.062436044
000140 4a ac 1e bd 82 e6 90 3d a8 8a da bd 5d f2 f2 bc
       -0.038738526 0.07075216 -0.10670978 -0.029656583
000150 22 ff 89 bd 40 ac 8f bc 57 94 99 bc ec ac f8 3c
       -0.06738116 -0.01753819 -0.018747492 0.030355893
000160 52 8e ba 3d c5 02 c8 3d e3 08 8f bd 78 3b a4 3d
       0.09109177 0.09766153 -0.06984117 0.08019155
000170 2b 8d 74 3d 05 a0 05 3d 13 3f 01 bd 3d cd 1b bd
       0.05970494 0.03262331 -0.031554293 -0.038037527
000180 39 3c 94 3d 4c cf 62 3b 89 99 56 bc 34 38 29 bd
       0.07238049 0.0034608422 -0.013098129 -0.041313365
000190 23 68 70 bc a4 d0 ba 3d ea 9f 4d bd 40 25 b4 3d
       -0.014673266 0.09121826 -0.050201334 0.087961674
0001a0 84 de 91 bd 5f 67 cb 3d f8 8e 22 bd 41 e6 fe 3b
       -0.071225196 0.09931826 -0.039687127 0.0077789132
0001b0 a6 a0 a1 bd 31 d8 c9 bd f1 61 0d bc 9a e0 dd 3c
       -0.078919694 -0.09855688 -0.008629308 0.027084637
0001c0 ff 34 39 3d cc 84 9f bd f0 33 64 3c d2 cb 92 bd
       0.045216557 -0.07789001 0.0139283985 -0.07167782
0001d0 ef be ee 3c 95 f5 b8 bd 38 9a e9 3c ef 8f 1b 3d
       0.029143779 -0.09031216 0.02851592 0.037979063
0001e0 8d 8d b0 3d c9 52 2b bd 33 cf b3 3d 10 b7 cb 3d
       0.08620749 -0.041826997 0.087797545 0.09947026
0001f0 3c cd b6 3d 74 74 4c bd 58 14 0b bd 0a f1 96 bd
       0.08925864 -0.049915746 -0.03395495 -0.07370193
000200 64 92 ca bb 47 6c 48 bd f1 20 ce bd 4e a4 5e 3d
       -0.006182002 -0.048931386 -0.10064877 0.054355912
000210 8e 85 1b 3d 33 62 40 3d c3 0f 04 bd 95 08 02 be
       0.037969165 0.04696865 -0.032241594 -0.12698586
000220 d4 32 8e 3a dd 6f cd 3b 57 23 0f 3d 20 f8 a5 3d
       0.0010848888 0.0062694387 0.034945812 0.08103967
000230 56 49 a3 3c 7a 19 49 bd c4 bf 05 bb 2c db d3 3c
       0.01993243 -0.049096562 -0.002040849 0.025861345
000240 c6 1e 3c 3d 0b 93 0c be fd 0f 89 3d ee 47 87 3d
       0.045927785 -0.13727967 0.06692503 0.066055164
000250 9b 2b d7 bd 07 e8 ff bc ed 72 86 3c d0 a9 9b bb
       -0.10506364 -0.031238569 0.016412223 -0.004750468
000260 7f b5 b3 3d 6e ad ab 3d c3 d1 67 bb e9 9c 84 bd
       0.08774852 0.083826885 -0.003537283 -0.06475241
000270 dc 2c 1b bd 24 6f 87 3d fb ef 15 bd d4 8f d4 bd
       -0.037884578 0.06612995 -0.036605816 -0.103789955
000280 b5 0a e7 3d 84 05 16 3d f9 2f 82 3d fa d1 1c 3d
       0.11281339 0.036626354 0.06356806 0.038286187
000290 cb 33 93 3d 9f d1 04 bd e2 30 3b bb 89 d1 9e 3d
       0.07187613 -0.032426473 -0.0028563072 0.077548094
0002a0 fd 52 ce 3d b5 16 c6 3d 16 ff 69 3d 70 43 f8 3d
       0.100744225 0.096723 0.057128035 0.12122238
0002b0 09 a4 52 3c af 78 85 bd 6c 8e 34 3d d8 44 33 3d
       0.012856492 -0.06517159 0.044081137 0.043766826
0002c0 39 ec 02 be ba a4 c2 3d a1 b7 e3 3c f1 47 35 bc
       -0.12785424 0.09504075 0.027797522 -0.011064515
0002d0 a9 6f 1a 3e 05 34 b1 3d 22 80 bc 3c 32 d9 c8 bd
       0.15081657 0.086525 0.023010317 -0.09807052
0002e0 3e 5b 8b 3d b8 8d 1c 3d 2f ba b9 3c cd ab 28 bd
       0.068045124 0.03822109 0.022671787 -0.041179467
0002f0 7d 77 83 bc b2 6e c6 3d 62 56 41 bd 79 38 93 3b
       -0.016048187 0.09689082 -0.04720152 0.004492816
000300 4e bf 19 3d 0d 55 e4 3a 91 92 4d bd 5b f0 34 3d
       0.037535958 0.0017420367 -0.050188605 0.044174533
000310 00 8d 06 bd ac 8e bf bc ae 05 5f 3c 60 77 ef 3b
       -0.03284931 -0.023383461 0.013612194 0.007307932
000320 ca 8a d9 3c 8e b0 21 3c e7 e0 ba bd d3 8e 8e 3d
       0.026555438 0.009868754 -0.09124928 0.06960835
000330 e9 c4 79 3d 8b 9d ab 3c b2 fe 32 3d e2 85 89 3d
       0.060978804 0.020949146 0.043699928 0.06714989
000340 74 32 be 3b 97 fc bd bc be 40 e1 bc 0a f9 75 bd
       0.0058043543 -0.023191733 -0.027496692 -0.060051955
000350 9a 1c cc bc d5 b2 91 bb 55 a7 c7 bd b4 58 86 3c
       -0.024915982 -0.0044463673 -0.09748713 0.016399719
000360 82 b6 62 bd 39 25 5a bc e2 95 26 bc 09 71 c2 3d
       -0.055349834 -0.013314539 -0.010167571 0.09494216
000370 a6 6c cd bb 5d 20 af bc 8a bc b9 bd f8 98 59 3d
       -0.0062690554 -0.021377737 -0.09069164 0.053124398
000380 3b e8 6d b9 03 ac 4f 3d e8 e0 3d 3d 7a e1 68 3d
       -0.00022688594 0.050701153 0.046357065 0.056855656
000390 00 3a 86 bc c4 4f f4 3c f8 fc e2 bc 16 1a 0a 3d
       -0.016385078 0.029823191 -0.027708516 0.033716284
0003a0 26 d8 38 3d 2f c9 d5 3d 5e c5 71 bd 91 2b be bd
       0.04512801 0.10438763 -0.059026115 -0.092856534
0003b0 93 0f 30 bd 6f e8 2b be af 64 a0 bd f1 43 6c bd
       -0.042983603 -0.16787885 -0.07831704 -0.05768198
0003c0 20 a7 10 3d a5 f1 f5 bc 7d 96 e2 bc cf 27 ae 3c
       0.035315633 -0.030022452 -0.027659649 0.021259217
0003d0 24 6e 3f 3c 83 ea 0a be 47 32 02 bd 55 c1 ec 3d
       0.011683974 -0.13566022 -0.03178623 0.11560313
0003e0 b7 ab 96 3d 85 d4 bb 3c bf d1 b5 3c 44 da 99 3d
       0.07356971 0.022928486 0.022194741 0.07512334
0003f0 8d 2e ea bb f5 c1 b2 bd 37 26 97 3d c5 36 e5 bd
       -0.0071466626 -0.087284006 0.07380336 -0.11192087

rnn.weight_hh_l1 f4 [128, 128]
000000 99 eb 0b 3e f5 52 df 3d f1 8b c9 3b 88 4c f3 3c
       0.13664092 0.10904495 0.0061507155 0.029699579
000010 03 fc c3 bc d4 1d c1 3d ea 84 a4 3d e9 43 9b bb
       -0.02392388 0.094295174 0.08033164 -0.00473832
000020 9b 61 b0 bc d1 5e e8 bc 46 bd f1 3c 44 0f 84 3d
       -0.021530917 -0.028365524 0.029509198 0.06448224
000030 7c e8 9f bd d7 1d a1 bc 7a 10 67 bd 40 bd a6 3d
       -0.07808015 -0.019667549 -0.056412198 0.08141565
000040 38 3f 4a bd 3b 71 80 bd dc 8d de bc 7e f5 6b 3d
       -0.049376696 -0.06271597 -0.027167253 0.057607166
000050 48 db 0c bd 0f 22 aa 3a aa 6f 9b bd 7e 57 3c 3d
       -0.03438881 0.0012980121 -0.075896576 0.045981877
000060 c7 f0 a1 3c a0 0f c7 3c de 41 e6 bd 7f 1e b4 bd
       0.019768132 0.024299443 -0.11243032 -0.08794879
000070 81 2e 8a bc 99 1b 15 3d 25 cf 11 3e c9 bb d4 bd
       -0.016867878 0.036403272 0.14239176 -0.1038738
000080 ee 4d a9 3d 80 9e 00 3d b8 ba c1 3d aa 59 a2 bd
       0.08266817 0.031401157 0.09459442 -0.07927258
000090 96 ea 95 3d 1b 4e a9 3d 16 95 a7 bd c3 f4 1b 3d
       0.07320134 0.082668506 -0.08182733 0.03807522
0000a0 f3 5d 86 bd a4 a8 9b 3c 16 8c 81 3d 34 0f 05 3d
       -0.06560888 0.019001313 0.063255474 0.032485202
0000b0 14 91 1e bc bf 72 87 3c a7 9d 4c bd 3e 5e 22 bd
       -0.009678144 0.016534207 -0.049955036 -0.039640658
0000c0 1f 23 a2 3c 87 b0 b8 bd c2 54 a2 3d 74 03 37 bd
       0.019792138 -0.09018045 0.079263225 -0.044681028
0000d0 dc 8c 25 3d 98 c0 90 3d 43 9b 7a bd fb 7a 00 3d
       0.040417537 0.07067984 -0.061183225 0.031367283
0000e0 4c 6a 0c bd 8f df 26 3c 54 3c 83 bd a4 af cc 3a
       -0.03428106 0.010185136 -0.06407991 0.001561631
0000f0 89 b4 91 3d ca fb d0 3c 1f 19 27 bc 40 8a 83 3d
       0.071145125 0.025510687 -0.01019886 0.064228535
000100 fb f9 56 3d f0 5d b5 bd 57 b7 55 3b 91 94 b5 3d
       0.052484494 -0.08855808 0.00326105 0.088662274
000110 d4 35 f1 3c 4a 9b 40 bc fc 52 68 bd b1 84 d9 3c
       0.029444613 -0.011755774 -0.056719765 0.02655253
000120 db f1 64 bd ec 3e 9d bc 6e 13 ca 3c 56 7f d4 ba
       -0.055894714 -0.019195043 0.024667468 -0.0016212265
000130 69 87 8c bd a5 53 98 3a 52 46 ef 3d 31 7c 15 3d
       -0.06861765 0.0011621608 0.116833344 0.03649539
000140 8a 0d 9a 3d c8 4a 47 bd 01 12 20 3d 9f 02 ab bc
       0.075221136 -0.0486553 0.03907967 -0.020875273
000150 3e 01 c3 bd 0d fa b0 ba 68 4d c5 3d c9 d7 87 bd
       -0.09521721 -0.0013502255 0.09633905 -0.066329546
000160 e1 e3 b0 3d e2 3d 22 3d 45 a4 b3 3c 30 e9 9e 3b
       0.086372145 0.039609797 0.021928916 0.0048495755
000170 d0 67 a6 3d a6 d4 31 bc c3 77 25 3d a4 31 85 bd
       0.081252694 -0.010853922 0.040397417 -0.06503609
000180 f9 c3 58 bd 5d 6d 82 bd 76 44 7b 3a d5 72 81 3d
       -0.05292127 -0.06368516 0.00095850916 0.063207306
000190 8d d9 a5 3c 6f 3b b7 3d 5a a2 12 bd d5 43 8b 3d
       0.020245338 0.08946883 -0.03579936 0.06800047
0001a0 30 ce c6 bc 9d cf 58 3b 83 99 8a 3d 3a bb 37 3d
       -0.02426824 0.0033082732 0.06767561 0.044856288
0001b0 05 c3 42 bd aa 55 cd bc 21 25 d2 bd 12 02 2a bd
       -0.047549266 -0.025065262 -0.10260988 -0.04150588
0001c0 18 50 ad bd c1 39 4a bd 0a 1e 01 3d 2b 32 1f 3d
       -0.08462542 -0.049371485 0.031522788 0.038866203
0001d0 a7 40 83 3d 88 6e cf 3c 60 c0 40 3c 3b b4 17 3d
       0.06408816 0.02532126 0.011764616 0.037037116
0001e0 37 40 2f 3d 01 a2 57 bd 7b 2b b4 3b c8 cb 07 bd
       0.04278585 -0.052644733 0.0054983473 -0.033153325
0001f0 3f 91 1b 3c aa 8e 7e bd ae be d1 bc 05 86 8a bd
       0.009495079 -0.062147774 -0.025603618 -0.067638434
000200 e2 07 68 bc b8 50 d2 3d 68 3b 46 3c 70 c7 94 bd
       -0.014162036 0.10269302 0.0120991245 -0.07264602
000210 fa 55 43 3d de 85 3c bd 60 46 21 3d eb 81 c8 bd
       0.047689416 -0.046026103 0.039373755 -0.09790405
000220 ee 01 0a 3d b2 eb ad bd 6b 00 e5 3c 52 bf c1 3a
       0.033693247 -0.08492221 0.0279543 0.0014781749
000230 98 48 a5 bd f2 3f eb 3c d6 b0 b2 3c dd 89 09 3d
       -0.08070487 0.028717015 0.021812838 0.033578742
000240 a2 83 64 bd 30 33 7e 3c b8 6e 14 3d dd 9d 00 3d
       -0.055789597 0.015515134 0.036238402 0.03140055
000250 e1 fb fd bd df 1b 9b bd fa 89 2f bd 09 b7 b3 3d
       -0.12401558 -0.07573675 -0.042856194 0.087751456
000260 7a be 8e 3c ae d9 67 bc f9 ce 77 3d 50 cf 59 3c
       0.01742481 -0.01415102 0.06050012 0.013294056
000270 ca c9 83 bd 9b 45 41 bc 6a 10 d1 3d b8 ff 69 bc
       -0.064349726 -0.01179638 0.10208209 -0.0142821595
000280 33 ad a2 3c 25 8c a2 3d c7 e5 a3 3d ad e7 89 bd
       0.019857978 0.07936887 0.08002811 -0.06733642
000290 a4 24 77 3d 3e 89 5d bd 38 66 98 bd 8b 5e b4 3d
       0.060337678 -0.054085962 -0.07441372 0.08807095
0002a0 33 77 53 3d bd cc 72 3d f4 f0 4b bc 2c 17 cd 3c
       0.05162735 0.059277285 -0.012447584 0.025035463
0002b0 53 96 66 bb db 79 45 3d 4a f2 9a 3c 41 27 bc 3d
       -0.0035184815 0.048211914 0.01891436 0.091871746
0002c0 be ef 86 bc 79 1b a8 bd 04 36 85 3d 14 27 db bb
       -0.01647174 -0.08208365 0.06504443 -0.006688008
0002d0 e3 cc 18 3d bc 1e 82 bb 04 a6 c9 3c 13 e0 31 3d
       0.03730477 -0.003970949 0.024615295 0.043426584
0002e0 f9 91 74 3c 4b 00 0a 3c 1b bd 08 3d e9 af 9a bd
       0.014927381 0.008422921 0.03338347 -0.075530834
0002f0 2c 1a 1e bd 3c 1b d9 bd a9 91 f1 bc 20 6c 12 3c
       -0.03859918 -0.10600898 -0.029488401 0.008936912
000300 68 9d 23 3d e1 f6 8e 3d c3 e7 34 3d e3 07 7b 3c
       0.039945036 0.06980682 0.044166338 0.015321705
000310 99 49 23 3d 00 90 a4 3d a4 dc d5 bd 17 e5 ac bd
       0.03986511 0.08035278 -0.104424745 -0.08442133
000320 08 03 8a 3c da 3a 74 3d bb 7a 4a bd 54 54 35 3d
       0.016847149 0.059626438 -0.04943345 0.044269875
000330 74 f6 a1 3d 54 4f e7 bc 01 96 20 3c 25 49 7e bc
       0.07908335 -0.028236069 0.009801389 -0.015520369
000340 6b 79 c3 3b 3c df 90 bd b9 ab 1a 3c b0 39 05 bd
       0.005965402 -0.070738286 0.009440356 -0.03252572
000350 c7 41 61 3c 20 5e 31 bd b0 29 5b 3d 49 7d 82 bd
       0.013748593 -0.043302655 0.053506553 -0.063715525
000360 3f 8b 38 3d 1a 8d 31 3d fe 04 43 bd eb 42 f3 bb
       0.04505467 0.043347456 -0.047612183 -0.0074237487
000370 b9 3b d0 bc 68 f9 72 bc 56 f2 c4 bc 2d 8c c8 bd
       -0.025419103 -0.014829971 -0.024041336 -0.097923614
000380 75 59 19 bd 01 56 58 3c d7 40 34 bd 25 cd 87 bc
       -0.03743883 0.013204099 -0.04400715 -0.016577313
000390 0a d1 c9 3d 18 f0 a3 3c d4 6c 04 bd 4b b9 61 ba
       0.09854324 0.020011947 -0.03233035 -0.00086106797
0003a0 e2 a2 20 bc 41 ee 20 3d 3f 73 46 bc 15 a9 39 bc
       -0.009804459 0.039289717 -0.012112438 -0.011331816
0003b0 6a fc d6 3d c8 20 4f 3b 40 4b 08 bd 57 fc bd bd
       0.10497363 0.0031605233 -0.03327489 -0.09276646
0003c0 95 e4 85 bd 4e 36 21 b9 01 ba 96 bd ea aa 1f 3d
       -0.06537739 -0.00015374387 -0.07359696 0.038981356
0003d0 02 81 7b 3d a1 b5 3a 3d 10 51 da 3b e6 9d ea 3c
       0.06140233 0.04558337 0.0066624954 0.028639745
0003e0 c3 1d 09 3d c6 e8 e1 bc c3 51 88 3d dc 77 1e bd
       0.03347565 -0.027576815 0.0665622 -0.038688526
0003f0 2b cd 9a bd 6d 2c bc 3c 7d 93 92 3c 08 27 1c 3c
       -0.07558664 0.022970403 0.017892594 0.00953079

rnn.bias_ih_l1 f4 [128]
000000 de c4 88 3d bb c8 bf 3d a1 e0 c4 bc 91 e5 95 3d
       0.066781744 0.09364458 -0.024032893 0.07319177
000010 cc 6c 51 3d 6a c0 08 3d e3 22 75 3d de fc 3b bd
       0.051129147 0.033386625 0.059847724 -0.04589545
000020 81 36 95 bd d8 1e 16 bd 78 c6 1b bd b1 2d 5a 3d
       -0.072857864 -0.03665051 -0.03803107 0.05326623
000030 00 84 70 3d 42 b6 b4 bc c9 31 98 3d 42 86 8e bd
       0.058719635 -0.022059564 0.07431371 -0.069592014
000040 b1 27 02 3d c9 d3 bb bd 44 70 96 38 68 22 2a 3d
       0.031776134 -0.09171254 7.1734685e-05 0.04153672
000050 8a 42 a4 3c 63 ab 7f 3c 3e 36 97 3d d1 46 4c bd
       0.02005126 0.015604827 0.07383393 -0.049872223
000060 86 cf 8d bd e7 a0 fc bc 95 18 82 3d 8c 03 ae bd
       -0.069243476 -0.030838443 0.06352345 -0.0849677
000070 00 f1 d8 3c 9e 99 3a bd 76 1b 8b bd 00 a6 27 3b
       0.026482105 -0.045556657 -0.06792347 0.0025581121
000080 5e 52 bd 3d 3f 20 9d bb d1 a8 e2 3d 21 d2 da 3d
       0.09244226 -0.004795104 0.110673554 0.1068461
000090 75 89 85 3d 17 11 8e 3d 18 b0 bd bd 72 ab 87 bc
       0.065203585 0.069368534 -0.09262103 -0.016561244
0000a0 2d 68 38 bd 9e 01 0e 3d 2a 77 64 3a e8 1a e9 3c
       -0.045021225 0.03466951 0.00087152666 0.028455213
0000b0 5b 27 63 3c e0 7e 9b bd eb c4 90 bc 40 b1 67 bd
       0.013864364 -0.07592559 -0.017672023 -0.056565523
0000c0 f2 0c 18 3d d1 ff 7a 3d 71 3f a6 bd e8 8d 6a bd
       0.03712172 0.06127912 -0.08117569 -0.05726424
0000d0 b4 e1 83 bd 83 1e b6 3c 49 5b c7 bd 2d 5f f7 3c
       -0.06439534 0.022231346 -0.09734208 0.03019675
0000e0 f7 9b 89 bc 6d 9f a7 bc ff 4d 41 bd 77 56 8e 3d
       -0.016798003 -0.020461762 -0.047193523 0.069500856
0000f0 90 63 99 3d 71 c8 89 bd 80 05 95 3c de c8 b2 3d
       0.07489693 -0.06727684 0.0181911 0.087297186
000100 0d da a7 3c ae f0 42 3c 36 4d 53 bc 0c bc 71 bd
       0.020489717 0.011898203 -0.0128968265 -0.059017226
000110 62 0b 11 bd 5a d5 f1 3d 52 ba 7e bd 34 c3 cd 3d
       -0.035411246 0.11808272 -0.062189408 0.10046998
000120 e5 05 5a 3a 07 67 23 bd c6 f9 cf bc ff 2c 1a 3d
       0.00083169184 -0.039893176 -0.025387656 0.037640568
000130 e6 7e 13 3c 59 10 29 bd 69 d4 20 bc 6a ae 8d 3d
       0.009002423 -0.041275356 -0.0098162675 0.069180325
000140 15 ad e8 3c 61 eb 0a 3d 41 0e 5f bd 01 3a 65 bc
       0.028402844 0.03391588 -0.054456953 -0.01399088
000150 2a 35 a1 bd 70 f4 b7 bd d2 7c d8 bc bd fb de bd
       -0.07871468 -0.0898217 -0.026426706 -0.10887859
000160 e1 d3 72 3d 17 77 a7 bd 4e 13 fd bc 63 d3 7c bd
       0.059284095 -0.081770115 -0.030892994 -0.06172503
000170 9a d2 07 bc aa e6 28 bd 5f 09 89 3d a1 84 df bd
       -0.008289957 -0.041235603 0.066912405 -0.10913969
000180 ca 94 bc ba 25 8b 50 3d 46 7e 98 bd f6 a8 d5 3c
       -0.0014387604 0.05091395 -0.0744596 0.026081543
000190 4d 3e 1f 3d 79 f5 c4 3d e6 8a e7 3c f1 0d b8 bc
       0.038877774 0.09617133 0.028264474 -0.022467585
0001a0 62 9d d5 bd 79 f8 5c 3d 07 e5 a8 3d eb a8 e3 3c
       -0.10430409 0.0539479 0.082468085 0.027790507
0001b0 ac 0c f8 3b 92 53 a2 bd fc 3d fd bc b5 23 bb 3c
       0.00756987 -0.07926096 -0.030913346 0.022844175
0001c0 c8 81 e3 3c 90 2c 90 3d 26 f2 c0 3d 87 f2 46 bd
       0.027771845 0.070397496 0.09421186 -0.048571136
0001d0 d6 b1 08 bd 4a ce 6a 3c 72 f5 53 3d ad ec 48 3d
       -0.033372723 0.01433141 0.051747747 0.049053837
0001e0 2d da ad bd 43 0f a0 3c 50 75 c7 bd 01 6c a8 3d
       -0.08488879 0.019538527 -0.097391725 0.08223725
0001f0 5f 3c 62 3c c9 d8 8b 3d 25 b1 5f bd e8 e3 54 3d
       0.013808339 0.06828458 -0.054612298 0.05197516

rnn.bias_hh_l1 f4 [128]
000000 95 71 0b 3d 1e 9b 8c 3d 39 a4 52 bd 1e 0b b3 3d
       0.034043867 0.06865524 -0.051426146 0.08742355
000010 07 69 59 bd 36 8c c1 3d 1f c2 1c bd ea a8 62 bd
       -0.053078678 0.09450571 -0.038271066 -0.05533687
000020 f4 f3 4a bc 4f 56 8d bd 47 f8 57 bd 8a 91 8d bd
       -0.0123872645 -0.06901228 -0.05272701 -0.06912525
000030 0a f0 9f bd 0c bf 58 bd 84 68 da 3c ab e9 63 bd
       -0.07809456 -0.05291657 0.026661165 -0.055642765
000040 d2 f5 ca bc c8 1e 5b bd 2f b3 7d bd b2 58 b3 bb
       -0.02477542 -0.053496152 -0.06193846 -0.00547322
000050 33 58 8b bd 15 11 8e bc 6b 03 44 3d 18 3e 91 3d
       -0.06803932 -0.01734213 0.047854822 0.070919216
000060 d8 70 03 3d 85 18 27 bd 3c 05 5b bd 9e 34 0b 3d
       0.032090038 -0.040794868 -0.05347179 0.033985727
000070 22 07 d4 3d 13 e6 80 bd 9e 25 a4 3d 7b d0 73 3d
       0.10352923 -0.06293883 0.080149874 0.059524994
000080 74 1f 2d 3d 76 89 8a 3d 3b 69 42 3d 51 f6 97 3d
       0.042266324 0.067645 0.047463637 0.07420028
000090 9b 2c db bb c6 75 9e 3c 7c 9d 65 bd 8c 85 b2 3d
       -0.006688667 0.019343268 -0.056058392 0.08716878
0000a0 65 dd 49 3d cc 8b ac bd 08 a5 63 bc f1 75 13 3d
       0.049283404 -0.08425102 -0.013894327 0.03600115
0000b0 2b c9 f8 3c 9a bf ac bd de 49 ab bd 25 00 8c 3d
       0.030369362 -0.084349826 -0.083636984 0.06835965
0000c0 ea c1 7e 3d ab 99 2a 3c ca 97 41 bb d5 f1 ae bd
       0.06219665 0.010412614 -0.0029539936 -0.085422195
0000d0 c8 2c 44 3d 69 88 92 bd 68 89 06 bd 9b c2 a1 3d
       0.04789427 -0.071549244 -0.032845885 0.07898446
0000e0 33 84 23 bd 38 f3 cb 3d a4 59 9b bd 27 5b 8a 3d
       -0.039920997 0.099585 -0.07585457 0.06755667
0000f0 ba 7c 29 3d 9c 7c 29 3c 70 5c 86 bd ab 38 e1 3b
       0.041378714 0.010344651 -0.065606 0.0068732104
000100 43 b2 cb bc d3 c3 a3 3d 78 35 54 bc 3c e5 93 3d
       -0.024865275 0.07996335 -0.012952201 0.07221457
000110 dd 14 bd bb e3 07 98 3d 03 4e 28 3c a7 44 c9 3c
       -0.0057703094 0.07423379 0.010272506 0.024568869
000120 63 77 c8 3c 99 fc 52 3d 0e 62 b7 3d f6 36 b0 bd
       0.02447099 0.051510427 0.08954249 -0.08604233
000130 32 8e 1e bd 12 d5 11 bd 73 52 dc 3c 07 bf 75 3d
       -0.038709827 -0.03560359 0.026894784 0.05999663
000140 5e da d6 3d 73 4d 3c bd 19 a4 00 bd b5 39 d5 bc
       0.10490869 -0.0459723 -0.031406496 -0.026028493
000150 70 e9 89 bd 7c e0 ed 3c e6 47 d0 3d 1d 2f 29 bd
       -0.06733978 0.029037707 0.101699635 -0.041304696
000160 81 47 53 3d 90 a4 9d 3b b6 35 17 bc 16 80 9e bd
       0.051581863 0.004810877 -0.009229114 -0.07739274
000170 3a da 2f 3c da 0c 83 3d c0 3a 31 bc 1d 4c c1 bd
       0.010733182 0.063989356 -0.01081723 -0.094383456
000180 e0 10 07 bd a3 5c 37 3d d8 78 5d bd 3f ad 1d 3d
       -0.032975078 0.04476608 -0.054070324 0.0384953
000190 ca a6 0d bd 6b 3a 64 bc ee af 9b bd a7 46 bf 3c
       -0.03458289 -0.013929944 -0.07601915 0.02334912
0001a0 36 e6 53 3d e6 29 5f 3d c1 dc 36 3d f0 25 60 bd
       0.051733218 0.054483317 0.04464412 -0.05472368
0001b0 a6 4b a7 bd dd 21 60 bd 6b 8e 28 3d f6 8a f2 3c
       -0.08168726 -0.054719795 0.041151445 0.029607277
0001c0 26 d2 d5 3c 4e 56 ae bd eb 8d 66 3d 40 8e 8d 3b
       0.026101183 -0.08512555 0.056287687 0.004319936
0001d0 42 82 e3 3c ff c1 99 bb 1a d4 dc bd 91 94 01 bd
       0.027772073 -0.0046923156 -0.10782643 -0.031635825
0001e0 67 e8 43 bd 09 96 f2 bd e4 71 d4 3c b0 90 4a 3c
       -0.047829058 -0.11845023 0.025933214 0.012363598
0001f0 36 0d 7e 3c 02 9f a5 3d f6 65 1a 3d 8e ab 0d bd
       0.015506079 0.08086969 0.037694894 -0.034587435

rnn.weight_ih_l2 f4 [128, 128]
000000 1b 4c 1c 3d 57 29 93 3d b0 4b e0 bd ca 90 97 3d
       0.038158517 0.07185619 -0.10951936 0.07400663
000010 b0 38 28 bd f4 57 8e 3d 0f a9 df bc 56 69 b1 3c
       -0.041069686 0.069503695 -0.027302293 0.021656673
000020 85 02 b7 3c 38 b1 e5 bd f1 33 7b 3d d5 5c 23 bc
       0.022340069 -0.112154424 0.061328832 -0.009970863
000030 c3 bb fc bc 26 be 87 bc 3c 4e 36 3d e9 25 a0 3c
       -0.03085125 -0.016570162 0.044508204 0.019549327
000040 27 14 9a 3d db 3e 22 3d f6 98 e9 bd 27 03 04 3d
       0.07523375 0.039610725 -0.11406128 0.03222957
000050 d6 4d 02 3d af 84 24 3d f4 82 a9 3c 07 a7 8e 3d
       0.03181251 0.0401656 0.020692326 0.06965452
000060 80 5d cb 3d 1a 51 10 bd 35 03 c0 bd 36 36 91 3d
       0.09929943 -0.035233594 -0.09375612 0.07090418
000070 cb 06 dd bc 09 3b fe bc 34 ee d7 3d c9 f0 aa bd
       -0.026980778 -0.03103401 0.105434805 -0.083467074
000080 be 14 ed 3d 05 f0 d6 bd 7d b6 0b 3d fe 12 62 bd
       0.11576222 -0.10494999 0.03410958 -0.055193894
000090 58 28 4f 3d 3b 71 e3 3d 15 c6 bf bb ae cb 86 ba
       0.050575584 0.111055814 -0.0058524706 -0.001028409
0000a0 49 84 e3 3d ad e2 a1 3b 2a bb 06 bd 60 a8 8e 3d
       0.11109216 0.004940352 -0.032893337 0.06965709
0000b0 23 cc e4 bd 1a 8b 48 bc 1e d0 01 3d cb a2 ca bd
       -0.111717485 -0.012240196 0.031692617 -0.098943315
0000c0 1c 59 08 be 04 36 f0 3c 7e 52 fb 3a e0 95 f0 bc
       -0.13315243 0.029322632 0.0019174365 -0.029368341
0000d0 b1 c9 31 bd 67 1e d1 bc 0e e3 bc 3d bf d1 81 3d
       -0.04340524 -0.025527192 0.09222995 0.06338834
0000e0 0e 5f d5 3d f7 84 17 3d e8 67 8c bd 8d 76 85 3d
       0.10418521 0.03699204 -0.06855756 0.065167524
0000f0 1a 6e 21 bd 20 75 b1 3d ef 21 5b 3d e3 8f b3 3d
       -0.03941164 0.08664918 0.05349916 0.087676786
000100 19 46 a2 3d 1c c1 09 3d d5 01 c7 bb b0 2b aa bd
       0.07923526 0.03363143 -0.0060732164 -0.08309114
000110 84 5a 0b 3d 98 19 03 3d 06 60 88 bc 78 58 9a bd
       0.03402187 0.03200683 -0.01664735 -0.07536405
000120 8b a8 c3 3d 69 66 09 bd 6b 17 3c 3d c6 e0 a2 3a
       0.095536314 -0.03354493 0.04592077 0.0012426607
000130 43 cf dd 3d 99 c8 11 3b e9 e5 b5 3d 31 c3 d5 ba
       0.10830548 0.002224481 0.088817425 -0.0016308782
000140 49 43 d8 3d 31 12 70 bc 26 6b 1a bd 7b d7 0c 3d
       0.105597086 -0.014652775 -0.03769984 0.034385186
000150 4b bd 44 3d ab 34 24 3d 3b 14 94 bd 02 57 4c 3d
       0.048032086 0.04008929 -0.07230421 0.049887665
000160 77 3d 36 bd fc e0 b6 3d 4d 05 1f bc 3a d3 9d 3d
       -0.04449221 0.08929631 -0.009705854 0.07706304
000170 cc 1b bb bd 99 83 d3 3c 90 05 87 3d 79 ce 1c 3d
       -0.09136161 0.025819587 0.06592858 0.038282845
000180 6e 6b 7d 3d 1b bc d4 bc f8 c0 38 3d ed 47 06 bd
       0.06187003 -0.025968602 0.045105904 -0.032783438
000190 9a ab 84 3d 96 6e 05 bd ed 51 38 bd 27 87 07 bd
       0.06478043 -0.032576166 -0.045000006 -0.033087876
0001a0 07 14 80 bd 08 2c e9 3d 05 46 41 bd 1f c9 b4 3c
       -0.0625382 0.113853514 -0.047185916 0.022068558
0001b0 c6 52 eb bc fc e2 a0 bc 2f 06 b4 bd d9 ef cf 3a
       -0.028725993 -0.019639485 -0.08790242 0.0015864327
0001c0 28 34 38 bc 75 1f f3 bd fc 83 0c 3d c7 06 f7 bc
       -0.011242904 -0.11871234 0.034305558 -0.030154599
0001d0 82 47 96 3d 64 92 e1 3c bd 3f 34 3d d1 1f df bb
       0.07337858 0.027535625 0.044006098 -0.0068092127
0001e0 de 1b ab 3d d0 46 01 3d 15 63 7b bd 0a be e5 3c
       0.083549246 0.031561673 -0.06137379 0.02804472
0001f0 ba b4 29 bc f8 e4 9a bd 70 b1 1b 3d 88 9a 10 be
       -0.01035803 -0.075632036 0.038011014 -0.14121449
000200 49 b3 ce bc b8 ff 0a 3c 83 a3 22 bd 75 27 95 bc
       -0.025231974 0.00848382 -0.03970672 -0.018207291
000210 ca 56 f6 3b 17 a7 d0 3d 2b 3b 87 bd ad c5 ea 3b
       0.0075176703 0.1018812 -0.06603082 0.007164678
000220 dc be d2 3b c8 89 96 bc 06 33 e3 3c 46 48 ca bd
       0.0064314436 -0.018376246 0.02773429 -0.09877066
000230 8d 79 d9 bd 23 38 b8 bd 8a 9c 7b bd da eb 92 bd
       -0.10618887 -0.08995082 -0.061428584 -0.07173891
000240 df c8 ec 3c d5 fa 71 3d ac 4a 4e bd 2e 62 ba 3c
       0.028904377 0.059077103 -0.05036418 0.022751894
000250 3d 3d ae 3d b3 fd a3 bc 62 37 00 3d ec 2a fd 3c
       0.08507774 -0.020018434 0.031302817 0.030904256
000260 94 c3 b1 3d e3 69 7f bc d4 16 a8 bd 63 2b ef 3d
       0.08679882 -0.01558921 -0.08207479 0.11678197
000270 4f 35 a7 bd 59 b6 e0 bc ba 62 90 3b 04 17 f9 3c
       -0.08164465 -0.0274307 0.0044063004 0.030406483
000280 b1 b3 8b 3d 97 2a 9e 3b 9a 68 b5 bc 46 68 b8 3d
       0.06821383 0.0048268544 -0.022144604 0.090042636
000290 72 c6 f0 3c f0 be 13 bb 92 4d 87 3d c7 70 19 bd
       0.029391501 -0.0022544228 0.06606592 -0.03746107
0002a0 33 c5 89 3b 3b 2a 94 bd c4 0a 31 bd 28 f7 03 3e
       0.004204416 -0.07234617 -0.043223158 0.12887251
0002b0 df a2 c9 bd fd f1 7e 3c 61 0c 14 3d 20 63 02 3d
       -0.09845518 0.015560624 0.036144618 0.031832814
0002c0 9e 64 d5 bd 92 fa 0c 3d 2c 59 38 3c 0c e6 13 3c
       -0.10419582 0.03441865 0.011251729 0.009027015
0002d0 52 08 fc bc 23 c6 a2 bd a2 a7 54 bd 84 49 05 bd
       -0.030765686 -0.07947948 -0.05191768 -0.032540813
0002e0 60 48 4d 3d 41 4b 71 3d c0 35 e8 bd af 80 90 bd
       0.05011785 0.05890966 -0.11338377 -0.070557944
0002f0 41 87 1e bd 7d 0b 5f 3c 04 2e da bd e4 b8 7b 3d
       -0.038703207 0.013613579 -0.10653308 0.061455622
000300 ca c3 c3 3b 0b 9d 56 bd 9a 92 84 bd 6f 2b 3b be
       0.0059742676 -0.05239586 -0.064732745 -0.18278287
000310 d7 44 77 bd a2 82 5d 3d 4a be 98 bc b2 3d 51 3c
       -0.060368385 0.05407966 -0.018645424 0.012771057
000320 6e 1a ac 3d 69 f5 1d 3e d9 36 c3 3b d5 69 04 bd
       0.084034786 0.15425648 0.005957466 -0.03232749
000330 99 d1 8d 3c ff 96 c5 bc c0 bd ce 3d 74 e4 ce 3c
       0.017311858 -0.024119852 0.10094786 0.02525542
000340 59 98 4b 3d 5e e2 ba bd 5b 25 80 3d 0f 2f 84 bc
       0.049705837 -0.09125207 0.06257125 -0.01613572
000350 4f 67 52 3d 79 8c 15 3d 2a 0b 67 3d 6f e1 ec bb
       0.051368054 0.03651092 0.05640713 -0.007229022
000360 b3 89 00 bd 98 d6 90 3d d5 8c be 3b db 99 8a 3d
       -0.03138132 0.070721805 0.0058151283 0.06767627
000370 e8 c3 12 be 66 d1 c5 bc a0 e3 1b bd b3 ed 31 bd
       -0.14332545 -0.0241477 -0.038058877 -0.04343958
000380 dd b8 78 3d 8a e8 41 bc d7 a6 68 bd 93 2b 3a 3d
       0.060723174 -0.011835227 -0.056799736 0.045451712
000390 c8 26 c4 bc 2e 8d 06 bd f3 5e 7b 3b 46 dc f7 bc
       -0.023944274 -0.032849483 0.0038356155 -0.030256402
0003a0 ac e4 11 3d 45 80 b7 3d 60 1e ee 3c c2 aa 1d bb
       0.03561847 0.08960012 0.029067218 -0.0024058078
0003b0 b4 2a 69 bd 72 77 e6 3c c4 de 78 3d c1 4f 9b 3c
       -0.05692549 0.028133128 0.06075932 0.018958928
0003c0 4b 6c ae bc 15 19 d6 bd 25 c4 49 bc ff 92 c4 bd
       -0.021291872 -0.10454003 -0.012314831 -0.0959835
0003d0 c7 eb 5d bd 0d 0f f9 3c b6 1b d2 3c 87 61 9a bd
       -0.054179933 0.030402685 0.02564798 -0.07538133
0003e0 7a 4e b7 3d 6d 0a 52 3d 78 be 18 bd 32 bd 8e 3c
       0.08950515 0.051279474 -0.03729102 0.0174242
0003f0 64 c5 58 bd 6f 25 c8 bc 37 be 3a bd 19 66 10 be
       -0.05292262 -0.024431912 -0.04559156 -0.14101447
