许崇军/week06/weather_rnn.pth (torch, 62448 bytes, 12 tensors)

rnn.weight_ih_l0 f4 [64, 1]
-0.1505692 0.052779432 -0.2106682 0.2047491 -0.22833449 -0.10511924 0.37348694 0.06732195
0.14649248 -0.068427354 -0.16907054 0.10703265 -0.13102475 -0.006176842 -0.13607055 0.31354922
-0.070219725 0.2231435 0.110806316 -0.1596453 -0.24778779 0.24692981 -0.1502797 0.1844887
0.23055975 -0.2124716 -0.058421697 0.16037746 -0.25767037 -0.24548377 0.18618739 0.24945419
-0.010159917 -0.29447454 0.26053485 0.18609722 0.2928033 0.12690966 -0.10637093 -0.20115164
-0.26400986 -0.2350575 0.037596058 -0.20315942 0.15431246 0.1826362 0.1844454 -0.25980127
-0.30079696 0.2172433 -0.2118308 0.17180042 0.16238026 0.19807221 -0.16589119 -0.20457898
0.15636593 0.22450918 0.27023175 0.13430986 -0.1778616 -0.23557383 0.27585563 -0.20508511
00000000: d02e 1abe 3f2f 583d 68b9 57be c0a9 513e
00000010: 84d0 69be c248 d7bd ae39 bf3e 17e0 893d
00000020: 2002 163e a423 8cbd d420 2dbe ef33 db3d
00000030: 5a2b 06be 1b67 cabb 1456 0bbe 8689 a03e
00000040: 5ccf 8fbd bb7f 643e 6cee e23d 0f7a 23be
00000050: 15bc 7dbe 2bdb 7c3e ece2 19be 9bea 3c3e
00000060: db17 6c3e 2892 59be 974b 6fbd fd39 243e
00000070: 5fed 83be 1960 7bbe e8a7 3e3e eb70 7f3e
00000080: c875 26bc 5ec5 96be d364 853e 4590 3e3e
00000090: 50ea 953e 9bf4 013e 01d9 d9bd b2fa 4dbe
000000a0: 4d2c 87be eab2 70be 53fe 193d 0609 50be
000000b0: 1604 1e3e fc04 3b3e 41df 3c3e ac04 85be
000000c0: 0f02 9abe 0775 5e3e 2cea 58be 73ec 2f3e
000000d0: 0347 263e 71d3 4a3e 61df 29be 277d 51be
000000e0: 641e 203e bce5 653e d15b 8a3e 8688 093e
000000f0: 5a21 36be 443a 71be f33c 8d3e d501 52be

rnn.weight_hh_l0 f4 [64, 64]
-0.45137805 -0.15807551 0.17296289 0.045198224 0.039887406 -0.12850614 -0.016331056 -0.00296358
-0.04070295 -0.009867529 -0.017731383 -0.053426787 -0.1379135 0.23687659 0.015613679 0.09369576
-0.03682299 0.103234254 -0.041200116 0.05275781 -0.0081379665 -0.036806963 -0.06385491 -0.0028723727
-0.06884147 -0.06363169 -0.12949689 -0.0057371953 0.019910298 -0.014342615 -0.14147136 0.03937328
-0.18374896 0.013285086 0.012370044 0.028440742 -0.0030655118 -0.098443836 -0.027926194 0.033469368
0.09089846 -0.047330208 0.039797463 -0.008333045 0.10640693 0.027423203 0.034345012 -0.07356141
0.11311947 0.018441737 0.051941548 0.029240653 -0.062454112 -0.030075738 0.10020977 -0.08779147
0.019765161 -0.04538596 0.0941771 0.04187441 0.026656853 0.059658676 0.020040732 0.053428832
0.056243192 -0.14119112 -0.02205022 0.10689803 0.036089055 0.0124764005 -0.005331571 -0.06686839
-0.10878224 0.047846466 0.015317776 0.00084080047 -0.07944002 -0.018638074 -0.022014577 0.091303825
-0.13618538 -0.11432362 0.07566656 -0.081360795 -0.042350713 0.14712949 -0.06558444 -0.07231247
-0.037945945 0.08835939 0.011777123 -0.11075636 0.16304643 -0.005194783 -0.03533946 -0.04033806
0.013593047 -0.10875108 -0.1316373 -0.009792582 -0.031318888 0.026403466 -0.04448589 -0.06241697
0.1029019 0.038566988 -0.05801532 0.02518273 0.07422487 -0.052425757 -0.0057312334 0.19699138
-0.14042525 -0.070495285 -0.091971755 -0.045598563 0.039843716 -0.10225931 -0.060544774 0.044483285
0.0036101823 -0.05010487 0.0022040138 -0.14546187 0.17321776 -0.0065800487 0.12720208 -0.079079665
-0.1889475 -0.049729735 -0.20416518 -0.084757276 -0.043294556 -0.08017572 -0.061905656 0.046883456
0.05747297 -0.08570512 0.07492661 0.0194777 -0.104145356 0.14368701 -0.14026505 -0.057485055
-0.10862657 0.08224558 0.00193099 0.041485097 0.11535521 -0.18321659 0.072102375 0.013490232
-0.029135307 -0.051850677 -0.051458105 -0.079997756 0.09922356 -0.00023683577 -0.04386671 0.05458595
0.0071825865 -0.021312231 0.040968772 -0.046485618 0.007379467 0.029833058 -0.05320842 0.059346855
-0.11910039 -0.074606866 -0.00735271 0.06206227 0.14018612 -0.046705138 -0.055471756 0.07777439
0.07593339 0.014932856 0.010594121 -0.058267184 0.13522685 0.1338743 -0.015266219 0.07380434
0.095620684 -0.011571826 -0.10558893 -0.006592716 -0.044581447 -0.016203621 0.054521322 -0.066159174
-0.021299634 0.060909797 0.07760325 -0.49383992 -0.09241191 0.06414784 0.12715173 0.00044641548
-0.07046663 0.04376159 -0.031315416 -0.044473846 -0.018606229 -0.14149617 -0.077650644 -0.066067815
-0.0049482943 0.01458863 -0.024033723 -0.08441874 -0.08861758 -0.12129368 -0.054058257 -0.068200506
-0.0058356305 0.009079751 0.0331321 -0.016215859 -0.031318005 0.020493988 0.033317547 0.05252127
-0.034442067 -0.030167082 0.05655458 -0.12850419 -0.034240488 -0.10633568 0.05456183 -0.12659931
0.1176926 -0.038246427 0.074278146 0.026394991 -0.009634793 -0.012440484 0.03249867 -0.026159363
0.008940787 0.030520083 0.029255388 0.0080699455 -0.042152494 0.048471976 -0.09681417 0.08938388
0.07220946 -0.09044924 0.1164231 -0.030027555 -0.06952994 0.012683225 -0.04431989 0.121325426
00000000: 061b e7be 8cde 21be 2f1d 313e c621 393d
00000010: fa60 233d 1d97 03be b5c8 85bc 9f38 42bb
00000020: 23b8 26bd 6bab 21bc 6841 91bc 0cd6 5abd
00000030: 3239 0dbe c78f 723e 84d0 7f3c 90e3 bf3d
00000040: b4d3 16bd 7b6c d33d 74c1 28bd 9318 583d
00000050: 1b55 05bc e6c2 16bd 5dc6 82bd 6b3e 3cbb
00000060: c2fc 8cbd 5551 82bd d59a 04be 15ff bbbb
00000070: ec1a a33c 4afd 6abc dedd 10be e045 213d
00000080: b028 3cbe b0a9 593c baab 4a3c 8ffc e83c
00000090: c1e6 48bb ec9c c9bd 79c5 e4bc 2d17 093d
000000a0: f928 ba3d 52dd 41bd aa02 233d 5387 08bc
000000b0: e0eb d93d a0a6 e03c 5bad 0c3d 5da7 96bd
000000c0: 2eab e73d 2013 973c a9c0 543d 188a ef3c
000000d0: e2cf 7fbd 6561 f6bc c83a cd3d 04cc b3bd
000000e0: 8cea a13c a1e6 39bd ecdf c03d 8084 2b3d
000000f0: 795f da3c a85c 743d 762c a43c 31d8 5a3d
00000100: 435f 663d 6894 10be aaa2 b4bc 5bed da3d
00000110: 1ed2 133d d169 4c3c 76b4 aebb 4bf2 88bd
00000120: 39c9 debd a8fa 433d 69f7 7a3c 2a69 5c3a
00000130: 73b1 a2bd e0ae 98bc ea57 b4bc 80fd ba3d
00000140: 2e74 0bbe 8122 eabd 12f7 9a3d 7da0 a6bd
00000150: f177 2dbd 1da9 163e 2351 86bd 8f18 94bd
00000160: 356d 1bbd c5f5 b43d d6f4 403c 3bd4 e2bd
00000170: a5f5 263e 0039 aabb 1cc0 10bd 8639 25bd
00000180: 5fb5 5e3c e3b8 debd eecb 06be 1171 20bc
00000190: 3c48 00bd 154c d83c d636 36bd f0a8 7fbd
000001a0: 3bbe d23d 6bf8 1d3d 79a1 6dbd 034c ce3c
000001b0: 3503 983d 64bc 56bd 12cd bbbb 1cb8 493e
000001c0: a3cb 0fbe d55f 90bd b05b bcbd 8fc5 3abd
000001d0: 2a33 233d 546d d1bd ccfd 77bd 1b34 363d
000001e0: cf98 6c3b c43a 4dbd 3771 103b f5f3 14be
000001f0: ff5f 313e 739d d7bb 4341 023e 85f4 a1bd
00000200: 747b 41be 68b1 4bbd ad10 51be 3995 adbd
00000210: a255 31bd 2b33 a4bd c990 7dbd de08 403d
00000220: c768 6b3d 2a86 afbd 1f73 993d b38f 9f3c
00000230: 294a d5bd b022 133e a4a1 0fbe 7375 6bbd
00000240: 9b77 debd 5f70 a83d 4619 fd3a 47ec 293d
00000250: 5a3f ec3d 219d 3bbe 69aa 933d 2206 5d3c
00000260: 2bad eebc 6061 54bd bcc5 52bd ddd5 a3bd
00000270: b935 cb3d 1e57 78b9 94ad 33bd 8495 5f3d
00000280: e75b eb3b fd96 aebc dfce 273d b467 3ebd
00000290: 75cf f13b 7564 f43c 12f1 59bd b015 733d
000002a0: e8ea f3bd 7ccb 98bd 00ef f0bb 0235 7e3d
000002b0: f38c 0f3e e34d 3fbd 5a36 63bd 2e48 9f3d
000002c0: f782 9b3d f0a8 743c f792 2d3c 92a9 6ebd
000002d0: e878 0a3e 5816 093e 2a1f 7abc bb26 973d
000002e0: c7d4 c33d c297 3dbc 023f d8bd b607 d8bb
000002f0: 099b 36bd 75bd 84bc c051 5f3d 767e 87bd
00000300: 927c aebc 8d7c 793d 74ee 9e3d 96d8 fcbe
00000310: 7542 bdbd f15f 833d 1034 023e df0c ea39
00000320: cf50 90bd 5a3f 333d 9844 00bd 352a 36bd
00000330: 176c 98bc 5fe4 10be 4d07 9fbd 904e 87bd
00000340: 4d25 a2bb 2605 6f3c 5fe2 c4bc bbe3 acbd
00000350: 227d b5bd d268 f8bd 316c 5dbd b5ac 8bbd
00000360: d138 bfbb 3cc3 143c 86b5 073d 1fd7 84bc
00000370: 4f47 00bd 02e3 a73c fb77 083d 8b20 573d
00000380: 2013 0dbd f520 f7bc c6a5 673d 9a96 03be
00000390: c13f 0cbd 85c6 d9bd 3a7c 5f3d 40a3 01be
000003a0: d108 f13d 49a8 1cbd 241f 983d 4f3a d83c
000003b0: 40db 1dbc 2cd3 4bbc 531d 053d 294c d6bc
000003c0: 617c 123c 4105 fa3c ffa8 ef3c ce37 043c
000003d0: 18a8 2cbd 8d8a 463d 8246 c6bd e50e b73d
000003e0: 8ee2 933d 733d b9bd 3c6f ee3d 59fc f5bc
000003f0: b765 8ebd 4dcd 4f3c c688 35bd 7779 f83d

rnn.bias_ih_l0 f4 [64]
0.065741114 0.039713733 0.16310763 -0.068809286 0.0098856725 0.09330026 -0.0543244 -0.0059145624
-0.06035369 0.089704745 0.11883564 -0.020348689 0.12098928 0.056255206 0.011652517 -0.0040962105
0.038797937 -0.19128047 -0.049289364 0.007770888 0.057659492 -0.060331017 -0.044322856 -0.07116745
-0.048708994 0.037537556 0.06546065 -0.093683094 0.08501097 0.11352172 -0.08559659 -0.12938626
-0.026712077 0.05204456 0.017574783 0.022401752 -0.10090188 -0.0822528 0.08156326 0.059607513
0.09271959 0.12693591 -0.007478658 0.06558914 -0.027340345 -0.09716922 0.028117273 0.13385023
0.14497776 0.018542875 0.09566401 -0.03676181 -0.063954726 -0.052759282 -0.0702411 0.039479397
-0.15409842 -0.09292155 -0.16621794 0.024472294 0.037117325 0.040006086 -0.18246992 0.06452814
00000000: 47a3 863d deaa 223d b005 273e e2eb 8cbd
00000010: 84f7 213c 3514 bf3d 4383 5ebd f2ce c1bb
00000020: 6e35 77bd 1fb7 b73d 1a60 f33d 4bb2 a6bc
00000030: 3ac9 f73d dc6b 663d 33ea 3e3c 8139 86bb
00000040: 96ea 1e3d 07df 43be a5e3 49bd efa2 fe3b
00000050: 5c2c 6c3d a81d 77bd e28b 35bd 3dc0 91bd
00000060: 1583 47bd fbc0 193d 3c10 863d ecdc bfbd
00000070: 3b1a ae3d 137e e83d 444d afbd d57d 04be
00000080: 49d3 dabc ad2c 553d fef8 8f3c e183 b73c
00000090: a5a5 cebd 2874 a8bd a30a a73d 0227 743d
000000a0: c5e3 bd3d 7dfb 013e 880f f5bb 9953 863d
000000b0: dcf8 dfbc a800 c7bd 3256 e63c 0910 093e
000000c0: 0d75 143e 3ae7 973c 7eeb c33d 8d93 16bd
000000d0: b2fa 82bd 1e1a 58bd 91da 8fbd 26b5 213d
000000e0: facb 1dbe a74d bebd 0935 2abe 1f7a c83c
000000f0: 5608 183d 6cdd 233d 65d9 3abe 5427 843d

rnn.bias_hh_l0 f4 [64]
0.039888117 -0.09167625 -0.021739447 -0.05319838 0.15527594 -0.014995663 -0.18265586 -0.054364666
-0.02807773 -0.030491866 -0.0035784543 -0.032441296 -0.011579033 -0.0431721 0.073420495 -0.20158862
0.008941392 0.050908484 -0.013181697 0.09976871 0.08850748 -0.113871805 0.13562283 -0.06244013
-0.11047209 0.100136206 -0.008408344 -0.028204147 0.09597906 0.041724797 -0.09654346 -0.057040285
0.041217092 0.14025699 -0.19953038 -0.12861766 -0.079533175 0.0016507852 0.0025335136 0.09370068
0.073773295 0.032862507 -0.034524664 0.060566593 -0.06076483 -0.029978944 -0.15682659 0.054424677
0.08288739 -0.1804637 0.048615225 -0.07375921 -0.040949754 -0.06573904 0.16574347 0.10196302
0.030875176 -0.048726622 -0.02506937 -0.101059236 0.055745248 0.10043894 -0.011855882 0.0429407
00000000: b961 233d c2c0 bbbd ed16 b2bc 8be6 59bd
00000010: a800 1f3e 5fb0 75bc 230a 3bbe 7cad 5ebd
00000020: 4503 e6bc 14ca f9bc 8084 6abb 2ae1 04bd
00000030: fcb5 3dbc 3ad5 30bd 7c5d 963d 3f6d 4ebe
00000040: eb7e 123c 6a85 503d 0bf8 57bc 8a53 cc3d
00000050: 6943 b53d 9f35 e9bd b6e0 0a3e 39c1 7fbd
00000060: 313f e2bd 3614 cd3d 27c3 09bc 620c e7bc
00000070: ab90 c43d 9fe7 2a3d 94b8 c5bd 13a3 69bd
00000080: 41d3 283d 879f 0f3e b151 4cbe 59b4 03be
00000090: 4ae2 a2bd 295f d83a 4e09 263b 24e6 bf3d
000000a0: 7416 973d d69a 063d bc69 0dbd ad14 783d
000000b0: 8be4 78bd 6796 f5bc 2697 20be 69ec 5e3d
000000c0: ddc0 a93d 7acb 38be c220 473d 120f 97bd
000000d0: eeba 27bd 31a2 86bd a8b8 293e fdd1 d03d
000000e0: f0ed fc3c 9195 47bd 485e cdbc 25f8 cebd
000000f0: 2155 643d eeb2 cd3d 2c3f 42bc 96e2 2f3d

rnn.weight_ih_l1 f4 [64, 64]
0.036260404 0.039595846 0.05160541 -0.13681905 0.14593707 -0.028057028 -0.07451367 -0.06724556
0.07791254 0.15876915 0.10064264 0.035764337 -0.047907785 0.021583714 0.11315279 0.06566715
0.09938667 -0.047352772 -0.014095516 -0.011048709 -0.059045505 -0.07365947 -0.11937899 0.05181864
0.0842926 -0.03848101 -0.18452376 -0.047303487 0.016536986 0.052433886 0.03488864 -0.23531546
-0.0508622 0.11195516 -0.08577335 0.13194552 -0.094698034 -0.15581667 0.00820833 0.008676496
0.0044079553 0.07572272 0.00060032896 -0.01841596 -0.17587613 -0.2302864 -0.09000235 0.00363653
-0.10442632 -0.16651873 0.09149992 -0.116678536 -0.022263926 0.055378705 -0.04424876 -0.10943719
-0.2469387 -0.13244241 -0.014608851 -0.024959782 0.07011212 0.09061384 0.041599475 0.04731212
0.03837724 -0.08705978 0.024534645 0.11657309 -0.0246574 -0.1060554 0.2239404 0.09463511
0.03737996 -0.0026307665 -0.05957364 0.1473088 -0.08389972 0.1973395 0.022913707 0.15216285
-0.053392015 0.20034048 0.15299442 -0.1702782 -0.16851987 -0.01103377 0.07276907 -0.24270068
-0.0595455 -0.1552327 -0.14466581 0.065562055 0.12955552 -0.06744522 -0.14276409 -0.0082124565
-0.014765419 -0.18158628 0.11069176 -0.023016749 0.15217407 -0.08738309 -0.10104263 -0.20732535
0.01036323 -0.03340201 -0.13270709 0.022530595 0.121519245 0.04297368 -0.0068159937 0.1679327
-0.009822163 -0.05490622 -0.023042051 -0.052182876 0.121929675 -0.01321663 -0.014881599 -0.11075151
0.10911241 -0.101789236 0.07147984 -0.019370647 0.014197714 -0.1919232 0.13898763 -0.015390863
-0.26351398 -0.19877365 -0.28148532 0.18420085 -0.14491722 -0.06507261 0.23214373 0.20182854
0.2650759 -0.032734446 -0.084126204 0.025247652 -0.056833338 0.12994298 -0.1505403 0.18374446
0.0120113585 0.17900091 0.0779664 -0.23651537 -0.11758518 0.26283965 -0.07433682 0.049108062
-0.021973003 -0.088787206 -0.19814824 0.1047122 -0.09086202 0.06452836 0.05298202 0.10556348
-0.15714577 -0.33715054 0.1909191 0.34339106 0.2038529 0.19838315 -0.26989186 -0.13651697
-0.13102455 -0.19829053 0.013680534 -0.061047357 0.07089245 0.14084415 0.24117628 -0.021517199
-0.12683037 0.14451316 -0.17801578 0.16218372 0.1666808 0.14484665 -0.22972609 -0.23202232
0.1301556 0.19096339 0.27368572 0.098461375 -0.14567114 -0.2973043 0.17555073 -0.26460236
-0.12690708 -0.12643166 -0.12194672 0.24227661 -0.08004438 -0.16749708 0.31970388 0.052826513
0.22215578 -0.12768506 -0.24242496 0.14399602 -0.17858681 0.12211697 -0.14162235 0.3459891
-0.20753944 0.2769819 0.26828834 -0.08490806 -0.14266077 0.3305574 -0.14138311 0.089724846
0.12417088 -0.12372808 -0.08497369 0.18236226 -0.09606055 -0.13551457 0.020175394 0.23716609
-0.03993307 -0.32204315 0.22923227 0.19068472 0.27654904 0.06395443 -0.069846764 -0.24582152
-0.23165555 -0.1798031 0.03292409 -0.11430465 0.09940931 0.17367099 0.09312491 0.050313015
-0.3043332 0.299051 -0.2680841 0.2540249 0.28866535 0.20873317 -0.2191288 -0.22307263
0.2963863 0.11612549 0.3012076 0.23706247 -0.05031688 -0.40687978 0.20873305 -0.21686895
00000000: ca85 143d 412f 223d 3260 533d 4b1a 0cbe
00000010: 8770 153e dad7 e5bc 9f9a 98bd 0ab8 89bd
00000020: 9c90 9f3d 6194 223e ba1d ce3d a07d 123d
00000030: f43a 44bd 54d0 b03c a6bc e73d 807c 863d
00000040: 3d8b cb3d fbf4 41bd e1f0 66bc a505 35bc
00000050: b3d9 71bd c7da 96bd f97c f4bd c83f 543d
00000060: 99a1 ac3d 439e 1dbd ccf3 3cbe 4dc1 41bd
00000070: 9378 873c eac4 563d 64e7 0e3d 89f6 70be
00000080: e254 50bd bf48 e53d f0a9 afbd ba1c 073e
00000090: 0bf1 c1bd 688e 1fbe 3b7c 063c dd27 0e3c
000000a0: 9c70 903b 8314 9b3d 655f 1d3a 11dd 96bc
000000b0: df18 34be 33d0 6bbe 2753 b8bd d952 6e3b
000000c0: 77dd d5bd e383 2abe 4f64 bb3d 28f5 eebd
000000d0: d662 b6bc c8d4 623d 303e 35bd 9b20 e0bd
000000e0: 80dd 7cbe fc9e 07be f659 6fbc 7578 ccbc
000000f0: f196 8f3d c093 b93d 3664 2a3d 5bca 413d
00000100: 7431 1d3d 664c b2bd e1fc c83c dfbd ee3d
00000110: 51fe c9bc 9333 d9bd a250 653e 0dd0 c13d
00000120: bb1b 193d f068 2cbb 7d03 74bd 1ed8 163e
00000130: 9ed3 abbd 5e13 4a3e 87b5 bb3c 94d0 1b3e
00000140: 96b1 5abd 0e26 4d3e 92aa 1c3e 695d 2ebe
00000150: 7990 2cbe fcc6 34bc f307 953d 8786 78be
00000160: fbe5 73bd 52f5 1ebe 4623 14be 6645 863d
00000170: 34aa 043e b820 8abd c030 12be 8a8d 06bc
00000180: a8ea 71bc c1f1 39be 5db2 e23d 9f8d bcbc
00000190: 85d3 1b3e e8f5 b2bd 70ef cebd 194d 54be
000001a0: 89ca 293c 8cd0 08bd 5ee4 07be 1592 b83c
000001b0: 15df f83d 2b05 303d b358 dfbb 8df6 2b3e
000001c0: 23ed 20bc 58e5 60bd afc2 bcbc b6bd 55bd
000001d0: 44b6 f93d 908a 58bc f3d1 73bc b0d1 e2bd
000001e0: 5476 df3d e076 d0bd 0664 923d 31af 9ebc
000001f0: 879d 683c 8487 44be c652 0e3e f529 7cbc
00000200: 4eeb 86be 528b 4bbe d81e 90be 269f 3c3e
00000210: 2e65 14be ca44 85bd 16b7 6d3e 24ac 4e3e
00000220: 07b8 873e 8e14 06bd 5c4a acbd 2ad4 ce3c
00000230: 13ca 68bd c60f 053e 3d27 1abe 8227 3c3e
00000240: 4acb 443c 044c 373e d9ac 9f3d 1631 72be
00000250: 80d0 f0bd eb92 863e e73d 98bd 8925 493d
00000260: ba00 b4bc 11d6 b5bd 5fe7 4abe 5a73 d63d
00000270: de15 babd 7227 843d ad03 593d aa31 d83d
00000280: d2ea 20be ff9e acbe 4c80 433e f4d0 af3e
00000290: d1be 503e f424 4b3e 442f 8abe 1bcb 0bbe
000002a0: 4d2b 06be ac0c 4bbe 5224 603c cb0c 7abd
000002b0: 1030 913d 7339 103e eaf6 763e d644 b0bc
000002c0: d2df 01be 42fb 133e c549 36be 7d13 263e
000002d0: 5fae 2a3e ae52 143e 513d 6bbe 4297 6dbe
000002e0: 8247 053e e88b 433e 8920 8c3e 1ea6 c93d
000002f0: d12a 15be 4538 98be 92c3 333e f679 87be
00000300: eef3 01be 4d77 01be 34bf f9bd 5c17 783e
00000310: 4fee a3bd 5b84 2bbe 3ab0 a33e 9d60 583d
00000320: ce7c 633e dfbf 02be 403e 78be b173 133e
00000330: 76df 36be 7618 fa3d 7305 11be 7c25 b13e
00000340: 3885 54be 92d0 8d3e 175d 893e 47e4 adbd
00000350: aa15 12be d23e a93e bcc6 10be a9c1 b73d
00000360: 4d4d fe3d 2665 fdbd b006 aebd 2cbd 3a3e
00000370: 65bb c4bd 55c4 0abe de46 a53c abdb 723e
00000380: dc90 23bd d7e2 a4be ddbb 6a3e db42 433e
00000390: d697 8d3e 8afa 823d d20b 8fbd a3b8 7bbe
000003a0: 1d37 6dbe 4e1e 38be 69db 063d 8e18 eabd
000003b0: 1c97 cb3d cfd6 313e 46b8 be3d 0515 4e3d
000003c0: 90d1 9bbe 361d 993e 5242 89be 8d0f 823e
000003d0: f2cb 933e 26be 553e 4d63 60be 276d 64be
000003e0: f2bf 973e 33d3 ed3d e237 9a3e 81c0 723e
000003f0: 1319 4ebd 8c52 d0be 1ebe 553e e512 5ebe

rnn.weight_hh_l1 f4 [64, 64]
-0.30177468 0.030311897 0.002984953 0.10139652 0.1782111 0.14651322 0.041934926 -0.108275644
-0.14770515 0.035031047 -0.052979603 0.034120046 0.012053689 -0.09068959 0.10899682 0.020084446
0.08384989 -0.059422955 -0.119852796 0.07018479 -0.1415758 -0.10473468 -0.06669111 -0.22315486
0.0964072 0.17107233 0.10621501 0.081628144 0.11128016 0.15726468 -0.072316155 0.06935559
0.030413339 -0.1570561 0.07955485 0.038100984 -0.10012784 -0.028024219 -0.121188916 -0.050876126
-0.11819159 -0.012438194 -0.17290854 -0.09945537 -0.11303395 0.050874315 -0.09096483 -0.09595239
0.08221873 0.09763439 0.034406386 0.01628447 0.047884066 -0.16346471 -0.007999339 0.044888806
0.03967417 0.06356416 -0.026344307 -0.067161605 -0.15399456 -0.25246936 -0.16381857 0.060697597
-0.056387268 0.14032015 0.18664105 -0.03742592 0.001554878 0.17108211 0.011959873 0.21406022
-0.10880855 -0.04071092 0.03717017 0.11044086 0.11975983 0.1256485 0.18630217 0.2473496
0.02750329 0.057403345 -0.075265236 0.0008046897 0.080055386 -0.059148826 0.10283177 0.0597509
0.06399148 0.13718902 -0.09497704 0.06771964 0.19086608 -0.118159644 -0.043390825 -0.302883
-0.09043467 -0.20457213 0.2965933 0.08683166 -0.11977103 -0.039701413 0.17649248 0.17970033
0.18259226 -0.20257804 0.199047 -0.048288427 -0.022827746 -0.06967619 -0.31332597 -0.18683219
0.09294467 -0.04649057 -0.16630687 -0.01323394 0.21876748 0.15373546 0.19199894 -0.13435113
0.18804131 -0.25381112 0.25101724 -0.10206455 -0.08168553 0.063508004 -0.03753915 -0.30601677
0.0193195 0.009489393 0.15338494 0.089224726 -0.09124073 -0.1181213 -0.0006795211 0.15344816
0.06142941 -0.005744804 -0.08332222 0.044026982 -0.059478074 -0.112495184 0.030189218 0.08111523
0.15438227 0.01725393 0.09143961 -0.016997747 -0.0030386844 0.13557506 0.12288491 0.069331974
0.12676147 0.059196785 -0.042607043 0.037187297 0.036230184 0.0010519759 -0.14294973 -0.091839194
0.023749918 0.043712184 0.13093536 0.0082727065 -0.07100546 -0.010048688 0.16055857 0.032059327
-0.0731114 -0.047722284 -0.090117335 -0.009215623 -0.20587735 0.14515205 -0.048780214 -0.07434255
-0.14079182 -0.0119537 -0.058270805 0.06275263 0.058050856 -0.020345017 -0.04785514 -0.016964313
-0.111207776 -0.09984211 0.15217736 0.037821654 -0.005691708 0.057327643 0.050621234 -0.06784625
-0.098802 0.13842085 0.054819208 -0.011883191 0.045312654 -0.22266693 0.04097814 0.033407696
-0.0029862775 0.028309125 0.015326144 0.1365899 -0.07258527 0.004879043 0.04599427 0.10415675
-0.01419899 0.004115352 0.035758555 -0.12566288 -0.13091826 -0.0056698225 -0.011583442 0.09024514
-0.016883994 0.038280584 0.10209294 0.007014804 -0.07264416 0.12114391 0.10035351 0.0037174022
0.093712665 -0.07056997 0.10208752 0.030407388 -0.061864093 -0.051582612 0.067657955 0.07580916
-0.06450693 0.017852008 -0.10452683 0.041166544 -0.11786726 0.037226174 0.083510146 -0.0694044
-0.089143515 0.08158241 0.03879663 0.013916575 0.12691464 0.01791499 0.043000147 -0.14328025
0.052714467 -0.060338773 0.07362835 -0.029301452 -0.018122172 -0.1420955 0.0004402593 -0.012814556
00000000: 3682 9abe a850 f83c 349f 433b fba8 cf3d
00000010: f87c 363e 9007 163e f5c3 2b3d 9fbf ddbd
00000020: 0540 17be b77c 0f3d 2401 59bd 76c1 0b3d
00000030: d67c 453c 77bb b9bd ba39 df3d 2388 a43c
00000040: 7eb9 ab3d 7c65 73bd 6275 f5bd 0bbd 8f3d
00000050: 3ff9 10be 237f d6bd 5995 88bd b582 64be
00000060: 2371 c53d 962d 2f3e 4187 d93d a82c a73d
00000070: dae6 e33d fe09 213e 7e1a 94bd 4e0a 8e3d
00000080: 6525 f93c 50d3 20be a7ed a23d c70f 1c3d
00000090: d30f cdbd 0c93 e5bc e531 f8bd 7c63 50bd
000000a0: 6f0e f2bd 91c9 4bbc f00e 31be 42af cbbd
000000b0: 587e e7bd 9661 503d c54b babd b082 c4bd
000000c0: 4b62 a83d 8af4 c73d b6ed 0c3d 0267 853c
000000d0: 1522 443d 4b63 27be a90f 03bc 53dd 373d
000000e0: 6281 223d ed2d 823d 04d0 d7bc 068c 89bd
000000f0: c0b0 1dbe aa43 81be 0ec0 27be 0b9e 783d
00000100: 56f6 66bd 16b0 0f3e d51e 3f3e ec4b 19bd
00000110: 0ccd cb3a 2630 2f3e 58f3 433c 9a32 5b3e
00000120: 04d7 debd 7ec0 26bd c03f 183d d12e e23d
00000130: a444 f53d 00aa 003e ffc5 3e3e 3749 7d3e
00000140: 944e e13c c51f 6b3d a924 9abd d0f1 523a
00000150: 14f4 a33d 0a46 72bd 7799 d23d 5cbd 743d
00000160: f70d 833d 477b 0c3e 5383 c2bd 98b0 8a3d
00000170: 6672 433e affd f1bd 94ba 31bd 7b13 9bbe
00000180: d035 b9bd 5b7b 51be 14db 973e ccd4 b13d
00000190: 844a f5bd f39d 22bd 72ba 343e 5d03 383e
000001a0: 77f9 3a3e 9e70 4fbe fad2 4b3e 16ca 45bd
000001b0: 4101 bbbc 64b2 8ebd 436c a0be f050 3fbe
000001c0: c659 be3d e56c 3ebd 594c 2abe 2bd3 58bc
000001d0: 9504 603e d46c 1d3e 5f9b 443e 5893 09be
000001e0: e78d 403e 88f3 81be 5585 803e 3807 d1bd
000001f0: be4a a7bd 7c10 823d a7c2 19bd 3bae 9cbe
00000200: ee43 9e3c 6679 1b3c f110 1d3e 74bb b63d
00000210: 6bdc babd 95e9 f1bd e421 32ba 8421 1d3e
00000220: 689d 7b3d e93e bcbb d7a4 aabd a355 343d
00000230: 489f 73bd e063 e6bd 614f f73c be1f a63d
00000240: 6316 1e3e 1d58 8d3c b144 bb3d dc3e 8bbc
00000250: aa24 47bb 30d4 0a3e 15ab fb3d ecfd 8d3d
00000260: c2cd 013e 5478 723d b984 2ebd b551 183d
00000270: 1a66 143d 74e2 893a 6a61 12be 3016 bcbd
00000280: 308f c23c 8c0b 333d eb13 063e 3f8a 073c
00000290: 506b 91bd 41a3 24bc 7769 243e a450 033d
000002a0: 6ebb 95bd 7178 43bd 708f b8bd 20fd 16bc
000002b0: 83d1 52be bda2 143e c3cd 47bd e840 98bd
000002c0: bb2b 10be 74d9 43bc 5ead 6ebd 7384 803d
000002d0: bcc6 6d3d 98aa a6bc c003 44bd bef8 8abc
000002e0: e7c0 e3bd 057a ccbd 62d4 1b3e e1ea 1a3d
000002f0: 8281 babb 64d0 6a3d 3658 4f3d faf2 8abd
00000300: b458 cabd 32be 0d3e 1b8a 603d b7b1 42bc
00000310: c399 393d cd02 64be b2d8 273d 82d6 083d
00000320: 6cb5 43bb 8ae8 e73c 821a 7b3c 39de 0b3e
00000330: 96a7 94bd 61e0 9f3b 7d64 3c3d 2250 d53d
00000340: e1a2 68bc 13da 863b 9077 123d c5ad 00be
00000350: 700f 06be ebc9 b9bb 7ac8 3dbc 72d2 b83d
00000360: 4d50 8abc 1acc 1c3d 1a16 d13d 71dc e53b
00000370: 76c6 94bd 4c1a f83d 2486 cd3d a99f 733b
00000380: 6dec bf3d fd86 90bd 4313 d13d ea18 f93c
00000390: 3465 7dbd 4a48 53bd 4190 8a3d d541 9b3d
000003a0: 361c 84bd 603e 923c 2a12 d6bd 409e 283d
000003b0: 6464 f1bd 797a 183d 5e07 ab3d e523 8ebd
000003c0: e090 b6bd ae14 a73d 37e9 1e3d 5902 643c
000003d0: e9f5 013e 75c2 923c ec20 303d 0fb8 12be
000003e0: 20eb 573d ca25 77bd 76ca 963d 9909 f0bc
000003f0: f374 94bc 7c81 11be 9ad2 e639 25f4 51bc

rnn.bias_ih_l1 f4 [64]
0.11507925 0.25551015 -0.058252003 -0.0036316249 0.123229474 -0.11080303 -0.101621576 0.2404229
0.04054542 0.092639364 -0.08291817 0.0413689 0.036258884 -0.06253895 0.22268952 0.37610126
-0.049511403 0.044153225 -0.1382476 -0.08788517 0.008153108 0.047198363 0.19381382 -0.10190641
-0.0115585225 -0.04467669 0.027532106 0.073136635 0.086543135 -0.014624082 -0.17461945 -0.24990456
-0.05057338 -0.101246856 0.21046863 -0.023717092 0.012975458 -0.07502005 0.05248809 0.1025287
0.11366684 0.004277143 0.021777451 -0.034530737 -0.041246932 -0.060707506 -0.073151425 -0.27741787
0.035931204 -0.035185166 -0.07362835 0.07057056 0.1513281 -0.07941425 -0.10723173 0.06991093
0.0699158 -0.17527433 0.26532045 -0.033053447 -0.027941503 0.04691292 -0.06353988 -0.26549822
00000000: abae eb3d 3ad2 823e a799 6ebd 8e00 6ebb
00000010: bc5f fc3d b3ec e2bd f91e d0bd 6c31 763e
00000020: f412 263d b5b9 bd3d 00d1 a9bd 7072 293d
00000030: 3284 143d 6c14 80bd b908 643e 5890 c03e
00000040: 78cc 4abd 03da 343d c790 0dbe 24fd b3bd
00000050: 9d94 053c 1253 413d 2177 463e 4fb4 d0bd
00000060: f55f 3dbc e8fe 36bd 038b e13c a9c8 953d
00000070: 873d b13d d899 6fbc 71cf 32be fbe6 7fbe
00000080: 0826 4fbd 835a cfbd 1785 573e 594a c2bc
00000090: 0497 543c 1da4 99bd c0fd 563d 91fa d13d
000000a0: 29ca e83d 4727 8c3b a066 b23c 1a70 0dbd
000000b0: 8bf2 28bd 6fa8 78bd 6ad0 95bd b709 8ebe
000000c0: 992c 133d 521e 10bd 76ca 96bd 4c87 903d
000000d0: c1f5 1a3e f0a3 a2bd 4f9c dbbd 762d 8f3d
000000e0: 0430 8f3d 1d7b 33be 15d8 873e 0d63 07bd
000000f0: 94e5 e4bc c327 403d 3221 82bd 62ef 87be

rnn.bias_hh_l1 f4 [64]
-0.10954342 0.18057443 0.16596808 -0.02125827 -0.0130158635 0.07856157 0.026660731 0.26717296
0.0236261 -0.021644345 0.091084674 0.09857992 0.09702054 0.058479335 0.2296528 0.16918005
-0.08625404 0.0438918 -0.02983714 -0.08577674 0.06582831 0.10505464 0.27144566 0.10745431
-0.02845743 -0.014618244 -0.11207485 0.10574227 -0.024167018 -0.0710208 -0.08411111 -0.24997376
-0.04193375 -0.06383685 0.11220477 -0.1444613 -0.09722743 -0.14912462 0.017132856 0.05961616
0.110797785 -0.09520579 -0.107902244 -0.10211204 -0.08044194 0.011900634 -0.05769823 -0.24799474
0.026146438 -0.015448136 0.10874508 0.03197157 0.18261698 -0.03863963 0.1076183 -0.038769737
0.07590364 -0.23277019 0.19739693 0.030433325 -0.054031506 0.02449838 -0.10709804 -0.29418737
00000000: 4d58 e0bd 81e8 383e 89f3 293e d325 aebc
00000010: 7d40 55bc e3e4 a03d 9b67 da3c e5ca 883e
00000020: 868b c13c 7b4f b1bc 9a8a ba3d 45e4 c93d
00000030: b4b2 c63d 0788 6f3d 1b2a 6b3e 893d 2d3e
00000040: f5a5 b0bd e3c7 333d 056d f4bc b7ab afbd
00000050: fed0 863d e326 d73d edfa 8a3e 0111 dc3d
00000060: 8e1f e9bc 5c81 6fbc 8087 e5bd 678f d83d
00000070: e9f9 c5bc 5a73 91bd 7242 acbd 1ff9 7fbe
00000080: b9c2 2bbd e5bc 82bd 9dcb e53d aaed 13be
00000090: 2d1f c7bd 20b4 18be 345a 8c3c 1330 743d
000000a0: f3e9 e23d 41fb c2bd dafb dcbd 1e20 d1bd
000000b0: bebe a4bd e0fa 423c fb54 6cbd 55f2 7dbe
000000c0: 0e31 d63c 2e1a 7dbc beb5 de3d 9ff4 023d
000000d0: f2ff 3a3e 9744 1ebd fc66 dc3d 04cd 1ebd
000000e0: 5e73 9b3d 4f5b 6ebe 6c22 4a3e 4f4f f93c
000000f0: 2450 5dbd d4b0 c83c 3856 dbbd ba9f 96be

fc.0.weight f4 [32, 64]
-0.11751358 0.07318968 -0.011205148 0.08514313 0.075231105 0.02478521 0.020066764 -0.068849474
-0.030628037 0.10003559 -0.013957542 -0.101325944 0.07108238 0.02195847 0.12808667 0.10363693
-0.16405232 -0.018466463 -0.021634769 0.08408651 0.033279233 -0.006072347 0.045434188 -0.0104600815
0.023299282 0.08004292 0.06465148 -0.025354654 0.08835487 -0.0030883676 -0.099109344 0.07592835
-0.13320617 -0.017057484 -0.029224008 -0.0068950336 0.020715455 -0.09173864 0.08834787 -0.016952615
0.05091806 -0.04797689 -0.097067095 -0.04098177 0.038658865 -0.029176097 -0.11632859 -0.01536017
0.0045089535 -0.00339226 0.08475272 -0.02589262 0.11964563 0.047691546 -0.0049449066 -0.045768626
0.046722695 0.018892791 0.13985582 -0.04540875 0.029443344 -0.04263444 0.015079942 -0.00508979
0.045625888 0.022507183 0.028922232 0.07106789 -0.06053046 -0.0014498406 -0.018194415 -0.025502833
0.07864911 0.11554686 -0.028681995 -0.03913478 0.13574098 0.0011575036 -0.021724096 0.057771888
-0.018680392 -0.043991137 -0.02573324 -0.0008048929 0.037844535 -0.0066337464 -0.07286009 0.0010023302
-0.01836921 -0.053344887 0.03415759 0.034730628 -0.068485886 -0.0017074429 0.09344088 0.14617877
0.06789821 -0.08132949 -0.098470286 0.008701418 -0.03789383 0.102723286 -0.007875967 0.061819203
0.05168534 0.062331796 -0.1459742 0.028013432 0.04662031 0.14538287 -0.018154113 0.15768439
-0.069290355 -0.1446412 0.00045176703 -0.03231136 0.085681684 0.05898381 0.14612299 9.596387e-06
-0.13400175 0.031198753 -0.110062934 -0.02247961 0.03051359 0.09887777 -0.08685326 0.09921134
-0.019906742 -0.026887473 -0.06039211 -0.00422644 0.07904843 -0.11036589 0.084200464 -0.16230102
0.07059293 -0.008446586 0.026774157 -0.05829255 0.0015583404 0.03810136 0.067431614 -0.033044897
0.029611401 -0.0027622054 0.10525334 -0.046876907 0.061707985 -0.038686734 0.02992866 -0.15291072
-0.012889624 -0.11236963 0.03845683 0.122356884 -0.08253468 0.1607357 -0.04549745 0.18061456
-0.01196236 0.05128442 -0.007445967 -0.02275985 -0.0855835 0.13599473 0.041339144 0.06337312
0.0014101387 0.023284307 -0.038777135 -0.13499145 -0.11227675 0.093365476 -0.050009098 0.14238697
-0.015785536 0.084143184 -0.062295545 -0.12135545 -0.05178317 -0.015309143 0.079304695 -0.049872655
0.0037259283 0.0707812 0.0027253758 -0.052888833 0.029939672 -0.019801851 0.039269213 -0.00874138
-0.1730924 -0.042595755 -0.2137743 -0.11538295 -0.12821344 -0.011856566 0.055374585 0.09024843
-0.025849206 0.096029125 0.10773696 0.05687574 0.14550896 0.03442595 -0.05987 -0.16094574
0.03353027 0.124469735 -0.043821495 -0.0021248606 -0.11330932 -0.11404741 -0.082404934 -0.07482666
-0.06342827 0.14977334 0.13224745 0.14846946 0.0023362758 -0.04395348 -0.018284084 0.11921713
-0.04698518 -0.03933981 -0.03293236 -0.016795855 0.016461994 -0.0723883 0.019163484 -0.034022156
-0.05929417 -0.09486226 0.046433125 -0.110004246 0.13079756 -0.093542114 0.13863464 -0.057481013
-0.20749547 0.066480815 0.14022495 0.06104951 -0.15595263 -0.14248373 -0.09686303 0.029140245
-0.12377382 0.11374774 -0.16669603 -0.07718235 -0.012629359 -0.07361411 0.050243627 0.01855942
00000000: f6aa f0bd 79e4 953d cc95 37bc 855f ae3d
00000010: c412 9a3d 5a0a cb3c 0e63 a43c f400 8dbd
00000020: a6e7 fabc 76df cc3d 2dae 64bc fa83 cfbd
00000030: a493 913d 40e2 b33c 2729 033e 993f d43d
00000040: 55fd 27be fb46 97bc 663b b1bc 8c35 ac3d
00000050: ce4f 083d 8afa c6bb 3319 3a3d c360 2bbc
00000060: 23de be3c 8bed a33d ff67 843d 90b4 cfbc
00000070: 66f3 b43d 3666 4abb d7f9 cabd 5380 9b3d
00000080: 3367 08be 23bc 8bbc 3067 efbc bcef e1bb
00000090: 75b3 a93c 78e1 bbbd baef b43d 36e0 8abc
000000a0: 758f 503d 6a83 44bd 1dcb c6bd 80dc 27bd
000000b0: c258 1e3d b602 efbc af3d eebd 39a9 7bbc
000000c0: d8bf 933b ae50 5ebb d692 ad3d c31c d4bc
000000d0: c508 f53d 3658 433d e208 a2bb e277 3bbd
000000e0: 4c60 3f3d 0ec5 9a3c 5d36 0f3e 87fe 39bd
000000f0: 2b33 f13c 73a1 2ebd dc11 773c 41c8 a6bb
00000100: 36e2 3a3d fc60 b83c 51ee ec3c 0b8c 913d
00000110: caee 77bd 9408 beba 740c 95bc 51eb d0bc
00000120: c912 a13d d5a3 ec3d 81f6 eabc cb4b 20bd
00000130: afff 0a3e 60b7 973a bbf6 b1bc 37a2 6c3d
00000140: 9f07 99bc 0d30 34bd 84ce d2bc 73ff 52ba
00000150: df02 1b3d e65f d9bb ac37 95bd 9f60 833a
00000160: 077b 96bc 2b80 5abd d4e8 0b3d b441 0e3d
00000170: 5442 8cbd 47cc dfba ef5d bf3d e3af 153e
00000180: 370e 8b3d 1390 a6bd caaa c9bd 6490 0e3c
00000190: 9036 1bbd 9660 d23d 330a 01bc 2236 7d3d
000001a0: 02b4 533d a04f 7f3d 437a 15be 6d7c e53c
000001b0: f0f4 3e3d 3fdf 143e efb7 94bc 0478 213e
000001c0: 1ae8 8dbd d31c 14be 25db ec39 eb58 04bd
000001d0: e179 af3d 0299 713d 44a1 153e 2b00 2137
000001e0: c137 09be 8794 ff3c ad68 e1bd 2927 b8bc
000001f0: a3f7 f93c 6e80 ca3d 1fe0 b1bd 512f cb3d
00000200: 7713 a3bc 1e43 dcbc b85d 77bd f37d 8abb
00000210: 25e4 a13d 8307 e2bd 4b71 ac3d 3d32 26be
00000220: 0793 903d 8d63 0abc 7a55 db3c 2bc4 6ebd
00000230: 3a41 cc3a 2c10 1c3d 9619 8a3d 165a 07bd
00000240: 9c93 f23c 1e06 35bb 108f d73d 0002 40bd
00000250: 83c1 7c3d fb75 1ebd f32c f53c a194 1cbe
00000260: 002f 53bc 0c22 e6bd e984 1d3d 3f96 fa3d
00000270: f107 a9bd e697 243e 895b 3abd 06f3 383e
00000280: c6fd 43bc 9d0f 523d 4cfd f3bb dd72 babc
00000290: 6746 afbd 3442 0b3e 3c53 293d c4c9 813d
000002a0: 67d4 b83a bbbe be3c c6d4 1ebd 333b 0abe
000002b0: 5af1 e5bd 6636 bf3d 57d6 4cbd e4cd 113e
000002c0: ab50 81bc 4353 ac3d 9d29 7fbd 3589 f8bd
000002d0: 971a 54bd 33d3 7abc 806a a23d 4547 4cbd
000002e0: b42e 743b bcf5 903d 389c 323b f6a1 58bd
000002f0: 0b44 f53c 7e37 a2bc c1d8 203d 0138 0fbc
00000300: 223f 31be e378 2ebd a6e7 5abe e54d ecbd
00000310: 624a 03be 0b42 42bc 76d0 623d 2bd4 b83d
00000320: b7c1 d3bc ebaa c43d 32a5 dc3d 89f6 683d
00000330: 4d00 153e 3a02 0d3d 3f3a 75bd f6ce 24be
00000340: 0957 093d fde9 fe3d 2b7e 33bd 3f41 0bbb
00000350: b70e e8bd b091 e9bd ebc3 a8bd b83e 99bd
00000360: aee6 81bd 2f5e 193e e06b 073e 6108 183e
00000370: 341c 193b 9008 34bd 81c8 95bc 1c28 f43d
00000380: 8873 40bd c822 21bd 15e4 06bd 7697 89bc
00000390: 4edb 863c 5140 94bd bdfc 9c3c d15a 0bbd
000003a0: 72de 72bd 2547 c2bd a930 3e3d e849 e1bd
000003b0: ccef 053e 0293 bfbd 3df6 0d3e 3671 6bbd
000003c0: b179 54be 1827 883d 2197 0f3e 0d0f 7a3d
000003d0: 0cb2 1fbe 41e7 11be 2060 c6bd 86b7 ee3c
000003e0: 217d fdbd 93f4 e83d 5db2 2abe c811 9ebd
000003f0: 5feb 4ebc ffc2 96bd 43cc 4d3d ed09 983c

fc.0.bias f4 [32]
0.11742276 -0.016491005 0.018716805 0.0068942024 -0.009044886 -0.13338527 -0.11020397 0.022708142
-0.16240215 0.07043543 -0.1506882 0.12628314 -0.08224008 -0.029898953 0.072100624 -0.08232323
0.15674536 0.07453038 0.051219553 -0.063052535 -0.08761815 -0.12905364 -0.017228281 -0.0554826
-0.063193895 -0.11700255 -0.072112456 -0.1301725 -0.021044785 -0.0058996156 -0.070091896 0.04999452
00000000: 587b f03d 2518 87bc fc53 993c c3e8 e13b
00000010: 0031 14bc 2696 08be 9eb2 e1bd 6d06 ba3c
00000020: c04c 26be 7340 903d 024e 1abe 5e50 013e
00000030: 7d6d a8bd a6ee f4bc 7ea9 933d 1599 a8bd
00000040: db81 203e 62a3 983d 98cb 513d b021 81bd
00000050: 2571 b3bd a326 04be 5322 8dbc b941 63bd
00000060: cd6b 81bd 089f efbd b2af 93bd f14b 05be
00000070: 1d66 acbc 9051 c1bb 578c 8fbd 0ec7 4c3d

fc.2.weight f4 [5, 32]
0.12132111 -0.1427581 -0.07952653 -0.0091511 0.17518042 -0.08485401 0.15301706 0.090782195
-0.08800505 -0.013168357 0.010031387 0.046986748 -0.082198404 -0.006328393 -0.06382965 -0.100016326
0.13681543 0.10571967 -0.10803265 -0.0035794606 -0.025112087 0.12651466 -0.0078040883 -0.1578874
0.07288451 -0.060896773 -0.0228399 -0.003645491 0.028804738 -0.06469817 -0.099040136 -0.04095407
-0.08597696 0.024089802 0.024958335 -0.00572984 0.11919819 -0.023986798 -0.14837092 -0.121801406
0.100810364 -0.006553409 -0.12288095 -0.059905563 0.082485184 -0.13471237 -0.017334994 -0.054471385
0.1778782 -0.06334841 0.07816898 -0.007302714 0.011549827 0.024712076 -0.03574845 -0.06842562
-0.14709379 -0.1459761 -0.09015232 -0.01966909 0.11794296 -0.08333374 -0.11053797 -0.11699484
0.027404508 0.025704289 -0.17484564 -0.045103017 0.11264255 0.070871495 0.13256611 -0.06543198
0.040364444 -0.06027763 0.02921956 0.016470654 0.1139411 0.08277125 -0.016726889 -0.051274244
0.06765855 0.038321093 0.016249051 -0.09110997 0.00085888914 -0.096682325 0.14210844 -0.06977181
-0.027810227 0.110291146 -0.09791358 0.009360951 -0.16545413 -0.14330302 -0.13063827 0.003860208
0.05432466 0.04869278 0.1347875 0.10891937 0.15212397 -0.14846894 0.10100812 0.081610955
-0.03269441 0.080342434 0.080524795 0.03475096 0.086345755 0.08466509 -0.15672679 0.1487377
0.16018382 0.015566113 0.03111983 0.049479596 0.028441112 -0.081840165 -0.0021045706 0.103613235
0.094165325 -0.05774982 0.018988378 0.0090075005 0.078737296 0.0758564 0.027499111 0.091072455
0.027263286 -0.03114858 0.08855313 0.060518198 0.03925685 0.12026511 -0.12287001 -0.076868854
-0.077922754 0.011558981 -0.016928341 -0.02348732 0.012627669 0.1915495 0.026553268 0.15101191
0.15491837 0.057540946 -0.1547681 -0.13058716 -0.011239823 0.11212177 0.11639729 0.114809275
0.1556133 0.035283905 -0.15666832 -0.12405057 0.084796935 0.11979369 0.15374663 -0.06484705
00000000: 3477 f83d 2e2f 12be cede a2bd 7fee 15bc
00000010: 7f62 333e f0c7 adbd 81b0 1c3e 04ec b93d
00000020: fe3b b4bd 18c0 57bc b05a 243c 2d75 403d
00000030: a357 a8bd 685e cfbb 1fb9 82bd 5cd5 ccbd
00000040: 5819 0c3e 8e83 d83d 3940 ddbd 6295 6abb
00000050: ddb7 cdbc 0f8d 013e 70b9 ffbb 3cad 21be
00000060: 7944 953d e56e 79bd be1a bbbc 31e9 6ebb
00000070: eaf7 eb3c 7980 84bd 8ed5 cabd 74bf 27bd
00000080: b014 b0bd fa57 c53c 6c75 cc3c 62c1 bbbb
00000090: 2e1e f43d f67f c4bc 8cee 17be 0473 f9bd
000000a0: aa75 ce3d fbbd d6bb 02a9 fbbd 895f 75bd
000000b0: feed a83d 0af2 09be 1e02 8ebc 631d 5fbd
000000c0: b425 363e d0bc 81bd 0f17 a03d 9b4b efbb
000000d0: 7c3b 3d3c fb70 ca3c f76c 12bd bb22 8cbd
000000e0: c19f 16be c27a 15be c8a1 b8bd 1221 a1bc
000000f0: 148c f13d e1aa aabd bb61 e2bd fe9a efbd
00000100: 6b7f e03c cd91 d23c bc0a 33be f1bd 38bd
00000110: 23b1 e63d 1325 913d 69bf 073e 3401 86bd
00000120: 3055 253d ade5 76bd dc5d ef3c 77ed 863c
00000130: f459 e93d f983 a93d d406 89bc f104 52bd
00000140: 9190 8a3d 94f6 1c3d bb1c 853c dd97 babd
00000150: 1327 613a 6201 c6bd e084 113e 86e4 8ebd
00000160: 46d2 e3bc 53e0 e13d ea86 c8bd ad5e 193c
00000170: cf6c 29be 07be 12be 0ac6 05be 8bfb 7c3b
00000180: 8983 5e3d 1572 473d bc05 0a3e 1e11 df3d
00000190: 63c6 1b3e 3e08 18be 58dd ce3d a523 a73d
000001a0: 93ea 05bd 938a a43d 2fea a43d 0657 0e3d
000001b0: 0bd6 b03d e464 ad3d fd7c 20be b24e 183e
000001c0: 3a07 243e 0309 7f3c 04ef fe3c 1eab 4a3d
000001d0: 56fd e83c d19b a7bd d6ec 09bb 2d33 d43d
000001e0: c0d9 c03d 138b 6cbd 848d 9b3c 3294 133c
000001f0: 0541 a13d 9a5a 9b3d d145 e13c 3284 ba3d
00000200: 4157 df3c 4f2b ffbc 585b b53d eee1 773d
00000210: cacb 203d 8e4d f63d 46a3 fbbd 6b6d 9dbd
00000220: f795 9fbd e161 3d3c 4ead 8abc 7b68 c0bc
00000230: 48e4 4e3c 8d25 443e 3d86 d93c dea2 1a3e
00000240: eca2 1e3e 0eb0 6b3d 877b 1ebe a4b8 05be
00000250: 3c27 38bc 19a0 e53d b461 ee3d 2021 eb3d
00000260: 1859 1f3e db85 103d a96d 20be 3a0e febd
00000270: 04aa ad3d 6556 f53d c26f 1d3e 88ce 84bd

fc.2.bias f4 [5]
-0.02114721 0.2009234 0.17521524 0.009409217 0.20377144
00000000: ea3c adbc ddbe 4d3e a06b 333e 1e29 1a3c
00000010: 76a9 503e
